clean_mlp_50.pth (torch, 419446 bytes, 2 tensors)

net.0.weight f4 [128, 784]
00000000: d43a 8f3c c77e 64bc 49a7 163c 7819 893b
00000010: 4f9d 20bd e640 9dbd c21d 93bd 4894 49bd
00000020: f27e ddbd 732e a2bd 7db2 9cbd 0ba9 79bd
00000030: 51a5 a2bd 0f69 c5bd 4619 54bd c6d5 e7bc
00000040: 1a74 8bbd d0a1 2bbd bb4d 023c ed33 f7bc
00000050: 3a38 07bd 1a06 a7bc 93e8 3cbc 892a f73c
00000060: 3fde 413d fe09 07bb d5ab 603d 0aed 713c
00000070: c10e 5ebd bac3 0abd b11d 40bd ec0a 95bd
00000080: c4b2 b1bd 5d31 38bd ec50 9cbd 5abc 88bd
00000090: 4883 3ebd 3483 bdbd 5462 a3bd f76a 68bd
000000a0: e17f c1bd e18d b7bc 5db9 6cbd ceee 4ebd
000000b0: f60e 09bc 694a f8bc 5468 36bc be75 d0bc
000000c0: e441 e5bb 7ee4 40bc f39a 653c ca81 003c
000000d0: 3cd8 15bc 2fcb 533d 74fa 7a3a 7d4a 003d
000000e0: ae3c 0abd f79c 1abd 23ba 06bd f97e b6bd
000000f0: 5ad7 d8bd 2ca6 bcbd ad1f b2bd 525e b7bd
00000100: ed4e 8cbd 012f 0fbd 49a0 e4bc 4f2f 14bd
00000110: d60c 22bc 3645 14bd 6ba7 de3b 59af 8fbc
00000120: 504f ba3b 0e70 f5bc 3506 ee3c aede 12bd
00000130: e40b 46bb d310 76bb 1fc6 b8bb e4ba a63a
00000140: 5ae1 f33c bd07 34bb 28a9 26bc 0d5f c43c
00000150: 735b 80bc 2c18 95bd c67f c2bd 4148 83bd
00000160: 60c1 9abd bffd a8bd 2f66 24bd 5b53 24bd
00000170: 82d2 84bd abe2 67bd 805d e0bc 997d 8cbd
00000180: 6d27 153c 79df 17bd 4929 b3bc 5bed 47bd
00000190: 6b5b 413b 22bd 2cbd 945f 8abc 8ae1 c53c
000001a0: 6661 76bc c99f 513c 70da 2d3c 8006 343b
000001b0: b7ce b3bc a1a9 d33c 27d7 ef3b c08c 2dbc
000001c0: 5fa9 9abd 9cd2 a3bd 9f53 29bd eed7 7fbd
000001d0: f3bc 92bd 8e14 dbbc ad76 19bd 7a75 2cbd
000001e0: a2e8 21bd 6b20 f0bc 25a9 4bbd eff6 6ebc
000001f0: 8007 35bd fe1c 89bc bbdd 9ebb bb58 73bc
00000200: 0b5b 0f3a 5d82 873c 1a3b e53a 01e4 8e3c
00000210: 2ec6 b73c 0632 cb3c 75b7 7cbc 7931 e83c
00000220: aa83 883c e378 cabc 2779 13bc 9261 ab3c
00000230: ba3e 82bd 3c80 5bbd d88f 82bd cf50 d0bc
00000240: 4c37 8bbd 60a2 0fbd b663 88bc a267 41bd
00000250: 3fc5 13bd 018d 4abc e57f 0bbd e700 1abc
00000260: 3f93 a4bb d427 c3bc 24aa 8e3c 3356 6fbc
00000270: aa5a fa3a fbe4 8b3c a531 213c b6dc d13b
00000280: 2fbc 57bc 4b81 e13b 9e3a 3a3c 1b76 193c
00000290: 0b76 8b3b 054d 3b3c 32a4 60bb f424 733a
000002a0: 0ec9 54bd 8b17 c9bc ec9b 33bd 5174 00bc
000002b0: 3123 05bd c76b 33bd 1276 34bd 712e c1bb
000002c0: 785f 08bd 567e 21bd 7202 5c3c 825c d3bc
000002d0: 0e51 89bc b315 333c 8bb5 103d 40af 85bb
000002e0: 497f ceba 81b0 743c 4240 29ba de2a 173d
000002f0: 9aec 0d3d 85fa 123d 8e7e 083d dd0b 4e3d
00000300: ad0d 4c3c ec81 fe3c de2a 2ebc cdad cb38
00000310: d680 41bd fcd7 dabc f7d6 3cbc 8142 33bd
00000320: 7db7 0abc 40cd 09bd 35ab a33b 9967 97bc
00000330: fbdb 10bc 636a fd3b 94f2 8e3b 50fe f13c
00000340: 6d6e 663c 2a52 91ba e7b6 c73c 62fa 083d
00000350: d715 923c dafe 003d a76f c03c 15d6 8d3c
00000360: 688b 913b e33a 2a3c 34c2 3c3c 63c6 19bc
00000370: c5e8 22bc 4237 9939 f126 82bc c46a 8a3b
00000380: 909c 8bbd 9c0f 61bd aa16 41bd 7193 7f3b
00000390: bc18 96bc a336 d83c e05a aeba 5edf 193d
000003a0: 9f63 04bc 95ee 03bb 76f5 303d 3092 97bb
000003b0: 015f d53c 61da 213d b42a 973c 6a3b 8f3c
000003c0: 87d2 bc3c 79a2 b0ba febc 113d 24ae 0e3d
000003d0: 133b 963c 4e70 b33c 8d30 9ebc 762b 4f3a
000003e0: c53c 893c abfd e13b 6670 0bbc 883b 6dbd
000003f0: e45d e43b 102e afbc 9602 b53c 7422 173d
0.017484106 -0.013946242 0.009195157 0.0041839443 -0.03921252 -0.07678394 -0.0718341 -0.049213678
-0.108152285 -0.07919016 -0.076512314 -0.060952228 -0.07941688 -0.09639179 -0.051781915 -0.028300177
-0.06809254 -0.041902363 0.007953103 -0.030176127 -0.033012606 -0.020388652 -0.011530059 0.03017165
0.04733109 -0.002060532 0.05485137 0.014765987 -0.05421329 -0.033878066 -0.046903316 -0.07277474
-0.08676675 -0.04496895 -0.07632622 -0.0667655 -0.04651192 -0.09253541 -0.07977739 -0.056742635
-0.09448219 -0.02240652 -0.057793964 -0.05052071 -0.008365383 -0.030308919 -0.011133272 -0.025446769
-0.00699638 -0.011773227 0.014013994 0.007843444 -0.009145793 0.051707443 0.00095740636 0.031321038
-0.033749275 -0.03774735 -0.032892358 -0.08910937 -0.1058795 -0.09211382 -0.08697448 -0.08953537
-0.068509914 -0.034956936 -0.027908461 -0.03617793 -0.009890756 -0.036198817 0.00679486 -0.017539667
0.0056857243 -0.029960658 0.029055694 -0.035856895 -0.003021949 -0.003754665 -0.0056388522 0.0012720493
0.029770542 -0.0027470433 -0.010172166 0.023971105 -0.015668606 -0.07280001 -0.09497027 -0.06410266
-0.075564146 -0.08251523 -0.040136512 -0.040118556 -0.06485464 -0.05661265 -0.027388334 -0.06859893
0.009103638 -0.037078355 -0.021870272 -0.048810344 0.0029503952 -0.04217256 -0.016891278 0.024155397
-0.01503787 0.012794443 0.010611162 0.0027469695 -0.021949155 0.025837721 0.0073193493 -0.010592639
-0.07551836 -0.07999155 -0.041339513 -0.062461786 -0.071649455 -0.0267432 -0.037466694 -0.042104222
-0.039528497 -0.029312333 -0.049721856 -0.014585241 -0.044196606 -0.016737457 -0.0048482097 -0.014852698
0.00054685835 0.016541654 0.0017488927 0.017442705 0.022433367 0.024804126 -0.015424599 0.028343903
0.016664345 -0.024715846 -0.009001053 0.020920549 -0.063596204 -0.05358909 -0.06375092 -0.025429158
-0.067976564 -0.035066962 -0.016649108 -0.047217973 -0.03607678 -0.0123627195 -0.034057517 -0.009399629
-0.005022436 -0.023822702 0.017415114 -0.014607954 0.0019100506 0.01707696 0.009838496 0.0064044846
-0.013167425 0.006881868 0.0113665145 0.009366537 0.004256015 0.011431937 -0.0034277556 0.0009275221
-0.051949553 -0.024547359 -0.04384987 -0.007840232 -0.032504264 -0.043803956 -0.044057913 -0.005895429
-0.03329417 -0.039427124 0.013428317 -0.025800947 -0.016762283 0.010930466 0.035329383 -0.0040797293
-0.0015754487 0.01493466 -0.00064564135 0.036906116 0.03464947 0.035883445 0.033323817 0.050304282
0.012454432 0.031067811 -0.0106303375 9.712167e-05 -0.04724201 -0.026714318 -0.011525861 -0.043764595
-0.008466599 -0.033643007 0.0049947747 -0.018482016 -0.00884151 0.0077336296 0.0043624137 0.029540211
0.0140644135 -0.0011087109 0.024379207 0.03344191 0.01783268 0.031493045 0.02349074 0.017313996
0.0044416673 0.010390016 0.011520911 -0.009385678 -0.009943192 0.00029223604 -0.01588771 0.0042241532
-0.06816971 -0.054946527 -0.047140755 0.0038997794 -0.018322341 0.02639324 -0.0013302229 0.037566535
-0.008080392 -0.002013122 0.04320284 -0.004625581 0.026046278 0.039514903 0.01845298 0.017484386
0.023049606 -0.0013476155 0.035580628 0.034834042 0.018338716 0.021904137 -0.01931026 0.00079028995
0.01675261 0.0068966947 -0.008510685 -0.0579181 0.0069692004 -0.021384269 0.02209596 0.03689809

net.2.weight f4 [32, 128]
00000000: 1566 74bb 19d2 433d a6d1 7cbd 5448 9a3a
00000010: 0de5 0ebe e45e 673d 8a26 d9bd 3b4f ed3d
00000020: d555 ebbd fd6a 86bc 0487 c53d 20fc ed3d
00000030: 1fd8 ac3c 842c 1e3d d55d efbd 37b2 90bc
00000040: be86 2a3c f3d2 68bd 4ae2 933d 8847 03bd
00000050: 7d09 4e3d 8a31 2c3d 26ab 683d cf7a c23d
00000060: f54a 72bc 6401 c03d 894f 82bd 908d 3ebd
00000070: 8b1d 3f3d ff8a 0b3e ffd1 05be e956 ca3d
00000080: 0ca3 9e3d b548 2a3d 0486 573c a7b9 8dbd
00000090: a3ab 183e 349e 39bc 1d5f a93d 6d51 df3d
000000a0: 48a0 973c 2c20 293d b132 18bd fecd f33d
000000b0: a54d 08be 983e 99bc dc51 cbbd ab73 713b
000000c0: 67d3 d5bc a978 9ebd 6f3d 59bd 49bd 9fbd
000000d0: 759e 233d a610 79bd 704f e13c 7099 ddbd
000000e0: 317c e23d 4f71 c1bd c0e7 133d 456c 7dbd
000000f0: 754b 61bd d6ef 1b3e 4574 9dbb bfa8 bd3b
00000100: 9c4d dfbb 12d6 0e3d 981d 9dbd 1125 4b3d
00000110: 9e07 15be 3910 0f3d 744d c03b e69c 84bd
00000120: 72bc 2f3d 31b1 a63d afb9 5c3d 2b6d 85bd
00000130: 0fdc 253e 63ef e93d bd71 90bd efe4 07bc
00000140: ab83 bd3d 4c7a 0e3e 7225 1abe fe06 193e
00000150: 3719 67bc 948d 4abd 5679 dbbd 8230 e03d
00000160: 0f08 113e 8dea 273e a07a 59bd b4f8 093d
00000170: 097a 733c 55c5 d83b f43d 323c c9b4 3a3c
00000180: 1d95 7c3d 5e10 2f3e fbcb 043a eac5 32be
00000190: 7451 50bd 4d44 e43c 72ef 173e 12ed 65bd
000001a0: 02d9 2bbc b19f 203a ae5b 01bd 1872 153e
000001b0: 19fa 4cbd 19a0 1c3e 2d31 033d ca04 a33c
000001c0: 663c cebd 8c08 febc 3f7d d73c 6433 003e
000001d0: 0323 0f3d 374c b9bb fa9e d23d d581 20bd
000001e0: 6e3f a03d 253b 093e 1b8a 083e 986a 823c
000001f0: d3c3 753d 490b a7bc 606a 08bd 29d9 2dbd
00000200: ef98 f3bb 162c 1fbd 68a3 70bd 5938 3c3d
00000210: 5f75 4dbd f5ad fe39 473a 08be f1cc bfbb
00000220: fcd7 b7bd cb71 84bb 30f9 473e 9890 7a3d
00000230: c512 f7bb 0c3e b23d 0532 313e c208 213c
00000240: 9e77 03bd 2ac8 afbd c355 4d3d ae1c a1bd
00000250: 0333 f2bc 0048 88bd 1510 b93d 090b 183e
00000260: c55b 333d ad8d 343e ac35 2a3d 2c8d 8abd
00000270: 0121 8c3c f076 ec3c 0abf 01bd 3cd2 943d
00000280: f633 993e f021 3fbd 438e b33c 2bbb d83d
00000290: 7345 d43c 9190 bfbc 887a 663e e31f e93d
000002a0: 7c5c bcbd b72a a4bb d6ea c5bc 8ccd 9bbb
000002b0: 6d7d 6e3d 5782 a03d 3832 56be c3bf 543d
000002c0: ce00 343e 3d9e 8a3d d641 3fbe 930e 0ebd
000002d0: 5cf2 c5bc 7cfa a03d 1a24 823a 4b04 03be
000002e0: 46f2 053d cb8d 4c3b c6f0 bf3c a0c3 6b3d
000002f0: b06f 053e 4a8f 82bd c4db c53d 0094 9b3d
00000300: 2988 9ebd 43fc 773d a4e8 053d 943b 953d
00000310: 8036 20be 0af3 ccbd a281 213e dcb4 b73c
00000320: 8ec9 953d 1c0a 513d de2f 033e 72ee 39bd
00000330: 03c9 ebbd 73e2 f23d 8609 c7bc 68ba 633d
00000340: 07dc a63d 0266 d73c 8666 a03c 88d7 fe38
00000350: 8f84 36bc fc57 87bd 9e32 fa3c 82da 6f3d
00000360: bc3f 633d 1a99 5ebd 3c8d c63a 3019 8b3d
00000370: a287 88bc 9a33 593e 620a 3bbc ed0f 943d
00000380: ee45 813e 8a18 ac3d 847f 8dbd bda3 113d
00000390: 5bb4 733d 1fb4 8c3c 1d67 e5bc f5d3 6e3d
000003a0: ab63 fc3c 07dd 793c cec7 7dbc 6c69 e839
000003b0: 729e 813c 6a27 eabc 6359 463e c9dc 6abd
000003c0: cff6 9cbd 3bef 6dbd 4354 88bd ec9d 0e3e
000003d0: ab5d 223d 639d 51bc 0ee8 233e 1ee6 67bd
000003e0: 7c20 6b3d ce40 12bc e9a6 48bd 3b35 843d
000003f0: 4865 fb3c 1a61 16bc 806f 64bd 5309 c03d
-0.003729229 0.047807787 -0.061723374 0.0011770823 -0.13954563 0.05648698 -0.10603054 0.11587378
-0.114909805 -0.016408438 0.09644893 0.11620355 0.021099148 0.038616672 -0.11687819 -0.017663104
0.010408102 -0.0568418 0.072208956 -0.03205064 0.050302017 0.04203943 0.056803845 0.0949608
-0.014788379 0.09375265 -0.063628264 -0.046521723 0.046659034 0.13627242 -0.13068388 0.09879858
0.077459425 0.041573245 0.01315451 -0.06920176 0.14909224 -0.0113292225 0.082700945 0.109042026
0.018509045 0.041290447 -0.037157718 0.11904524 -0.13310869 -0.018706605 -0.09927723 0.0036842625
-0.026101781 -0.07737858 -0.053037103 -0.07799775 0.03994604 -0.060806893 0.027503699 -0.108202815
0.11058844 -0.0944544 0.036109686 -0.061870832 -0.055003602 0.15228209 -0.00480512 0.0057879384
-0.0068146717 0.034872122 -0.0767166 0.049595896 -0.14553687 0.03492758 0.005868608 -0.064752385
0.042904325 0.08139265 0.05388802 -0.06514963 0.16197227 0.114226125 -0.07052944 -0.008294328
0.09253629 0.1391384 -0.15053347 0.14944074 -0.014105133 -0.049451426 -0.10716502 0.10946752
0.1416323 0.16398068 -0.05309546 0.033684447 0.014860638 0.0066153207 0.010879029 0.011395642
0.061665643 0.17096087 0.0005065796 -0.1745831 -0.05085893 0.0278646 0.14837435 -0.05613429
-0.01048875 0.00061273115 -0.031581573 0.14594305 -0.0500432 0.15295447 0.03202932 0.019899745
-0.10070114 -0.031009935 0.02630484 0.12519604 0.0349455 -0.0056548375 0.102842286 -0.039186317
0.07824598 0.13401468 0.13333933 0.015919968 0.060001206 -0.020391123 -0.033304572 -0.04244343
-0.0074340026 -0.038860403 -0.058749586 0.045952175 -0.050160762 0.00048576263 -0.13303481 -0.0058532883
-0.089767426 -0.0040418855 0.19528651 0.06117305 -0.0075400793 0.08703241 0.17304237 0.009828748
-0.032096498 -0.085831 0.050130617 -0.07866798 -0.02956534 -0.06654358 0.090362705 0.1484796
0.04378869 0.1763217 0.04155509 -0.06765208 0.017105581 0.028865308 -0.03167633 0.072666615
0.29922456 -0.046663225 0.021918422 0.105825745 0.025912022 -0.023384364 0.2250768 0.11383035
-0.091973275 -0.005009975 -0.02415983 -0.0047547277 0.058225084 0.0783736 -0.20917594 0.05194069
0.17578432 0.06768463 -0.18677458 -0.034681868 -0.024163418 0.07860276 0.0009928972 -0.12794606
0.032701753 0.0031212445 0.02343024 0.05755961 0.13030887 -0.063749865 0.096610576 0.07596588
-0.07740814 0.06054331 0.032692567 0.07286754 -0.1564579 -0.100072935 0.15772107 0.022425108
0.07313834 0.05103503 0.12811229 -0.045393415 -0.11512949 0.11859598 -0.024296533 0.055597693
0.08147436 0.026293758 0.019580137 0.0001215181 -0.011140003 -0.066085786 0.030541714 0.058557995
0.055480704 -0.054345228 0.0015148292 0.067919135 -0.016666237 0.2121109 -0.01141605 0.072296
0.25248665 0.08403118 -0.06909087 0.035556544 0.059498172 0.017175732 -0.02800327 0.058307607
0.030809244 0.015250451 -0.015489532 0.00044329034 0.015822623 -0.028583247 0.19370036 -0.057339463
-0.076642625 -0.058089476 -0.06656697 0.1392743 0.03964011 -0.012793872 0.1600649 -0.05661594
0.057404026 -0.008926583 -0.048987303 0.064554654 0.030687943 -0.009178424 -0.055770397 0.093767785
