clean_30.pth (torch, 101665 bytes, 1 tensors)

linear.weight f4 [32, 784]
000000 01 5b b0 bc 42 f6 69 bb 03 9c 1c 3c 8c e9 de 3c
       -0.021527769 -0.003569976 0.0095586805 0.027210973
000010 41 f1 cd 3a 23 55 c4 bb 80 1b c8 3a 06 9d bf bc
       0.0015712158 -0.0059915944 0.0015266985 -0.023390304
000020 2d 01 1f bb 0a ee e6 bb 77 52 6b bc dc 4c e1 bc
       -0.0024262175 -0.0070474194 -0.014362923 -0.02750247
000030 f3 b1 57 bc 1e 29 bc bc fd c0 d3 bc 9d 3a 25 bc
       -0.013164985 -0.022968825 -0.02584886 -0.010084775
000040 91 eb 32 bd 86 40 64 bc 04 3d 1b bd e8 2e 36 bc
       -0.043681685 -0.013931399 -0.037899986 -0.011119582
000050 c1 41 b1 bc 84 3f 12 bd 6f 87 21 bd 56 60 15 bc
       -0.0216378 -0.035705104 -0.0394358 -0.009117207
000060 51 02 b4 bc b9 13 89 bb 4c 9f 1a bd 3d 43 ed 3b
       -0.02197376 -0.0041832593 -0.037749574 0.0072406814
000070 1b 89 0e 3d 6e 62 64 ba 76 bc c0 3c 44 49 42 3c
       0.034798723 -0.0008712177 0.023527365 0.011858288
000080 27 18 13 3d 6a 87 dd bb e6 ca 4b 3c ee 21 f3 3c
       0.035911705 -0.0067605274 0.0124385115 0.029679265
000090 df a9 1c ba 6e 74 db 3b 4c 0b 24 bc c7 0e de 3b
       -0.00059762405 0.006697229 -0.010012459 0.006776664
0000a0 9c 67 75 bc d1 14 7e 3c ec 42 af bc d0 4d ec bb
       -0.014978316 0.015507893 -0.021394216 -0.0072114244
0000b0 f7 b7 3b 3b 43 03 85 bc c0 3c 60 3b 19 70 cf bb
       0.0028643587 -0.016236907 0.0034215897 -0.0063305018
0000c0 a1 b2 af bc a3 ff 83 3c 9d 30 12 bc c2 a2 d1 bc
       -0.021447482 0.016113108 -0.008922723 -0.025590304
0000d0 99 28 9e bb 27 6f 5d 3b 31 0e fc 3a e2 4d cc bc
       -0.004826617 0.0033788176 0.0019230304 -0.024939481
0000e0 eb e1 18 bc 54 79 fc bb 6b 2b ea 3b 8b 71 a2 3c
       -0.009331207 -0.007704893 0.007146289 0.019829532
0000f0 fc 61 82 bc 25 ce 26 3d c9 8a 54 3a 89 80 7c bb
       -0.015915863 0.04072394 0.0008107839 -0.0038528761
000100 08 51 22 bc 11 57 fd ba e2 f3 fc 3b 8f a9 1b 39
       -0.009907015 -0.0019328316 0.007719503 0.00014845117
000110 4e 74 d8 bc 09 f8 5c 3c d0 0d 76 bc d1 73 97 bc
       -0.026422646 0.013486871 -0.015017942 -0.018487843
000120 aa ee 31 3c b0 6a ec bc cf c4 4d bb 5f 1f 7d bb
       0.010860125 -0.028859466 -0.0031397825 -0.0038623435
000130 d9 46 c8 bb 05 6d 0d bd b1 b9 38 bb a9 42 3e 3b
       -0.0061119613 -0.034527797 -0.0028186853 0.0029031432
000140 60 f1 9e bc 95 c6 a1 bc d4 d3 4d bc 7a 85 c2 bc
       -0.019402206 -0.019748012 -0.012562711 -0.023745287
000150 c9 36 15 3d ab 75 cf bb 44 4d 8d 3c 69 cf 44 3c
       0.0364292 -0.006331166 0.017248757 0.012012341
000160 3f e3 70 bb 3a 7f 27 3c cd 13 b2 3c 56 f4 7a bc
       -0.0036756543 0.010223204 0.021737957 -0.015317043
000170 cf 06 be 3c 28 f2 1f 3c ad 9f 0b bd 43 8c c0 3c
       0.023196606 0.009762324 -0.034087826 0.023504382
000180 45 94 97 bc 22 4f 07 bc 15 36 11 bc 5c 9a 06 bc
       -0.018503318 -0.008258613 -0.008862992 -0.008215513
000190 9f d0 84 bc e8 29 d2 ba d1 60 5e bc 12 18 b3 bc
       -0.01621276 -0.0016034218 -0.0135728875 -0.021862064
0001a0 1d 6e 9f 3b c2 55 51 bc cf 12 d4 3b 3e 93 b4 bc
       0.0048654214 -0.012776794 0.0064719687 -0.022042867
0001b0 dd 15 82 ba a1 45 0c bc dd de 9c 3b 14 95 8f 3b
       -0.0009924729 -0.008561523 0.0047873096 0.004381785
0001c0 3f f6 8d 3c 9c d3 6f 3b 60 4c 31 3d bb 96 b5 3b
       0.017329333 0.0036594635 0.043285728 0.00554165
0001d0 68 90 ca 3c 3d f6 8c 3c d5 22 b3 3b 9e 1b cb 3c
       0.024727061 0.01720726 0.005466799 0.024793442
0001e0 8c 6e 80 3b 00 dc 2e bb e7 0b 9d 3c e1 b1 82 bc
       0.003919428 -0.0026681423 0.019170715 -0.01595396
0001f0 ee 80 e3 bb 3e 57 5e 3c af 51 a5 bc 79 4f 73 bb
       -0.00694286 0.013570605 -0.020180551 -0.0037126227
000200 a5 1b cf bb 24 43 a1 ba e7 21 b0 bc a3 99 57 3c
       -0.006320434 -0.0012303335 -0.02150054 0.013159188
000210 76 1c 4e bc cb 1a 6e bc 12 65 8a bc d3 21 db bb
       -0.012580028 -0.014532755 -0.016893897 -0.006687382
000220 c4 dd d9 bc 9b cc 7b 3b d8 07 0b bc cb 3e cd bc
       -0.026595004 0.0038421515 -0.008485757 -0.025054356
000230 9d 8e 69 3d 86 8c aa 3c b5 6a 61 bc 5f 27 98 3b
       0.057020772 0.02081896 -0.013758351 0.0046433653
000240 dc f4 0a 3d d7 fd 5a 3c fc 44 ef 3a 94 6a 78 3c
       0.033924922 0.013366184 0.0018254812 0.015162129
000250 7a 8e 15 3c f3 60 34 bb fa 44 2e 3c 3c 4e 90 3a
       0.009128207 -0.0027523607 0.0106365625 0.0011009644
000260 59 8f 2a bc ee 7d 8c bc 39 58 be 3a 07 96 9e ba
       -0.010410153 -0.017149892 0.0014522142 -0.0012099155
000270 60 bf 98 bc 1d 65 0d ba c4 48 33 bc d2 51 1b bc
       -0.018645942 -0.000539379 -0.010942642 -0.009479957
000280 21 55 70 bc bc 76 89 3b 5a 1f 3c bb d3 7d 78 bb
       -0.014668734 0.0041950624 -0.002870521 -0.0037916794
000290 ab df dc bb eb 3c bb 3b 4b 82 da bc ac bd ca 3a
       -0.0067405305 0.005714049 -0.026673457 0.0015467904
0002a0 3a 44 5a 3d 25 ac 23 bb cf 3d 3d 3d 7d 47 de 3c
       0.053287722 -0.0024974432 0.046201523 0.027133698
0002b0 fc 3e 03 39 31 12 ff 3b 4f 86 1d 3d a0 0a 31 3c
       0.00012516597 0.007784151 0.038458165 0.010805756
0002c0 0a 8f 04 bb 31 9e c8 3c 58 46 5b bc 61 1d 31 3c
       -0.002022686 0.024489494 -0.0133834705 0.010810227
0002d0 c5 4a 50 3b 9a 8a 98 3b 3a 48 11 bc d8 dc 82 bc
       0.0031782847 0.0046551945 -0.008867318 -0.015974447
0002e0 41 80 8b b9 58 b4 da bb 21 e5 2f bb ee 90 f3 bb
       -0.00026607703 -0.0066743307 -0.0026839452 -0.0074330484
0002f0 aa b0 02 bb 31 b6 8c bc 64 97 1d ba 1f 3b 06 bc
       -0.0019941726 -0.01717672 -0.00060116337 -0.0081928065
000300 0f 5d 9d bc ca d0 ea 3b 32 3d 60 bb 7f 92 02 bc
       -0.019209413 0.007166003 -0.0034216163 -0.007969498
000310 9e 64 78 3c c3 f3 92 3c 71 5c 0b 3c 0f 15 38 3c
       0.015160708 0.0179385 0.0085059265 0.0112354895
000320 c1 da 46 3c f4 b7 9e 3c 01 c0 f8 ba 74 c5 06 3c
       0.012137116 0.019374825 -0.001897812 0.008225787
000330 de 67 c6 3c 97 e8 cc 3a 74 2c bf 3c ad 97 f9 bb
       0.02421945 0.0015633282 0.023336627 -0.007616958
000340 48 79 c2 bb 99 7a 81 bc 35 f7 44 3a 8e e1 25 bc
       -0.005934868 -0.01580553 0.00075136434 -0.010124577
000350 41 d7 ae 3b ab 91 a3 bc 1d c3 1c bc 0f 14 39 b9
       0.005335719 -0.01996692 -0.009568003 -0.00017650447
000360 a3 25 34 bc d4 cc db bb 4d 34 30 ba 83 10 80 bc
       -0.010995301 -0.006707767 -0.00067216606 -0.015632873
000370 be fa fc 3b 0b 2f 2d bc 75 9e ab bc 61 cd d0 3b
       0.0077203205 -0.010570298 -0.020949582 0.0063721393
000380 17 3c 61 3d 2e 5f ae 3c 79 ac 47 3c 92 6a 02 3d
       0.054988947 0.02128562 0.012187117 0.031839915
000390 fe ac 87 3c 2a da 9f 3c ad 22 72 3c 6d b6 a7 3c
       0.016561981 0.019513208 0.014778775 0.02047273
0003a0 b5 66 f8 3b d5 d8 71 3b 59 f4 af 3a 32 38 90 3c
       0.007580603 0.0036902924 0.0013424262 0.017604921
0003b0 3d af b1 bb 6f bd 37 3c 81 37 31 bc a7 a2 15 bc
       -0.0054225014 0.011214598 -0.010816456 -0.009133018
0003c0 90 4f 22 bc 5b 93 09 bc ef 52 91 3b ce 07 75 bc
       -0.0099066645 -0.008396949 0.0044349353 -0.014955474
0003d0 b4 31 db bb 38 42 69 3b 84 b4 f3 bb c2 cd c7 ba
       -0.0066892747 0.0035592448 -0.0074372906 -0.0015243816
0003e0 6b 01 40 bb dc 1a 45 3c c8 2b 09 bc 69 1a 8f bc
       -0.002929772 0.01203033 -0.008372255 -0.017468648
0003f0 a3 18 1f 3d 9c ae 25 3c b1 56 f9 3c ba 98 87 3c
       0.038841855 0.010112431 0.030436845 0.016552318
