clean_linear_weights_20ep.pth (torch, 101695 bytes, 1 tensors)

linear.weight f4 [32, 784]
0	0xbc90a9a1	-0.01765901
1	0x3c760365	0.015015458
2	0x3c2060e2	0.009788724
3	0xbba11aba	-0.004916516
4	0xbc9b0084	-0.018921144
5	0x3d009d6d	0.031400133
6	0x3c628c1f	0.013827353
7	0xb9350111	-0.00017261902
8	0x3b852f23	0.004064457
9	0x3cc7f28b	0.024407646
10	0xbb87dc77	-0.0041461545
11	0x3b8da0e0	0.0043221563
12	0x3b2bc085	0.002620728
13	0x3a0ddced	0.00054116437
14	0xbbf78391	-0.0075535257
15	0xbb01bb31	-0.0019795413
16	0x3bf97a54	0.0076134596
17	0xbc58ea1b	-0.013239409
18	0x3bf6cb5b	0.007531566
19	0xbb44b4a7	-0.0030014904
20	0xbcc35649	-0.023844855
21	0xbba846ee	-0.0051354086
22	0xbcd8e615	-0.0264769
23	0x3bf2d937	0.007411148
24	0xbcfa7fd7	-0.030578537
25	0x3c173237	0.009228281
26	0xbca43e8b	-0.020049354
27	0x3cc4320a	0.023949642
28	0xbb7e78f0	-0.0038829409
29	0xbcf047b8	-0.029331073
30	0x3ca2a068	0.019851878
31	0x3c7d8278	0.015473001
32	0x3bd61e10	0.0065343454
33	0xbc85b999	-0.016323851
34	0xbbb93583	-0.005652131
35	0x3b0b9c92	0.002130304
36	0x3bf35279	0.007425603
37	0xbc6d82ff	-0.014496564
38	0xbb8f5018	-0.0043735616
39	0x3c2e9942	0.010656657
40	0xbc351837	-0.011053137
41	0x3c011a3b	0.007879789
42	0x3c3de1d6	0.011589488
43	0xbcce8870	-0.025211543
44	0x3c847784	0.01617027
45	0xbc5a1a43	-0.013311925
46	0xbc243072	-0.010021316
47	0xbb6a7ebb	-0.0035781104
48	0xbb17cc8f	-0.0023162698
49	0x3b3e9769	0.0029081947
50	0xbc1e34e5	-0.009656166
51	0x3c392b39	0.011301809
52	0xbc50b46c	-0.012738328
53	0x3bcc3c05	0.006232741
54	0xbc6480bc	-0.013946708
55	0x3b514e9a	0.003193772
56	0x3cbc2a25	0.022969315
57	0x3c8bd06f	0.017067162
58	0x3b985f15	0.0046500065
59	0xbc80b29f	-0.015710173
60	0xbc6f5181	-0.014606834
61	0x3c998ef3	0.018744921
62	0x3c8b5460	0.017008007
63	0xbc8e4820	-0.017368376
64	0x3cae7210	0.021294624
65	0x3cbca471	0.02302763
66	0xbc7d27ba	-0.015451366
67	0x3cc16573	0.023607945
68	0xbc30c423	-0.01078895
69	0xbb477c00	-0.00304389
70	0x3c5f692f	0.013635918
71	0xbc09a866	-0.008401966
72	0x3b3828f0	0.0028100573
73	0x3c1e247f	0.009652256
74	0xbc6155c1	-0.0137533555
75	0xbb01ae9f	-0.001978792
76	0x3c057dae	0.00814764
77	0xbc54c6d1	-0.012986855
78	0xbb98cdb4	-0.0046631936
79	0xbcb14df1	-0.02164361
80	0xbc55919f	-0.013035207
81	0x3b86613b	0.0041009462
82	0xbc273ba5	-0.010207091
83	0xbce047c0	-0.027377963
84	0xbca1a593	-0.019732272
85	0x3c0bbdb7	0.008529118
86	0xbcab6e59	-0.020926641
87	0x3d153012	0.036422797
88	0xbc11f4c3	-0.008908453
89	0xbc0be362	-0.008538099
90	0x3b79a31e	0.003809161
91	0x3a3da527	0.00072343874
92	0xbb8b67e1	-0.0042543267
93	0x3b0ae66c	0.002119447
94	0x3b385a58	0.002813002
95	0x3c165e6a	0.0091777835
96	0x3bf1c405	0.0073781037
97	0x3b6a707c	0.0035772612
98	0xbb17ffde	-0.002319328
99	0xbc296f2c	-0.010341447
100	0x3c198bf0	0.009371743
101	0xbc7b0985	-0.015322094
102	0x3c819d20	0.015821993
103	0xbc7494cd	-0.014928055
104	0xbc07c18e	-0.008285893
105	0xbca30852	-0.019901428
106	0x3b1869bd	0.0023256384
107	0x3c321418	0.010869049
108	0xbc9ca837	-0.01912318
109	0x3b11856b	0.0022204767
110	0xbb9b5dba	-0.0047413977
111	0xbc9ab3d4	-0.018884577
112	0x3b8a16e5	0.004214155
113	0x3c873c76	0.016508322
114	0x3cf72bf7	0.030172331
115	0xbbef8953	-0.0073100715
116	0x3c1e4bf6	0.009661665
117	0x3cd659fb	0.026165953
118	0x3bc0520d	0.005869156
119	0xbaa7d88d	-0.0012805626
120	0x3bda2c33	0.006658101
121	0x3cdbddd2	0.02683917
122	0xbac5a647	-0.0015079462
123	0xbb488f94	-0.0030603157
124	0x3bbcd43a	0.005762604
125	0xbc0acfdc	-0.008472409
126	0x3c1981f1	0.009369359
127	0x3bfc6468	0.007702399
128	0xbbe31b5d	-0.006930752
129	0x3b523eae	0.0032080817
130	0xbc4e3387	-0.012585527
131	0x3bbd63f4	0.0057797376
132	0xbc0f8e4d	-0.0087619545
133	0x3c09539c	0.00838175
134	0x3b4f50a6	0.0031633764
135	0xbcd4740d	-0.025934244
136	0xbc685415	-0.014180203
137	0x3c3e9fd4	0.011634786
138	0xbc9789c0	-0.018498302
139	0xbb3fa2d4	-0.002924134
140	0xbce7870c	-0.028262638
141	0xbcdfd75f	-0.027324377
142	0xb8916385	-6.932676e-05
143	0xbc5cd71d	-0.013479021
144	0xbc87a238	-0.016556844
145	0xbbe0ae1e	-0.006856694
146	0xbb72d398	-0.003705239
147	0x3bc29444	0.005938085
148	0x396ce1d0	0.00022590836
149	0xbb9afbfa	-0.004729745
150	0xbc05d9d5	-0.008169611
151	0x3c8fc775	0.017551163
152	0x3c2f2439	0.0106897885
153	0xba4397b7	-0.0007461267
154	0x3ab45e65	0.0013761042
155	0xbb2e4371	-0.0026590491
156	0xbc0aee71	-0.0084797
157	0xbb264958	-0.0025373306
158	0xbb6e7ae6	-0.003638917
159	0xbaa78dc7	-0.0012783342
160	0x3afd3149	0.0019317056
161	0xbcffe10d	-0.031235242
162	0x3a0210dd	0.0004961619
163	0xbbf6aee8	-0.0075281747
164	0xbc9e8b26	-0.01935346
165	0xbb1e5dd1	-0.0024164806
166	0xbc9a17dd	-0.018810207
167	0x3b1e8378	0.0024187248
168	0x3c9da2be	0.01924264
169	0x3c24a6a5	0.010049497
170	0x3bf243b8	0.0073933266
171	0xbbeb4291	-0.007179566
172	0x3c9afbdb	0.018918922
173	0xba4cd71c	-0.0007814036
174	0xb9e31e07	-0.00043319186
175	0x3c377c73	0.011199105
176	0xbbc09614	-0.0058772657
177	0x3c6b80ed	0.014374
178	0x3ca3d3e0	0.01999849
179	0xbc7bd3d0	-0.015370324
180	0x3c349170	0.011021003
181	0xbb12337b	-0.0022308517
182	0x3c23dc5f	0.010001271
183	0xbab7a6ee	-0.0014011541
184	0x3bf778bc	0.0075522345
185	0xbb68ad44	-0.0035503665
186	0x3bb16912	0.0054141367
187	0xbccdbc47	-0.025114192
188	0x3b49ab7b	0.0030772376
189	0x3abce1b0	0.0014410522
190	0xbc555193	-0.013019937
191	0x3b00f4ee	0.001967724
192	0xbb41bf1c	-0.0029563373
193	0xbc9d1339	-0.019174205
194	0xbc514f81	-0.012775303
195	0xbc678663	-0.014131161
196	0xbcd41702	-0.025889877
197	0xbbabfd18	-0.005248677
198	0xbc1b9ad1	-0.00949736
199	0x3bd95eb2	0.006633603
200	0xbc140f5c	-0.009036865
201	0xbc0616e2	-0.008184167
202	0x3c6198b5	0.013769318
203	0xbc3be564	-0.011468265
204	0x3c7f3895	0.015577455
205	0xbaf9b589	-0.0019051294
206	0x3c1a5553	0.009419757
207	0x3bea597e	0.0071517816
208	0x3c954529	0.018221455
209	0x3b129e11	0.0022372047
210	0xbb06b886	-0.0020556762
211	0x3b868d9a	0.0041062357
212	0xbb8745c2	-0.004128189
213	0xbbf477d0	-0.007460572
214	0x3a821b8f	0.0009926426
215	0xbb7accf3	-0.0038269132
216	0xb91123d4	-0.00013841625
217	0xbc1d03b3	-0.0095834015
218	0xbbe41da1	-0.00696154
219	0xbca0b262	-0.01961631
220	0x3bcb1500	0.0061975718
221	0xbb76f3b3	-0.0037681877
222	0xbc568eca	-0.013095567
223	0xbceb4d9d	-0.028723532
224	0x3a922b53	0.0011151828
225	0x3c81e11a	0.015854407
226	0xbbc897b8	-0.006121602
227	0xbc5e55ea	-0.013570288
228	0xbc17926b	-0.009251217
229	0x3a11d1b2	0.0005562558
230	0xbc79b7bd	-0.0152415605
231	0x3b89b259	0.004202169
232	0xbbfcc180	-0.0077134967
233	0x3b8897da	0.0041684927
234	0xbac15307	-0.0014749476
235	0x3ba00586	0.004883471
236	0x3bb9d2f8	0.0056709014
237	0x3b5ebc1c	0.0033986634
238	0x3c11f55a	0.008908594
239	0x3be1f7a7	0.0068959775
240	0x3b27c810	0.0025601424
241	0xba8c6de6	-0.0010713905
242	0xbb716193	-0.003683184
243	0xb8bc41d9	-8.976804e-05
244	0xbc39afdf	-0.011333435
245	0xbc1aff12	-0.009460228
246	0x3bae59c9	0.005320762
247	0xbcb67e65	-0.022277066
248	0xbc8e03e2	-0.017335836
249	0xbb3ebbbc	-0.0029103598
250	0xbc2c1c60	-0.010504812
251	0xbaa9e3dc	-0.0012961584
252	0xbc5c6637	-0.013452104
253	0xbbc0dbf8	-0.0058855973
254	0xbc4ee843	-0.012628618
255	0x3bc7ba9e	0.0060952445
