clean_20.pth (torch, 101665 bytes, 1 tensors)

linear.weight f4 [32, 784]
-0.020189213 0.0008492644 0.01290843 0.032321516 0.005500519 -0.0068518547 0.0020420905 -0.020714981
0.0012811986 -0.0012096842 -0.011892634 -0.028568085 -0.013746666 -0.024160199 -0.029159637 -0.006205619
-0.039447106 -0.012659514 -0.036460906 -0.0059932396 -0.01784184 -0.03339422 -0.04042445 -0.0069382875
-0.020442657 0.001331853 -0.03845605 0.009027769 0.032018285 -0.0006045271 0.02326881 0.01076359
0.035002895 -0.00855353 0.014258803 0.032136343 8.690077e-05 0.0056124944 -0.011142126 0.0070320764
-0.017474137 0.01624205 -0.023887856 -0.005988716 0.0046884175 -0.020004546 0.001737917 -0.006349738
-0.02351541 0.020634146 -0.004392964 -0.025098879 -0.007069168 0.0037158136 -0.0025938551 -0.026017692
-0.010755383 -0.010800556 0.0031497783 0.016905075 -0.022571443 0.0396948 -1.4363722e-05 -0.00450322
-0.013768009 -0.0057278783 0.007887553 0.0015427851 -0.028175626 0.017298175 -0.016642509 -0.018099923
0.016809672 -0.026475748 0.000464496 -0.0015545472 -0.007067247 -0.035741046 -0.0007051239 0.0044678
-0.023519382 -0.023100886 -0.016146412 -0.025572522 0.03534462 -0.0076031717 0.016413553 0.011474304
-0.009167828 0.008418083 0.020436052 -0.015358817 0.023786964 0.006683183 -0.03781213 0.025607465
-0.021045644 -0.0075068343 -0.010911519 -0.009773895 -0.017318616 -0.0007070681 -0.015397737 -0.022076335
0.008593804 -0.0128531 0.0075617256 -0.020486021 0.00020980618 -0.0074968426 0.0025443644 0.004271638
0.0125051625 0.003375279 0.04197348 0.0029735225 0.024626259 0.017308261 0.0036155633 0.02765137
0.0036559384 -0.005091849 0.022034453 -0.017503176 -0.010215674 0.015466782 -0.022109052 -0.004781442
-0.006269037 0.00017276297 -0.024768809 0.01778096 -0.010773033 -0.016476337 -0.018478472 -0.006472977
-0.026282135 0.008728428 -0.014737625 -0.030574078 0.05532709 0.019321937 -0.015722184 0.002585189
0.034758177 0.012663534 -0.00041960058 0.01198655 0.0054312637 -0.0047516804 0.013345213 0.00093248754
-0.01437309 -0.019024007 0.005436379 -0.00078336836 -0.021649782 0.00013723924 -0.0121444175 -0.010642695
-0.016006729 0.0055597653 0.0018028672 0.00035655763 -0.0057318117 0.010446834 -0.03091925 -0.00036359325
0.048983432 0.00010492299 0.049807385 0.02621446 -0.0024616553 0.008053447 0.04211743 0.010307291
-0.006345487 0.02575178 -0.01376923 0.013536822 0.0049231662 0.0077424063 -0.00953515 -0.023833625
-0.0004422601 -0.0062533063 -0.0036799095 -0.00659972 -0.0022105768 -0.016964847 0.0007088525 -0.00991106
-0.020469943 0.009337772 -0.005834397 -0.00668651 0.0138821425 0.02112271 0.012720896 0.010417914
0.010428838 0.02283 -0.0007841136 0.008232477 0.025900591 0.0010970423 0.023646735 -0.009246968
-0.008193132 -0.01601091 0.0035837735 -0.009832138 0.009193677 -0.024088312 -0.012109087 -0.000108596185
-0.0124017 -0.005933064 -0.0014764795 -0.019824598 0.00927488 -0.0099471565 -0.025683146 0.009886214
0.046561334 0.021617586 0.014742091 0.031919245 0.017911507 0.022718275 0.016117599 0.020330494
0.009534732 0.0013994836 -0.0014686966 0.021298407 -0.006210681 0.014014047 -0.01078301 -0.008596964
-0.009359938 -0.006649722 0.008351515 -0.01594314 -0.006895182 0.004611082 -0.008842263 -0.002338445
-0.0038328175 0.012421632 -0.015644211 -0.013622729 0.03199799 0.012923044 0.03238215 0.0109254485
00000000: d963 a5bc 2ba1 5e3a e17d 533c 9163 043d
00000010: b33d b43b 8685 e0bb 98d4 053b 77b2 a9bc
00000020: e4ed a73a 448e 9eba 53d9 42bc 9e07 eabc
00000030: b239 61bc 9ceb c5bc 31e0 eebc 8158 cbbb
00000040: 4a93 21bd da69 4fbc 0858 15bd f062 c4bb
00000050: 0d29 92bc 61c8 08bd 1c94 25bd 935a e3bb
00000060: 5c77 a7bc 9291 ae3a 1784 1dbd 35e9 133c
00000070: 9b25 033d 2079 1eba 3b9e be3c c559 303c
00000080: 325f 0f3d 1b24 0cbc c19d 693c 66a1 033d
00000090: 7f3e b638 04e9 b73b 778d 36bc 556d e63b
000000a0: ec25 8fbc 0c0e 853c 77b0 c3bc fe3c c4bb
000000b0: 4ca1 993b 93e0 a3bc d1ca e33a 7711 d0bb
000000c0: 64a3 c0bc f108 a93c daf2 8fbb 2a9c cdbc
000000d0: 7ba4 e7bb 0285 733b abfd 29bb 0e23 d5bc
000000e0: 5937 30bc d1f4 30bc 836c 4e3b 837c 8a3c
000000f0: bfe7 b8bc 0497 223d b7fb 70b7 bf8f 93bb
00000100: 3793 61bc edb0 bbbb cc3a 013c 4737 ca3a
00000110: 92d0 e6bc e7b4 8d3c df55 88bc 4a46 94bc
00000120: 70b4 893c abe3 d8bc 9987 f339 f3c1 cbba
00000130: 5d94 e7bb 3465 12bd 10d8 38ba 9f66 923b
00000140: b8ab c0bc 123e bdbc 7b45 84bc 777d d1bc
00000150: 85c5 103d 0724 f9bb b775 863c b8fe 3b3c
00000160: a834 16bc 00ec 093c 8269 a73c 8ca3 7bbc
00000170: e1dc c23c 9afe da3b e4e0 1abd bfc6 d13c
00000180: ea67 acbc e4fb f5bb 3ac6 32bc b022 20bc
00000190: c5df 8dbc 895a 39ba ca46 7cbc 6ed9 b4bc
000001a0: 07cd 0c3c cf95 52bc 5ac8 f73b 4dd2 a7bc
000001b0: 6bff 5b39 13a8 f5bb 5abf 263b 19f9 8b3b
000001c0: 74e2 4c3c c933 5d3b 62ec 2b3d 6edf 423b
000001d0: 02bd c93c 0eca 8d3c 16f3 6c3b 2085 e23c
000001e0: 7898 6f3b 86d9 a6bb 9981 b43c d262 8fbc
000001f0: a45f 27bc 6368 7d3c 0b1e b5bc a5ad 9cbb
00000200: 7e6c cdbb b527 3539 f5e7 cabc 60a9 913c
00000210: 6081 30bc 62f9 86bc 2a60 97bc 441b d4bb
00000220: a24d d7bc ae01 0f3c 1476 71bc 7d76 fabc
00000230: a99e 623d 0a49 9e3c cfcb 80bc 466c 293b
00000240: 975e 0e3d b67a 4f3c d6fd dbb9 3c63 443c
00000250: bef8 b13b fcb3 9bbb e1a5 5a3c 2e72 743a
00000260: 1c7d 6bbc 3cd8 9bbc a723 b23b f65a 4dba
00000270: e25a b1bc e1e7 0f39 61f9 46bc b35e 2ebc
00000280: 8b20 83bc b12e b63b 2f4e ec3a 5bf0 ba39
00000290: ecd1 bbbb 3329 2b3c 5e4a fdbc a9a0 beb9
000002a0: daa2 483d 1a0a dc38 d402 4c3d b5bf d63c
000002b0: b953 21bb 9bf2 033c 5483 2c3d e9df 283c
000002c0: ceed cfbb 66f5 d23c 5698 61bc 8cc9 5d3c
000002d0: 8352 a13b 03b4 fd3b 5139 1cbc bc3e c3bc
000002e0: 25df e7b9 89e8 ccbb a32a 71bb 7742 d8bb
000002f0: 53df 10bb ddf9 8abc 49d2 393a 0062 22bc
00000300: 95b0 a7bc 74fd 183c 782e bfbb 831a dbbb
00000310: ed71 633c 8909 ad3c 4e6b 503c e6af 2a3c
00000320: b8dd 2a3c fb05 bb3c f98c 4dba 83e1 063c
00000330: 7a2d d43c a2ca 8f3a ccb6 c13c 9880 17bc
00000340: 7c3c 06bc 5029 83bc bedd 6a3b fa16 21bc
00000350: 14a1 163c da54 c5bc 3165 46bc 22be e3b8
00000360: 8030 4bbc 266a c2bb 6e86 c1ba 3267 a2bc
00000370: abf5 173c 66f9 22bc 7665 d2bc c9f9 213c
00000380: 19b7 3e3d 5d17 b13c d088 713c c1bd 023d
00000390: 27bb 923c ad1b ba3c 0e09 843c 238c a63c
000003a0: 9137 1c3c e16e b73a 4881 c0ba ff79 ae3c
000003b0: f882 cbbb 2c9b 653c 39ab 30bc 48da 0cbc
000003c0: 6d5a 19bc e9e5 d9bb cbd4 083c 309b 82bc
000003d0: fbf0 e1bb 8f18 973b 24df 10bc 9940 19bb
000003e0: 0230 7bbb 1a84 4b3c 4a28 80bc de31 5fbc
000003f0: 5310 033d 2dbb 533c 25a3 043d a700 333c
