clean_mlp_20.pth (torch, 419446 bytes, 2 tensors)

net.0.weight f4 [128, 784]
000000 08 eb d3 3c 67 b9 14 bb 05 7a be 3c 3c 98 8f 3c
       0.025868908 -0.0022693516 0.023251543 0.017528646
000010 82 4c 9b bc bc 4b 82 bd b4 23 86 bd f9 49 3a bd
       -0.01895738 -0.063621014 -0.065497786 -0.045480702
000020 f9 18 c4 bd 03 ab 61 bd 0d 7f 46 bd 82 17 21 bd
       -0.09575076 -0.05509473 -0.04846101 -0.03932906
000030 46 40 80 bd bc 60 ae bd 7b 24 1d bd 24 ca a1 bc
       -0.06262259 -0.08514544 -0.03836487 -0.019749708
000040 1a 40 62 bd eb 24 dc bc 15 f2 bc 3c 1c a8 b6 bc
       -0.055236913 -0.026873073 0.023064652 -0.022296958
000050 8e aa dc bc ab a0 46 bc ff 25 eb ba b7 00 37 3d
       -0.026936796 -0.012123267 -0.0017940401 0.044678416
000060 43 22 80 3d 21 8b ff 3b ff df 64 3d 56 4b 70 3c
       0.06256535 0.007798568 0.05587768 0.014666399
000070 37 f8 09 bd 1e d7 96 bc ab 15 b8 bc d6 cd 36 bd
       -0.03368398 -0.018413123 -0.02247127 -0.044629894
000080 de 77 75 bd 56 42 ca bc 34 b8 8b bd 28 6f 88 bd
       -0.059928767 -0.024689835 -0.06822243 -0.06661826
000090 54 af 4f bd c6 9e b9 bd 3f 11 a8 bd 25 b3 5d bd
       -0.050704315 -0.09063487 -0.082064144 -0.054125924
0000a0 de f0 c4 bd cc 09 09 bd 49 47 95 bd f9 f0 75 bd
       -0.09616254 -0.03345661 -0.07288987 -0.060044263
0000b0 33 37 8f bc af 51 27 bd a9 71 a0 bc 91 f0 f3 bc
       -0.017482376 -0.040849384 -0.019585447 -0.029777797
0000c0 1a 74 7c ba ef 20 cd bb 69 7f 93 3c 17 e8 93 3c
       -0.00096303376 -0.0062600295 0.01800509 0.018055005
0000d0 e3 82 20 3b fb ea 71 3d 88 10 56 b9 1d 3a c4 3c
       0.0024492077 0.059061985 -0.00020414789 0.023953492
0000e0 01 2c 24 bb 24 db 59 bc 2b 7b b9 bb 3c 7f 60 bd
       -0.0025050642 -0.013296876 -0.0056604347 -0.05480884
0000f0 ff dc 93 bd 59 55 8c bd 1a 7d a4 bd 7b b7 bb bd
       -0.07219886 -0.06852216 -0.08031674 -0.091658555
000100 99 51 a8 bd 06 5b 38 bd e4 53 13 bd 01 a0 41 bd
       -0.082186885 -0.04500868 -0.035968676 -0.047271732
000110 d9 e1 a1 bc 8e b8 60 bd ce f8 1e bc db 30 f1 bc
       -0.019761013 -0.054863505 -0.009702874 -0.029442241
000120 a9 d0 4b bb a5 65 22 bd f6 cb f5 3c e7 a7 f0 bc
       -0.0031099713 -0.039647717 0.030004483 -0.029376937
000130 b2 4b 21 3c 1b 0f 07 3b fb 55 cc bb 90 f4 bf 3b
       0.009844707 0.0020608369 -0.0062358356 0.0058580115
000140 ad be 0f 3d 06 62 7e 3b b6 1e 3b bc d0 86 c1 3c
       0.035093952 0.003881575 -0.011420896 0.023623854
000150 a5 7e 88 3c b0 89 18 bd 65 ff 67 bd e5 2a 99 bc
       0.016661951 -0.037240684 -0.056640048 -0.018697212
000160 d9 89 3a bd c7 0b 8e bd 12 72 0f bd d7 c4 38 bd
       -0.045541618 -0.0693584 -0.035020895 -0.045109596
000170 79 e6 b0 bd 1e 84 95 bd 7b 79 06 bd 3e 4f 99 bd
       -0.08637709 -0.0730059 -0.032830697 -0.074858174
000180 5a 17 0a 3c 97 40 15 bd 55 01 90 bc 6c 5a 43 bd
       0.008428419 -0.03643855 -0.01757876 -0.047693655
000190 5a 7d a6 3b b9 78 37 bd 14 7b 9a bc 54 ed f4 3c
       0.005080861 -0.044792864 -0.018857516 0.029898323
0001a0 7d e4 a1 bb aa 82 8c 3c c9 60 f1 3b a8 31 c0 3a
       -0.004940568 0.01715215 0.007366274 0.0014663236
0001b0 96 9a 38 bc d1 8e 11 3d 45 75 07 3c ce 1b 7b bc
       -0.011267325 0.03553659 0.008267705 -0.015326453
0001c0 cc dd 43 bd 04 d6 42 bd 47 0c 3b bc d8 fe 12 bd
       -0.047818944 -0.047567382 -0.011416501 -0.03588757
0001d0 b1 71 6a bd 8e b7 84 bc a3 bd f8 bc f6 76 42 bd
       -0.05723733 -0.016200807 -0.030363863 -0.04747673
0001e0 bd 80 43 bd 57 9e 04 bd 71 57 3f bd ad ce bc bb
       -0.047730196 -0.032377567 -0.04671425 -0.0057619424
0001f0 a0 2b 14 bd 36 fe de bb f8 14 88 3c 24 31 0f 3b
       -0.036174417 -0.0068052066 0.016611561 0.0021849358
000200 1d 82 0f 3c fa 09 91 3c d9 2b 0c 3a 18 6c a8 3c
       0.008759049 0.017704953 0.000534711 0.020559356
000210 72 d2 cf 3c c0 81 e5 3c b3 24 55 bc 26 06 0c 3d
       0.025368903 0.028015971 -0.013009238 0.03418555
000220 5d 39 d9 3c fd 0a bf bc 6b 86 c5 bb 5f 92 a3 3c
       0.02651661 -0.02332067 -0.0060279868 0.019967256
000230 77 44 06 bd d9 4b bf bc e3 a2 27 bd 6f be 0f bc
       -0.032780137 -0.023351597 -0.040926825 -0.00877343
000240 01 6a 7f bd 88 28 07 bd d3 af 8a bc 4f ed 47 bd
       -0.062356953 -0.032997638 -0.016929543 -0.0488103
000250 e5 84 07 bd 0a 7d d4 ba 45 a2 84 bc 74 82 05 3c
       -0.033085722 -0.0016211581 -0.016190657 0.008148778
000260 36 fe b0 3b 6c 74 6e bc e5 67 06 3d 58 1b b4 b9
       0.005401398 -0.014554124 0.032813925 -0.00034352648
000270 c8 24 7a 3c 68 b1 db 3c 4d dd 67 3c 94 5c 3f 3c
       0.015267558 0.026817992 0.014151883 0.011679787
000280 3d 00 49 bc 43 3e cc 3b 4d be 33 3c b8 bd 28 3c
       -0.012268123 0.006233008 0.010970664 0.010299139
000290 a2 ff 16 3c 71 20 11 3c fd e7 1f ba ce 1f 53 3c
       0.009216221 0.008857832 -0.00060999376 0.012886001
0002a0 9c 28 5a bc db 2f 2c 3b b8 b2 da bc ac d7 5c bb
       -0.013315346 0.0026273641 -0.026696548 -0.0033697886
0002b0 cd 95 c4 bc 58 39 1b bd 2a 5e 25 bd 9f 89 7b 3a
       -0.023997212 -0.037896484 -0.040373005 0.0009595397
0002c0 1e ea db bc 84 7a ff bc 06 54 f6 3c 4d b9 f5 bb
       -0.026845034 -0.03118635 0.030069362 -0.007498896
0002d0 78 18 4d 3b a4 73 e6 3c 57 9a 4d 3d 24 65 35 3b
       0.0031295102 0.028131314 0.050196018 0.0027678693
0002e0 03 fb ab 3b 17 f4 c1 3c c0 c4 37 b9 f2 86 1c 3d
       0.005248429 0.023675961 -0.00017525535 0.03821463
0002f0 5e 3c 19 3d 24 8c 1d 3d aa 55 f7 3c cb 4e 2c 3d
       0.037411086 0.038463727 0.030192215 0.04206733
000300 79 3b e8 3b 3c aa e0 3c dc c1 d1 bb 2f e0 80 3c
       0.007087168 0.027424924 -0.0064012837 0.015731899
000310 c8 73 2f bc 48 ca f2 3a 51 3d 91 3b 00 fd 0c bd
       -0.010708757 0.0018523419 0.0044323583 -0.034420967
000320 6d 83 4f 3b 96 32 c6 bc 74 cc 7b 3c 55 0f 1e bc
       0.003166403 -0.024194043 0.01536857 -0.00964721
000330 8b c6 55 3b 0a 29 86 3c 5e 96 88 3c 42 cd 2d 3d
       0.0032619562 0.01637699 0.016673263 0.042432077
000340 44 d9 df 3c 1f 7c 35 3c fa 18 03 3d ce 17 19 3d
       0.02732528 0.011076956 0.03200624 0.037376218
000350 5d 5f d4 3c 81 1d 28 3d 6e 13 e0 3c 47 9c b4 3b
       0.025924379 0.041043762 0.027353015 0.005511794
000360 45 31 c7 bb e1 76 46 3b 7b ae 81 ba d4 3d 98 bc
       -0.0060788714 0.003028326 -0.0009893918 -0.01858417
000370 5c cf af bc cd 4c 80 bc 05 a1 a6 bc a0 d4 d0 3c
       -0.021461181 -0.015661621 -0.020340452 0.025492013
000380 cc a6 f1 bc 59 3e f8 bc 87 9a 05 bd 83 c7 5a 3c
       -0.02949848 -0.030303167 -0.032618072 0.013353231
000390 cf fb a9 bc 4f 72 b7 3c f1 76 50 bb 02 4b 2b 3d
       -0.020749955 0.022393374 -0.0031809176 0.04181958
0003a0 9c ef 11 bc fd b9 b3 3a a0 03 4e 3d 6e 5e 97 bb
       -0.008907225 0.0013712045 0.050296426 -0.004619411
0003b0 3e 9f 07 3d 12 6e 49 3d a2 b8 b6 3c a7 43 2a 3c
       0.03311085 0.049177237 0.022304837 0.010392106
0003c0 4d 3b e4 3c f9 fd f0 3a 87 17 fd 3c 8e 81 c1 3c
       0.027860308 0.0018386237 0.030895008 0.023621347
0003d0 6c 9f 91 3b f8 d4 4f 3c cd 91 fe bc 58 48 18 bc
       0.0044440534 0.012685053 -0.031075383 -0.009294592
0003e0 9a d5 04 3c 67 fe 90 3b 37 93 f5 b9 0f 31 e8 bc
       0.008107567 0.0044248584 -0.00046839725 -0.028343705
0003f0 b3 8a 02 3d 5b d1 c3 bb 2b 90 fa 3c 5f cb 16 3d
       0.031870555 -0.005975885 0.030586323 0.036815044

net.2.weight f4 [32, 128]
000000 6e 2b e9 bb 49 03 77 3d c7 26 4a bd 89 95 5a 3c
       -0.007115773 0.060305867 -0.049353387 0.013341316
000010 61 ef 08 be fb 79 25 3d 5f 90 d1 bd 24 9f dc 3d
       -0.13372566 0.040399533 -0.10232615 0.10772541
000020 1a c3 d2 bd 70 e0 59 3c 6c 1c ca 3d cf 03 18 3e
       -0.10291119 0.013298139 0.09868702 0.14845203
000030 a5 45 9c 3c e4 63 57 3d ba fe 2d be de 20 b9 bc
       0.019076178 0.052585497 -0.16991702 -0.02259868
000040 19 9d 4f bb 33 09 10 bd 43 22 6c 3d 68 21 01 bd
       -0.003167933 -0.035165023 0.057649862 -0.031526
000050 5b bf db 3c 58 97 79 bc 6c 02 d8 3d f4 25 c7 3d
       0.026824644 -0.015233837 0.10547337 0.09724036
000060 1e d1 38 3d 7d e8 a2 3d 20 6e 91 bd 76 c0 62 bc
       0.045121305 0.079545 -0.07101083 -0.013839832
000070 d3 a7 3b 3d 2e b6 fc 3d 92 4d 05 be 66 df 59 3d
       0.045814347 0.123394355 -0.13017872 0.053191565
000080 45 15 4b 3d d1 d1 3d 3d a3 34 e2 bc 35 76 a7 bd
       0.04958083 0.046342675 -0.02761299 -0.08176843
000090 94 4a d8 3d 6a f6 e1 bc 99 ab a0 bc c9 8c d6 3d
       0.105611 -0.02758332 -0.019613074 0.104760714
0000a0 69 9e e1 3c c0 c5 8b 3d 98 a6 0e bc 56 2f 01 3e
       0.027541356 0.06824827 -0.008706711 0.12615713
0000b0 bf f8 0a be da 56 2a bc f0 8f 56 bd 5b cb 2f 3d
       -0.13571452 -0.010396684 -0.052383363 0.042918544
0000c0 a3 1b 91 bc 67 1e b1 bd c3 5d 1d bd f0 44 8b bd
       -0.017713374 -0.08648377 -0.038419496 -0.06800258
0000d0 74 eb 5d 3d 4f d8 08 3d e4 4b 42 3c f7 75 d2 bd
       0.054179624 0.033409413 0.011858914 -0.10276406
0000e0 c2 ad c6 3d 38 ba d2 bd 44 94 f5 3c 76 32 80 bd
       0.097011104 -0.10289425 0.029977925 -0.06259625
0000f0 0d 1c ae bd eb 3a 02 3e b1 0b 16 bd 32 b0 cc 3c
       -0.08501444 0.12717788 -0.036632244 0.02498636
000100 18 e8 16 3c d4 06 80 3d 64 7e 95 bd 49 c3 66 3d
       0.009210609 0.06251302 -0.07299498 0.056338582
000110 22 3d 33 be ae 4e de 3c 67 f3 4f bd 3f 6c 94 bd
       -0.17503789 0.027137127 -0.050769236 -0.07247209
000120 3a d1 8e 3d 29 f7 2e 3c 99 4d ce 3d 6c 66 cd bd
       0.069735005 0.010679045 0.10073394 -0.10029301
000130 dd e3 fa 3d be d0 17 3e d2 1c 74 bd a1 a6 c2 bc
       0.12250493 0.14825723 -0.059597798 -0.023761095
000140 68 88 db 3d bc c4 05 3e f1 54 ff bd 88 fe 22 3e
       0.10719377 0.1306333 -0.12467373 0.15917408
000150 15 0c 4f bd 79 42 63 bd f5 14 02 be d8 35 cb 3d
       -0.05054863 -0.055483315 -0.12703307 0.09922379
000160 80 e9 07 3e d3 64 0a 3e d4 73 6d bd 8a 9b cb 3c
       0.13272667 0.13515024 -0.05797179 0.02485444
000170 60 32 e1 3d 4b 2c 4b bd 0d 7b 1f bd ba d3 11 3c
       0.109959364 -0.049602788 -0.03893571 0.008900577
000180 4d 86 e6 3c 2c e5 25 3e 62 a4 6d 3c 81 09 1c be
       0.028140211 0.16200703 0.014504524 -0.15238
000190 ee 49 97 bd 70 73 be 3d b5 b2 9f 3d 8c 46 d6 bc
       -0.07387148 0.09299362 0.077977575 -0.026156686
0001a0 52 7d 65 bc 0c c1 a3 bb 0d 09 16 bd 5f 42 19 3e
       -0.0140069295 -0.004997378 -0.036629725 0.14966725
0001b0 89 8f 96 bd 5e 21 14 3e 7e a6 17 3c fd 91 2f 3d
       -0.07351596 0.14465854 0.009256003 0.042863835
0001c0 28 20 52 bd d1 c6 5a bd 63 c1 50 3d a9 26 13 3e
       -0.051300198 -0.053412262 0.050965678 0.14370216
0001d0 cf bb 03 3d 7a a2 18 3d b9 4e e9 3d e9 7d 00 bd
       0.03216153 0.037264325 0.11391968 -0.031370077
0001e0 96 01 c9 3d 3b 70 01 3e 68 77 ba 3d d5 be 13 3d
       0.098147556 0.12640469 0.09104806 0.036070663
0001f0 1b 8c b4 3c e8 c7 ec bc f5 62 50 bb 4f b7 78 bd
       0.022039464 -0.028903916 -0.0031797264 -0.06072169
000200 37 a6 52 bd 4b 59 9e bc 5d 2a 8d bd 58 44 7f 3d
       -0.051428046 -0.019329688 -0.06892846 0.062321037
000210 a6 ae ca bc 1a fe 6a bc 7c 76 78 bd 78 0c 22 3d
       -0.024741482 -0.014342809 -0.06065987 0.039562672
000220 ae d9 ad bd 32 f2 5f 3d 1d e9 2c 3e 35 2e fe 3c
       -0.08488785 0.054674335 0.168858 0.031027893
000230 fd 0e 5a 3a a0 cf a4 3d 51 f4 c3 3d 04 9b 2c 3d
       0.00083182735 0.08047414 0.09568084 0.042140022
000240 86 eb e4 b9 dc b6 47 bd d8 25 55 3d 55 2b 0d be
       -0.00043663027 -0.048758373 0.052038044 -0.13786061
000250 cf 1f b2 bd 58 a1 79 bc 64 66 fe 3c ed 78 13 3e
       -0.08697473 -0.015236221 0.031054683 0.14401598
000260 3b a6 bb 3c 3e 8d 1d 3e 2f 85 5a 3d 4a 4d 8e bd
       0.022906413 0.15385911 0.05334967 -0.069483355
000270 e3 b3 8d bc 71 1e 16 bb e0 d6 9e 3b 2a f8 02 bb
       -0.01729769 -0.0022906328 0.0048473924 -0.0019984343
000280 64 bc 91 3e d6 91 45 bd 96 ed 18 3d da 79 c5 3d
       0.28464043 -0.048234783 0.037335955 0.09642382
000290 29 ce 84 3d 31 0a 5a bd e7 22 11 3e f6 d9 ed 3d
       0.064846344 -0.053232376 0.1417347 0.116138384
0002a0 2a b8 b1 bc 6f 68 cd bc 16 5b f0 3c 27 93 2b bc
       -0.021694262 -0.025074212 0.029340308 -0.010472096
0002b0 62 89 84 3d 9d b7 7b 3c 21 b8 00 be 9f 91 3a 3d
       0.06471516 0.015363601 -0.1257024 0.04554903
0002c0 74 7e ea 3d 1f 37 dc 3c 9e 3a 0e be 0f 50 ad bc
       0.114499 0.026881753 -0.13889548 -0.021156339
0002d0 2c af 15 bd d3 d4 aa 3d b8 d9 34 bc df f9 b0 bd
       -0.03654401 0.08341374 -0.011038236 -0.08641409
0002e0 27 ec d1 3d 6d 5d 1c 3c ec b3 15 3d 3e e0 3e 3d
       0.102501206 0.009543759 0.03654854 0.046600573
0002f0 b7 05 99 3d 8a d2 67 bd 92 fe 73 bb 1e 20 c8 3d
       0.07471793 -0.05659727 -0.0037230593 0.09771751
000300 c8 86 8c bd 3f cc 4e 3d fa c4 21 3d aa b5 70 3c
       -0.06861645 0.050487753 0.039494492 0.01469175
000310 5c f4 74 bd b0 a8 9d bd 50 7d fe 3d eb ac dd 3c
       -0.05980335 -0.0769819 0.12426245 0.027059993
000320 09 2d 6d 3c 04 89 dd bc df e8 de 3d 16 91 92 bb
       0.014476069 -0.027042873 0.108842604 -0.004472862
000330 f0 ea b9 bd ba 66 8a 3d 0f 9a 91 bc 49 d0 5b 3d
       -0.09078014 0.06757875 -0.017773656 0.053665433
000340 8a 15 98 3d 1d a6 12 3d 16 96 51 3c db c4 ff 3d
       0.07425983 0.03580295 0.012792131 0.12488719
000350 98 b4 e3 3b 63 da 03 bd ce fc c3 3c 17 9e b7 3d
       0.0069490187 -0.03219069 0.023924258 0.089657
000360 45 63 6e 3d ff 97 1b bc a6 c5 19 bd 9d f2 9a 3d
       0.05820014 -0.009496688 -0.037542008 0.07565806
000370 20 9e 0d 3d e3 a0 32 3e c3 9a b9 bc 2a 53 8e 3d
       0.034574628 0.17444186 -0.022656804 0.06949456
000380 2f 7e 6e 3e 08 cd 64 3d bd 22 46 bd 17 9c 31 3d
       0.23290323 0.055859596 -0.048372973 0.04336175
000390 30 b9 d8 3d 42 59 14 bd ed 24 2f bd 02 60 08 3e
       0.10582197 -0.036217935 -0.042759825 0.13317874
0003a0 78 38 83 3d d4 a3 fa 3c df 49 14 bc a9 50 57 3c
       0.06407255 0.030595697 -0.009050815 0.0131417895
0003b0 94 65 45 3c eb 68 48 3d 98 40 17 3e 55 63 26 bd
       0.012048144 0.048928183 0.14770734 -0.040622074
0003c0 59 55 a6 bd 8a 43 9a bd 73 50 69 bd f2 7a e3 3d
       -0.081217475 -0.07532413 -0.056961488 0.11107434
0003d0 13 72 2d 3d af e4 68 3c ba 06 c6 3d 31 1e 43 bd
       0.042345118 0.014214679 0.09669252 -0.047636215
0003e0 90 af 9c 3d 85 46 06 bd 14 00 af bd 64 9d 94 3d
       0.076506734 -0.032782096 -0.08544937 0.072565824
0003f0 82 85 ea 3b 2c e9 13 bc ae a2 36 bd 00 1b 8a 3d
       0.0071570287 -0.0090277605 -0.044588737 0.06743431
