clean_mlp_10.pth (torch, 419446 bytes, 2 tensors)

net.0.weight f4 [128, 784]
000000 a7 de 04 3d ad f1 f5 3a d6 54 e3 3c 46 79 cb 3c
       0.0324389 0.0018764042 0.027750414 0.024838101
000010 2e 96 22 bc 0b 76 45 bd dd 7b 4c bd 80 ba ab bc
       -0.009923501 -0.048208278 -0.049922813 -0.020962954
000020 b9 85 83 bd c5 78 99 bc e6 90 70 bc b8 20 c3 bb
       -0.0642199 -0.018734345 -0.014682984 -0.005954828
000030 61 4f 06 bd 3c ba 7d bd a2 25 83 bc 0b 6f 2b bb
       -0.032790545 -0.061945185 -0.016009156 -0.0026158716
000040 3f 3a 18 bd 88 ab 7d bc d7 47 d2 3c c2 f0 e8 bc
       -0.037164923 -0.015482791 0.025669022 -0.028435115
000050 b3 d0 16 bd df 9a 0e bd ab 16 13 bd 38 92 fa 3b
       -0.036820125 -0.034815665 -0.03591029 0.007646825
000060 de 44 fe 3c 1a f8 c5 bc fb 19 b8 3c b1 be 4e bc
       0.031038698 -0.024166156 0.022473326 -0.012618707
000070 bf cf e0 bc e2 f6 85 bc 49 ec 77 bc ba 95 04 bd
       -0.027442811 -0.016353074 -0.015132018 -0.032369353
000080 32 3a 32 bd 0e 27 e1 bb d1 b7 48 bd 3a ff 23 bd
       -0.04351253 -0.0068711108 -0.049003426 -0.040038325
000090 6e 1a 8d bc e9 d1 76 bd 58 ba 53 bd 85 55 d8 bc
       -0.017224517 -0.06025878 -0.051691383 -0.026407966
0000a0 7f db a1 bd 50 e5 8c bc 26 1d 74 bd 78 1f 54 bd
       -0.07903194 -0.017199188 -0.05959811 -0.051787823
0000b0 fe f7 6b bc 5c 7d 2a bd b7 9a eb bc d7 0f 2d bd
       -0.014402388 -0.04162346 -0.028760297 -0.042251434
0000c0 64 97 88 bc 7b ac 0d bd 35 78 42 bc 6d 4d 53 bc
       -0.016673751 -0.03458832 -0.01186948 -0.012896878
0000d0 d7 49 dc bc 22 87 ee 3c 9b 49 02 bd ca b2 b4 bb
       -0.026890678 0.02911717 -0.031808477 -0.0055144774
0000e0 63 5a ad 3b c5 0c bc bb 3a 80 1a 3c 3c 67 1c bd
       0.005290316 -0.005738827 0.009429986 -0.03818439
0000f0 98 92 4e bd 9a 74 41 bd 71 da 79 bd eb 51 8f bd
       -0.05043277 -0.04723034 -0.060999338 -0.069980465
000100 db d8 7c bd 30 25 df bc 32 2f a8 bc c3 73 18 bd
       -0.061730247 -0.027239412 -0.020530317 -0.037219774
000110 19 d9 57 bc 5d fe 50 bd f4 8d 57 3b b9 1a 9c bc
       -0.013174319 -0.05102383 0.0032891007 -0.019055711
000120 d8 28 ca ba 49 61 52 bd 42 7a 30 3c 27 95 5c bd
       -0.0015423549 -0.05136231 0.010771336 -0.05385318
000130 93 fb 6c bc f5 c7 eb bc 9c 62 26 bd 2b 22 d3 bc
       -0.014464277 -0.02878187 -0.040621385 -0.025773128
000140 fd e6 18 3c 88 c9 e0 bc fa 66 23 bd 11 44 c6 3a
       0.009332416 -0.027439848 -0.039893128 0.0015126487
000150 62 4e ac 3c f9 54 e1 bc 1f 3f 35 bd 8b 95 24 3b
       0.02103347 -0.027506338 -0.04424965 0.0025113549
000160 6a 1b c2 bc 04 24 46 bd 5e 2e 7c bc 31 a8 e8 bc
       -0.023694713 -0.04837419 -0.015391914 -0.028400512
000170 45 66 9a bd f1 2e 89 bd 46 e4 e0 bc 1e 26 94 bd
       -0.075390376 -0.066984065 -0.0274526 -0.07233833
000180 16 95 e6 3b df bf 0e bd b9 f5 2f bc da 4e 3e bd
       0.0070368154 -0.03485095 -0.010739737 -0.046461917
000190 23 19 9f 3b 63 1b 5d bd 1e 01 09 bd ba b1 55 3c
       0.0048552915 -0.053981196 -0.03344833 0.013042862
0001a0 11 02 d0 bc de ab 0e bc 00 ac ab bc 0d db c1 bc
       -0.02539161 -0.0087079685 -0.02095604 -0.023664022
0001b0 b2 04 09 bd 51 ef 19 3c ff 5c a0 bc 2b 2e 12 bd
       -0.033451743 0.009395436 -0.019575594 -0.03568856
0001c0 28 e1 19 bd cb e8 ff bc 8c 64 d1 3b 35 e8 a7 bc
       -0.03756824 -0.031238934 0.00639016 -0.020496467
0001d0 32 fa 2c bd 4f 91 0e bc 8a 50 aa bc 5e ff 24 bd
       -0.042230792 -0.008701636 -0.020790357 -0.0402826
0001e0 cd a8 4a bd 5b ee 05 bd a3 e9 4c bd 78 a4 24 bc
       -0.049477387 -0.032698017 -0.0500275 -0.010048978
0001f0 7b b4 2e bd bc 6a 35 bc b8 c2 82 3c 3c ea e4 b9
       -0.04265259 -0.011072811 0.01596199 -0.00043662067
000200 a5 fa dc 3b ae 13 2d 3c bf ae 60 bc 6f 14 15 36
       0.0067437463 0.010563774 -0.013713538 2.2214624e-06
000210 2b 88 1d 3a 29 9c 81 3b aa 76 17 bd 5c fb 35 3c
       0.00060093653 0.0039553833 -0.0369784 0.011107292
000220 8a 3c f4 39 07 3b 5a bd 23 e8 15 bd 9d 67 3b bb
       0.00046584412 -0.05327895 -0.036598336 -0.0028595694
000230 1f 27 9a bc 12 51 e3 bb 1f 06 e1 bc d9 bb 39 3b
       -0.018817483 -0.0069371546 -0.02746874 0.0028340726
000240 ae ef 57 bd 8c 9d f6 bc 02 ba 49 bc 20 3e 38 bd
       -0.05271881 -0.030104421 -0.012312414 -0.044981122
000250 00 f5 0b bd 59 95 06 3a d8 32 84 bc 43 ea ae 3a
       -0.034169197 0.0005133949 -0.016137525 0.0013344962
000260 b8 e9 6b bb 31 b4 c8 bc 23 5f cc 3c ab b7 39 bc
       -0.0035997462 -0.024499984 0.024947708 -0.011335294
000270 df 52 19 3c 2b 15 83 3c 62 61 64 bb 8f af 64 bc
       0.009358137 0.016001305 -0.0034848084 -0.013957872
000280 8a 92 2f bd f5 f3 bc bc 7b 5c 8d bc ec 15 86 bc
       -0.04286436 -0.023065547 -0.017256012 -0.016367875
000290 53 bd 85 bc 9a 50 5e bc f1 6f be bc 22 23 e8 bb
       -0.016325628 -0.013569022 -0.023246737 -0.0070842663
0002a0 d7 07 0e b9 cf ea 8a 3c 51 7f 47 bc 8a 89 ae 3b
       -0.00013545096 0.016957669 -0.012176351 0.0053264545
0002b0 20 7f ae bc c4 44 20 bd 04 d9 24 bd f4 07 44 bb
       -0.021300852 -0.03912808 -0.040246025 -0.0029911967
0002c0 98 8f 03 bd 5a ac 05 bd 3d 78 09 3d bc b0 18 bc
       -0.032119364 -0.03263507 0.033561934 -0.0093194805
0002d0 66 1b 5e 3a 21 7e bf 3c 4f 70 3b 3d ce cb 3a bc
       0.00084727106 0.023375573 0.045761403 -0.01140113
0002e0 2c 29 fb bb df d5 44 3c 35 3e 92 bc d9 8f 7a 3c
       -0.00766482 0.0120138815 -0.017851928 0.015293085
0002f0 cd c2 40 3c 1d 13 7b 3c 18 73 89 3b 14 9c 63 3c
       0.011765194 0.015324381 0.0041946284 0.013892192
000300 e7 7f 6d bc e7 24 38 3c ed ff 9d bc 43 a6 cd 3b
       -0.014495826 0.011239267 -0.019287074 0.0062759235
000310 c2 94 89 ba ef c6 72 3c 9b a1 80 3c 7c 7c ea bc
       -0.0010496604 0.014817937 0.01570206 -0.028623812
000320 40 1c bb 3b 0e 63 c2 bc e7 4f 99 3c 61 54 03 bc
       0.005710155 -0.023728874 0.018714858 -0.008015723
000330 46 cf 7b 3b 71 40 84 3c 56 31 b5 3c 88 f9 35 3d
       0.0038423105 0.01614401 0.022118252 0.044427425
000340 59 50 ca 3c 54 05 1e 3c db de ef 3c 21 ec d5 3c
       0.024696516 0.009644825 0.02928107 0.026113572
000350 00 3a 5a 3c d7 1b fc 3c b7 da 9f 3c 9e a3 0a bc
       0.013319492 0.030774994 0.019513471 -0.008461861
000360 2e e8 e0 bc 09 6c 9e bc 6a 83 d7 bc 23 a1 31 bd
       -0.027454462 -0.019338625 -0.02630778 -0.043366563
000370 9f 2e 25 bd 8e 2d f8 bc fd 0e f9 bc 2c 23 85 3c
       -0.040327664 -0.03029516 -0.030402655 0.016252123
000380 1e 39 c1 bc 2c d4 aa bc c0 6d ca bc 47 7a 83 3c
       -0.023586806 -0.020853125 -0.024710536 0.016049517
000390 ab d0 b8 bc e2 e1 bb 3c 9b f4 41 ba 92 8a 31 3d
       -0.022560438 0.022934858 -0.0007398815 0.04334504
0003a0 44 4e 53 bc 89 e6 78 bb be 2c 45 3d 74 2b 44 bc
       -0.012897078 -0.0037979207 0.048138373 -0.011973251
0003b0 5b 42 db 3c 68 7d 2a 3d af a0 3f 3c 96 19 df bb
       0.02676504 0.041623503 0.011696025 -0.00680847
0003c0 9b 35 54 3c 93 17 43 bc 5d 0c 9d 3c d5 a0 88 3c
       0.012952234 -0.011907476 0.019170934 0.016678253
0003d0 27 e1 bd bb 78 25 a8 3a 72 68 46 bd 71 21 d4 bc
       -0.0057946625 0.0012828549 -0.04843945 -0.025894852
0003e0 0c 32 51 ba 4a 13 6e 3b 8d 1f 90 39 33 56 fa bc
       -0.0007980175 0.0036327415 0.00027489327 -0.030558681
0003f0 42 7d 01 3d e7 48 04 bb 4a f3 18 3d d3 12 1c 3d
       0.031613596 -0.0020185055 0.037341394 0.03810389

net.2.weight f4 [32, 128]
000000 82 0b ca bc 57 1c de 3d c9 10 0f bd 1b 1d 85 3c
       -0.02466369 0.10845249 -0.034928117 0.01624923
000010 e8 0e fb bd 78 43 ac 3c d9 05 f3 bd 93 7d e1 3d
       -0.122587025 0.021028265 -0.1186635 0.110102795
000020 e5 bc ab bd 7c 78 16 3d 35 9e 9f 3d f7 09 04 3e
       -0.08385638 0.036735997 0.077938475 0.12894426
000030 1f 47 ca 3c e8 9e 68 3d 61 1c 43 be da bb 1f bd
       0.024692116 0.05679217 -0.19053794 -0.03899751
000040 55 27 71 bc a0 43 1d bd 6f 2a 4d 3d 90 7f 63 bc
       -0.01471885 -0.03839457 0.050089296 -0.013885394
000050 46 42 91 3d 25 e6 b7 bc b8 9d fe 3d 30 35 b1 3d
       0.07092719 -0.022448609 0.12432426 0.08652723
000060 bc 07 15 3d 56 25 61 3d 65 c6 90 bd 92 37 3f bc
       0.03638433 0.054967247 -0.07069091 -0.011670964
000070 3d b6 32 3d 90 a0 04 3e 62 ec cb bd 7c dd 1b bc
       0.043630827 0.12951875 -0.09957196 -0.009513255
000080 43 f1 22 3c c1 83 9e 3d 86 f4 13 bd be 95 ca bd
       0.009945217 0.07739974 -0.036121868 -0.09891842
000090 7e db d9 3d 42 1d 45 bd 16 eb 5b bd 9a ed 72 3d
       0.10637568 -0.048123606 -0.053690992 0.059308626
0000a0 f8 b7 11 3d b6 2f 69 3d 27 99 aa 3b e8 16 e3 3d
       0.035575837 0.056930266 0.0052062455 0.110883534
0000b0 cb d3 ee bd 28 38 70 bc 9b 18 11 bc f0 4c 9a 3c
       -0.1166149 -0.014661826 -0.008855964 0.018835515
0000c0 8d 52 aa 3c 77 07 a9 bd 1b 42 1b 3c 83 0e 7b bd
       0.020791316 -0.08253377 0.00947621 -0.061293136
0000d0 00 9f f3 3c 15 26 12 3d 7f 68 cb 3b d9 da a3 bd
       0.029738903 0.03568085 0.0062075253 -0.08000726
0000e0 45 70 97 3d 1b 62 9e bd c8 24 38 3d 25 87 82 bd
       0.073944606 -0.07733556 0.044956952 -0.06373433
0000f0 4a 3b b0 bd b4 2d e0 3d 90 a8 14 bd a5 33 18 3d
       -0.086050585 0.10946217 -0.036293566 0.037158627
000100 00 c5 c7 3b d7 53 85 3d f7 a4 9a bd 72 9b aa 3c
       0.0060964823 0.06510132 -0.07550996 0.020826075
000110 a1 72 da bd 26 10 fa 3c c7 02 b1 bd 96 1b 8a bd
       -0.10666395 0.030525278 -0.08643108 -0.06743543
000120 95 2c 84 3d c3 1c 80 bc 76 c2 95 3c a7 5f f1 bd
       0.06453816 -0.015638715 0.018281203 -0.11785822
000130 b6 4d ea 3d a9 e3 f9 3d d2 e5 6b bd 41 b1 f9 bc
       0.114406034 0.12201626 -0.05759222 -0.030480029
000140 47 8e a8 3d 6e fc d5 3d a1 a5 e6 bd d8 08 fc 3d
       0.08230262 0.10448538 -0.1126206 0.12306374
000150 68 68 46 bd 09 4a 51 bd 8d 64 07 be eb c4 97 3d
       -0.048439413 -0.051095996 -0.13221951 0.07410606
000160 2a 12 0d 3e c3 52 d9 3d 61 48 0e bd d3 bf af 3c
       0.1377646 0.10611489 -0.034736995 0.021453774
000170 32 54 d3 3d 28 16 c8 bd e0 22 07 bd 3d 40 5b 3c
       0.10318793 -0.09769851 -0.032992244 0.013382015
000180 c6 30 06 bd af 03 12 3e ea 00 61 3d 2b ad 14 be
       -0.032761358 0.14259218 0.054932512 -0.14519183
000190 ef 94 b5 bd 4b 24 af 3d 3a d1 27 3d 49 d0 e9 b9
       -0.088662975 0.08551844 0.04097102 -0.00044596408
0001a0 9f 10 f1 3c 2b 04 36 bd f6 1f 25 bd 92 9c ef 3d
       0.02942687 -0.04443757 -0.040313683 0.11699785
0001b0 4d 5c 6e bc 0e 38 09 3e 5b a3 c8 bc c2 40 78 3d
       -0.014548373 0.1340029 -0.024491956 0.060608633
0001c0 29 be 96 bc 46 ec 3e bd 0e 1b d4 3d df 71 ec 3d
       -0.018401222 -0.046612047 0.10356723 0.11545157
0001d0 85 9c a3 3c 5c c9 5c 3d 72 5c a6 3d 3a 7d c2 bc
       0.019972095 0.05390297 0.08123101 -0.023741353
0001e0 ba 56 8e 3d 60 89 f6 3d 49 0c 5c 3d e4 3b 97 3c
       0.069501355 0.12037921 0.053722654 0.018461175
0001f0 98 fb 91 ba fb 46 d2 bc 6c 14 03 bc c8 1a 5e bd
       -0.0011137603 -0.025668612 -0.008000474 -0.05422476
000200 03 68 0e be 05 d0 e0 3c dc 65 7b bd b7 8b 30 3d
       -0.13906865 0.027442941 -0.061376438 0.043101992
000210 82 dd 23 3c 70 77 e8 3b f8 1b 23 bd 50 b2 6c 3d
       0.010001542 0.007094316 -0.039821595 0.05778724
000220 7f 53 91 bd 64 95 43 3d 8a c7 f7 3d 5c 7a 1d 3d
       -0.07096004 0.047749892 0.12098606 0.03844677
000230 3d 8e 57 3c 1a 03 89 3d 82 6d e5 3c c5 87 0e 3d
       0.013156471 0.06690045 0.028006319 0.03479745
000240 0f 18 61 3c 6b e6 47 bd 78 f7 4a 3d 7b c0 11 bd
       0.013738646 -0.048803728 0.04955241 -0.035583954
000250 84 7f 81 bd c0 d0 0b 3d 06 64 b2 3a c0 5b ee 3d
       -0.0632315 0.034134626 0.0013610132 0.11638594
000260 f6 9f 21 3d b5 3c e9 3d 99 81 8b 3d 0e 23 aa bd
       0.03945919 0.11388532 0.06811828 -0.083074674
000270 84 d8 3b bd 93 95 72 bb ce fa 03 3c 5e 0f 90 bc
       -0.045860782 -0.0037015423 0.008055402 -0.017585453
000280 67 dd 33 3e 73 c7 cd 3b 73 3a 4c 3d 30 cb 9b 3d
       0.17564927 0.0062798797 0.04986043 0.07607114
000290 e7 7d 96 3d 30 9a 8a bd 2a 46 98 3d a5 d1 5f 3d
       0.07348233 -0.0676769 0.07435258 0.054643292
0002a0 79 d8 ef bb a1 5b a6 bd b7 77 bd 3c 60 48 1b 3b
       -0.0073195067 -0.081229456 0.023128374 0.0023694262
0002b0 5c 54 ac 3d 91 1e c5 bb e1 59 4c bc 92 f3 c0 3d
       0.08414528 -0.0060156067 -0.012472601 0.09421457
0002c0 8d 70 97 3d 7c 97 01 3d e8 3e 9a bd c6 c7 cd bc
       0.07394514 0.031638607 -0.0753153 -0.025119673
0002d0 19 cb e7 3b 10 76 b5 3c 17 47 b9 bc a1 90 5e bd
       0.0070737717 0.022151023 -0.022616906 -0.054337148
0002e0 db c3 c2 3d 40 2f ed 3b d0 70 a6 3c 04 5f 25 3c
       0.09510013 0.0072382987 0.020317465 0.010093454
0002f0 b0 09 61 3d 7a 1c a8 bd df de 23 bd b5 54 a0 3d
       0.05494088 -0.082085565 -0.04000747 0.078286566
000300 5d 40 8b bd 28 01 61 3d 6e 40 2b 3d 48 b0 45 3c
       -0.06799386 0.054932743 0.04180949 0.0120659545
000310 33 f9 ff 3c 87 e3 8b bd 42 d2 d0 3d 83 91 6a 3d
       0.031246757 -0.06830507 0.101963535 0.057267677
000320 c3 27 37 bb 25 ea 89 bd 0d 30 90 3c e1 e9 e8 bc
       -0.0027947284 -0.06734113 0.017601037 -0.028431835
000330 e1 09 8e bd 5d 62 47 3d 85 b7 2d bc 64 18 77 3d
       -0.06935478 0.04867779 -0.0106028365 0.060325995
000340 f4 95 07 3d 5e 48 aa bc 03 30 a7 3c 5c 55 02 3e
       0.03310199 -0.02078646 0.020408636 0.12727875
000350 a9 a9 d3 3c cd 67 15 3c 0b a7 d9 3c 73 d7 80 3d
       0.025837736 0.009118986 0.02656891 0.06291094
000360 22 68 87 3d 0d 36 97 bd a6 fa 4d bd 28 2a a4 3d
       0.06611659 -0.07383356 -0.050287865 0.08015853
000370 ae cc d2 3c 47 93 bb 3d 9b e6 14 bd 8a b0 99 3d
       0.025732365 0.0915895 -0.036352735 0.07504375
000380 ab fc 26 3e 37 e7 0f 3d 97 88 a6 3c 25 1a 48 3d
       0.16307323 0.035132613 0.020328803 0.04885306
000390 7a 15 bb 3d dd 48 96 bd d3 d8 b9 bd ec c7 03 3e
       0.09134956 -0.07338116 -0.09074559 0.12869233
0003a0 1d bd c9 3d 2f 02 1c bc b4 c3 5b ba df f0 92 bd
       0.098505236 -0.009522005 -0.0008383349 -0.07174849
0003b0 6b 02 72 3d 37 2c 6a 3d d0 a1 d9 3d 29 b6 03 bd
       0.059084337 0.057171073 0.106265664 -0.032156143
0003c0 81 0e 8d bd 8a 6c 64 bd af 96 44 bb 38 cb 63 3d
       -0.06887532 -0.055767573 -0.002999704 0.055613726
0003d0 8d ba 39 3d d3 19 82 3d 88 82 3f 3d fc 7d dd bc
       0.045343924 0.06352582 0.046755344 -0.027037613
0003e0 c8 bb 9a 3d c1 fb c6 bc e7 8f 01 be b6 58 81 3d
       0.07555348 -0.024289967 -0.1265255 0.063157484
0003f0 70 3d b4 bc 26 f6 be ba 3e c6 20 bd 32 12 a8 3d
       -0.022001952 -0.0014569208 -0.03925156 0.082065955
