clean2noisy_mlp_final.pth (torch, 419500 bytes, 2 tensors)

net.0.weight f4 [128, 784]
0	0xbca3eeb3	-0.020011282
1	0xbd1dfd82	-0.038571842
2	0xbc12c559	-0.008958184
3	0xbc42cd64	-0.011889789
4	0xbd5318bd	-0.051537264
5	0xbda87e12	-0.08227171
6	0xbd9810c2	-0.07425071
7	0xbd32bb11	-0.04363543
8	0xbdb7a020	-0.08966088
9	0xbd2d9db0	-0.04238671
10	0xbd2c5055	-0.042068798
11	0xbd296c9b	-0.04136334
12	0xbd3da366	-0.046298407
13	0xbd83eb21	-0.06441332
14	0xbd07ea16	-0.033182226
15	0xbc4aca6d	-0.012377364
16	0xbd3ad2fe	-0.045611374
17	0xbca3ba03	-0.019986158
18	0x3d0bef71	0.034163896
19	0x38e3349c	0.00010834003
20	0xbbca9efd	-0.0061835037
21	0x3c1aa79d	0.009439376
22	0x3ca2d2ac	0.019875847
23	0x3d2b5b57	0.041835155
24	0x3d47c772	0.04877419
25	0x3aea9cf2	0.0017899557
26	0x3d0b68ff	0.03403568
27	0xbba0cd38	-0.0049072765
28	0xbd05e82a	-0.032692112
29	0xbcaf4cc2	-0.021398906
30	0xbc6a11d2	-0.014286475
31	0xbcdf0324	-0.027223177
32	0xbd82881c	-0.06373617
33	0xbce5eff3	-0.028068518
34	0xbd38a0cf	-0.045075234
35	0xbd5c9ab5	-0.053858478
36	0xbd12a271	-0.035799447
37	0xbd7e3f53	-0.06207211
38	0xbd37c7f6	-0.044868432
39	0xbcf39f86	-0.029739153
40	0xbd9f0ed7	-0.07766502
41	0xbcfd3289	-0.030907886
42	0xbd68edee	-0.056867532
43	0xbd2cbfa8	-0.042174965
44	0xbc43f3d1	-0.011959986
45	0xbd113a95	-0.03545626
46	0xbbe0f28e	-0.0068648523
47	0xbc0a2654	-0.00843199
48	0x3c37e3f5	0.011223783
49	0x3c635f02	0.013877632
50	0x3cd371c2	0.02581108
51	0x3c8e17ef	0.017345397
52	0x3ba79533	0.0051142215
53	0x3d3399af	0.043847736
54	0xbc50f821	-0.012754471
55	0x3c629542	0.013829531
56	0x3b9f3ed9	0.004859787
57	0x3b2fecaf	0.0026843955
58	0x3b3265ad	0.0027221248
59	0xbd32c2f1	-0.04364294
60	0xbd4e7cc2	-0.050411947
61	0xbd31fd68	-0.043454558
62	0xbd2df7c5	-0.04247262
63	0xbd58d11f	-0.05293381
64	0xbd26b125	-0.040696282
65	0xbc7a3116	-0.015270492
66	0xbcbd8bb1	-0.0231379
67	0xbcdb9fe0	-0.026809633
68	0xbcba99c9	-0.022778409
69	0xbd165d5b	-0.036710124
70	0xbc52a375	-0.012856354
71	0xbd0c7bb9	-0.03429768
72	0xbc8c93b5	-0.017160276
73	0xbd12b0db	-0.035813194
74	0x3c49811d	0.012298849
75	0xbd015e82	-0.03158427
76	0x3b7aae99	0.003825104
77	0x3b581426	0.0032970994
78	0xbaec42ce	-0.001802528
79	0x3c2f9565	0.010716771
80	0x3cb03cbc	0.021513335
81	0x3b43542a	0.0029804804
82	0xbc8b4879	-0.017002331
83	0xbb1b6462	-0.0023710956
84	0x3d351eaf	0.044218715
85	0x3c23cca0	0.009997517
86	0xbcca3276	-0.024682265
87	0xbae4c98b	-0.0017455084
88	0xbc420e80	-0.011844277
89	0xbd101ee9	-0.03518573
90	0xbc430613	-0.011903304
91	0xbc2d3f6d	-0.010574204
92	0xbd40a0fe	-0.047028534
93	0xbd05b9e4	-0.032647982
94	0xbc79fd92	-0.01525821
95	0xbd6c474a	-0.057685174
96	0xbaf92feb	-0.0019011473
97	0xbd2413dd	-0.040058006
98	0xbd1106ba	-0.035406806
99	0xbd4ffb0f	-0.050776538
100	0xbc7a4de7	-0.015277362
101	0xbd53fad8	-0.051752895
102	0xbcbc4b49	-0.022985118
103	0x3c8ec7e4	0.0174293
104	0xbc26e59a	-0.010186577
105	0x3c6da11d	0.014503744
106	0x3c92f7a4	0.01794035
107	0x3b83bbf3	0.004020208
108	0xbcbc978c	-0.023021482
109	0x3bb89685	0.0056331777
110	0xbc271d93	-0.010199922
111	0xbd264d85	-0.040601272
112	0x3cb1a42f	0.021684734
113	0x3b53955e	0.0032285075
114	0x3c77ef07	0.015132672
115	0xbb31e07c	-0.002714186
116	0xbcc86376	-0.02446149
117	0x3ba4e803	0.0050325408
118	0xbc87f5c8	-0.01659669
119	0xbcacb388	-0.0210817
120	0xbcb9dc23	-0.022687977
121	0xbce8e831	-0.02843103
122	0xbd451720	-0.048117757
123	0xbcd6e7ae	-0.02623352
124	0xbd4ebfc1	-0.05047584
125	0xbcbc3c43	-0.022977954
126	0xbc1ffbe6	-0.009764647
127	0xbc883fb9	-0.016631948
128	0xbb17dd7a	-0.0023172782
129	0x3c44d351	0.012013272
130	0xbb4c58cb	-0.0031180854
131	0x3c1d6d2f	0.009608551
132	0x3c721d6a	0.014777521
133	0x3cb8431a	0.022492934
134	0xbc2cc6b2	-0.0105454195
135	0x3cb36a12	0.021901164
136	0x3c933d66	0.017973613
137	0xbcd95442	-0.026529435
138	0xbca0b664	-0.01961822
139	0xbbc03292	-0.0058654035
140	0x3d0955bd	0.033529032
141	0x3c773497	0.015088222
142	0x3b0fb16d	0.0021925822
143	0x3caa520c	0.020791076
144	0xbce4d56c	-0.027933799
145	0xbc5d2b38	-0.013499074
146	0xbc2d14b8	-0.010564022
147	0xbd194d33	-0.03742714
148	0xbd19e27b	-0.037569504
149	0xbcc2fac0	-0.023801208
150	0xbd299621	-0.04140294
151	0xbc82c5fe	-0.01596355
152	0xbc6b999d	-0.014379886
153	0xbce63426	-0.028101038
154	0x3c084d05	0.008319144
155	0xbc3ed7a9	-0.011648097
156	0x3a110f3f	0.0005533583
157	0x3c81a4b7	0.015825612
158	0x3c81773d	0.015803928
159	0x3ba886d6	0.005143027
160	0xbb81995f	-0.003955051
161	0x3be8b5e3	0.0071017607
162	0x3c8b5c2b	0.017011723
163	0x3c4fd5e3	0.012685272
164	0x3c173a1b	0.009230162
165	0xbb4fb3ba	-0.0031692819
166	0xbc88d7cd	-0.016704464
167	0xbca97618	-0.020686194
168	0x3d2f7ceb	0.04284374
169	0x3d049b8f	0.032374915
170	0x3c1fc918	0.009752534
171	0x3c8fe20d	0.017563844
172	0xbc3f0004	-0.011657719
173	0xbc7c6e71	-0.015407191
174	0xbd15285c	-0.036415443
175	0xbc641698	-0.013921402
176	0xbd27fc24	-0.041011944
177	0xbd429026	-0.047500752
178	0xbc03d6ff	-0.0080468645
179	0xbd280b52	-0.04102642
180	0xbd0379a8	-0.032098442
181	0xbc37128d	-0.011173856
182	0x3c8b3d41	0.016996982
183	0xbb966da5	-0.0045907074
184	0x3b05fdce	0.0020445469
185	0x3c7afdcf	0.015319302
186	0x3ba18fa0	0.0049304515
187	0x3d19a30b	0.037509006
188	0x3d1ca768	0.03824559
189	0x3d11ca1e	0.035593145
190	0x3d0199fa	0.031640984
191	0x3d3fe1ce	0.046846204
192	0x3c3fc609	0.01170493
193	0x3c9d34fa	0.0191903
194	0xbce787e8	-0.028263047
195	0xbcb6ef65	-0.02233095
196	0x3ccaaa47	0.024739398
197	0x3cf49c94	0.029859819
198	0x3cb6c2b8	0.022309646
199	0xbca1d72f	-0.019755928
200	0x3b532547	0.0032218264
201	0xbcd18666	-0.025576781
202	0x3a13344e	0.0005615399
203	0xbcd17397	-0.025567813
204	0xbc4f6072	-0.012657272
205	0xbbb9dc0e	-0.0056719845
206	0xbc72c0c9	-0.014816471
207	0x3b9d8e99	0.0048082587
208	0xbba02cc6	-0.00488815
209	0xbc9f11ad	-0.019417608
210	0x3bc4ae16	0.006002198
211	0x3cd2055b	0.02563732
212	0x3c961550	0.01832071
213	0x3d11389f	0.03545439
214	0x3cb62472	0.022234175
215	0x3c9ebdd6	0.01937763
216	0x3b2c8ee4	0.0026330287
217	0x3c22b3e0	0.009930581
218	0x3c707e4b	0.014678548
219	0xbacf183e	-0.0015800071
220	0xbc4d7b9b	-0.012541677
221	0xbb25bcb0	-0.0025289468
222	0xbcc80dbe	-0.024420615
223	0xbb647781	-0.003486127
224	0xbb274bbd	-0.0025527321
225	0xbbce8d96	-0.0063034995
226	0xbbdd22a5	-0.0067485147
227	0x3c0f4311	0.008744017
228	0xbc106b2c	-0.008814614
229	0x3cc2200b	0.02369692
230	0xb8b45be3	-8.600184e-05
231	0x3cc1dda2	0.023665253
232	0xbc327f02	-0.010894539
233	0xbc40d5ac	-0.011769693
234	0x3cdb5658	0.02677457
235	0xbc542231	-0.012947605
236	0x3c5b1c05	0.01337338
237	0x3cec99fc	0.02888202
238	0x3c3ca386	0.011513596
239	0x3c49f82f	0.012327238
240	0x3cb611ed	0.022225345
241	0x3b7f2848	0.0038933922
242	0x3d203f94	0.039123133
243	0x3d08698c	0.033303782
244	0x3c88430e	0.016633537
245	0x3ca10b75	0.019658783
246	0xbc10016b	-0.008789401
247	0x3c0c55ee	0.008565409
248	0x3ca50e4f	0.020148424
249	0x3c6958db	0.014242376
250	0xbbdf8ba7	-0.006822068
251	0xbd291ec9	-0.041289125
252	0x3d282198	0.041047662
253	0xba91b2d5	-0.0011115918
254	0x3ce4aa43	0.027913218
255	0x3cff095c	0.031132393

net.2.weight f4 [32, 128]
0	0xbb9e62f1	-0.004833572
1	0x3c03a9c8	0.0080360845
2	0xbcf8baad	-0.030362451
3	0x3cda2d07	0.026632799
4	0xbe199473	-0.14998035
5	0x3d738f10	0.059462607
6	0xbda3191d	-0.07963774
7	0x3d4d4f25	0.050124306
8	0xbd8e7fa4	-0.06957939
9	0xba747009	-0.0009324556
10	0x3daf71c7	0.08566623
11	0x3de2d67a	0.110760644
12	0xbb2acad8	-0.0026060846
13	0x3d404359	0.046939228
14	0xbe4c6c77	-0.19963251
15	0xbcb36f71	-0.021903725
16	0xbba0dc93	-0.004909107
17	0xbd623f58	-0.05523619
18	0x3d8bf2f7	0.06833451
19	0xbd3c97cb	-0.0460432
20	0x3db103b0	0.086432815
21	0x3da3eafb	0.08003803
22	0x3defa308	0.117010176
23	0x3dbffbe1	0.09374214
24	0x3cf59347	0.029977454
25	0x3de3bee9	0.111203976
26	0xbd94d8e6	-0.072679326
27	0xbc71b8b3	-0.014753508
28	0x3ccc3cd8	0.024931356
29	0x3e0a49aa	0.13504663
30	0xbe04e90d	-0.12979527
31	0x3d9b46e2	0.07581879
32	0x3cc1f8e6	0.023678254
33	0x3d144ccd	0.036206055
34	0xbcedb2a1	-0.029015841
35	0xbd33c649	-0.04389027
36	0x3d5bb804	0.053642288
37	0x3ce14da3	0.02750284
38	0x3d1e2bcf	0.038615998
39	0x3e09492d	0.1340682
40	0x3c3487c8	0.011018701
41	0x3d458f17	0.048232164
42	0xbd9186fa	-0.07105823
43	0x3e0ed88d	0.13949795
44	0xbe165736	-0.14681706
45	0xbc4eea4f	-0.012629106
46	0xbdc08df2	-0.09402074
47	0x3ccd39b2	0.025051925
48	0xbc91627c	-0.017747156
49	0xbd0eec0e	-0.034893088
50	0xbd149d35	-0.036282737
51	0xbd09e60f	-0.033666667
52	0x3d894a46	0.0670362
53	0xbc2ab4d1	-0.010419087
54	0x3ba5ab14	0.0050557945
55	0xbdce8215	-0.10083405
56	0x3e08301b	0.13299601
57	0xbddf1fba	-0.10894723
58	0x3c9af464	0.018915363
59	0xbd404c60	-0.046947837
60	0xbdbbf4ff	-0.09177589
61	0x3dbf1fa6	0.09332208
62	0xbc9eeaa7	-0.019399
63	0xbc5f1c6c	-0.013617616
64	0xbc930b26	-0.017949652
65	0x3d332b86	0.04374268
66	0xbd71cb8e	-0.059032016
67	0x3db5570a	0.08854492
68	0xbe128288	-0.14307606
69	0x3ce6d2e7	0.028176738
70	0xbd125112	-0.035721846
71	0xbd8b40ca	-0.06799467
72	0x3da8eb89	0.0824805
73	0x3d2d328f	0.042284545
74	0x3e0d0518	0.13771474
75	0xbdabcef7	-0.08389085
76	0x3dcfe57d	0.10151193
77	0x3e0c5c95	0.13707192
78	0xbcf2471a	-0.02957492
79	0xbc95b600	-0.01827526
80	0x3ddbc1a1	0.10730291
81	0x3e0fbc19	0.14036597
82	0xbd5f5c0e	-0.05453115
83	0x3e2e75c9	0.17037119
84	0xbcec2a6d	-0.028828824
85	0xbd09e42b	-0.033664864
86	0xbe05113c	-0.12994856
87	0x3d8e427d	0.069462754
88	0x3e11900f	0.1421511
89	0x3dc6e749	0.09712083
90	0xbd63b3ec	-0.05559151
91	0x3cd3c581	0.025851013
92	0x3c1c7c6c	0.009551149
93	0xbd1825e1	-0.0371455
94	0xbcdd5d02	-0.027021889
95	0xba95e899	-0.0011437117
96	0x3c88c4ee	0.016695466
97	0x3e18b046	0.14910993
98	0x3d84a1d4	0.06476179
99	0xbe2b8916	-0.16751513
100	0xbdb65865	-0.08903579
101	0x3d6b4e9a	0.057448007
102	0x3dc87ada	0.09789057
103	0xbd8392fc	-0.064245194
104	0xbd8eea4c	-0.06978282
105	0x3baceb7f	0.0052770968
106	0xbcfefe44	-0.031127103
107	0x3df66924	0.12031773
108	0xbd96d1a1	-0.07364202
109	0x3e20fc86	0.1572133
110	0x3d4a04b9	0.04932091
111	0xb892db4a	-7.002668e-05
112	0xbddc3c82	-0.107537284
113	0xbcf3db8f	-0.02976778
114	0x3d707b30	0.05871123
115	0x3dfa1b84	0.122122794
116	0x3d14890a	0.036263503
117	0x3c2bf5d8	0.010495625
118	0x3dc8a986	0.09797959
119	0xbd568722	-0.052374966
120	0x3da0678a	0.078322485
121	0x3debce57	0.115139656
122	0x3de484a9	0.111581154
123	0x3d7a06e6	0.061041735
124	0x3cc47bc2	0.023984794
125	0xbd0deb8c	-0.034648463
126	0xbcc1e4e5	-0.023668716
127	0xbd4a37cd	-0.049369622
128	0xbc40ceea	-0.011768082
129	0xbd91459b	-0.07093354
130	0xbd083d7b	-0.033261757
131	0x3d8736aa	0.06602223
132	0xbd86a364	-0.06574133
133	0x3a7ff4ad	0.00097639376
134	0xbd3765e3	-0.0447749
135	0x3bebad67	0.007192302
136	0xbd9e3f21	-0.07726885
137	0x3d278219	0.040895555
138	0x3e4a144d	0.19734307
139	0x3ca54ede	0.020179208
140	0x3bc249b5	0.0059291967
141	0x3d557f96	0.05212363
142	0x3e04d3df	0.12971447
143	0x3d6a432d	0.05719297
144	0xbcab6c57	-0.020925684
145	0xbd977493	-0.07395282
146	0x3d884250	0.06653273
147	0xbded2820	-0.11579919
148	0xbd9b0fbc	-0.075713605
149	0x3cdae855	0.026722113
150	0x3d8acd35	0.067774214
151	0x3e167f5d	0.14697023
152	0x3d1f6c03	0.038921367
153	0x3e04b7d4	0.1296075
154	0x3d194da6	0.037427567
155	0xbd3b2779	-0.04569194
156	0x3c9a8612	0.018862758
157	0x3cf67c5c	0.030088596
158	0x3b2f1dea	0.002672071
159	0xbd3cafb6	-0.04606601
160	0x3e681aa4	0.22666413
161	0xbc9008d2	-0.01758233
162	0x3cfdb4f9	0.030970084
163	0x3deb29d2	0.11482586
164	0x3d3db6d3	0.046316933
165	0xbc5d4e92	-0.013507502
166	0x3e267b53	0.16257982
167	0x3e118ab3	0.14213066
168	0xbd73575f	-0.059409495
169	0xbd4c544f	-0.04988509
170	0x3c57c8bd	0.013170418
171	0x3cfeca17	0.031102223
172	0x3cf66dde	0.030081686
173	0x3d6e8fda	0.058242656
174	0xbe5c1e37	-0.21495901
175	0x3ca67bc5	0.02032269
176	0x3e1a3f80	0.15063286
177	0x3d42e59a	0.047582246
178	0xbe24116f	-0.16022275
179	0xbcc0edc8	-0.023550883
180	0xbc6fdc9f	-0.0146400025
181	0x3d789703	0.06069089
182	0xbcb3cec8	-0.021949187
183	0xbe191bf9	-0.14952077
184	0x3e07702c	0.13226384
185	0x3c4f52cf	0.01265402
186	0x3d203566	0.039113425
187	0x3d36c40d	0.044620562
188	0x3de0feb8	0.10986084
189	0xbdc2c0d3	-0.095094346
190	0x3d07d596	0.033162676
191	0x3da6c656	0.08143298
192	0xbd0210e5	-0.031754393
193	0x3d868432	0.06568183
194	0x3d3669d0	0.044534504
195	0x3d58dcb7	0.052944865
196	0xbe32a1a2	-0.1744447
197	0xbd8fae4e	-0.07015668
198	0x3e070cc7	0.13188468
199	0x3c09dc59	0.008414351
200	0x3d2f8783	0.042853843
201	0xbd40c8b5	-0.04706641
202	0x3e1ecf10	0.15508676
203	0xbcbc3548	-0.022974625
204	0xbe1aa713	-0.15102796
205	0x3cda1f29	0.026626186
206	0xbb956002	-0.004558564
207	0x3d69c92f	0.05707663
208	0x3d69803a	0.057007052
209	0x3c94c693	0.018161094
210	0xbcf4ccaa	-0.029882748
211	0x3da767b2	0.08174075
212	0x3c777782	0.0151041765
213	0xbd7dd16c	-0.0619673
214	0xba9d2322	-0.001198862
215	0x3d0e78ba	0.034783103
216	0x3d15ee9e	0.036604516
217	0xbd83cfe0	-0.064361334
218	0xbaff4fb9	-0.0019478715
219	0x3db2c3bd	0.0872874
220	0x3d3f25d7	0.046666946
221	0x3e2808b3	0.16409568
222	0xbc8ec1cc	-0.017426394
223	0x3d87f30e	0.06638156
224	0x3e439677	0.19100367
225	0x3d2d9aaa	0.042383827
226	0xbd588ef2	-0.0528707
227	0x3cf76532	0.03019962
228	0x3dd825b1	0.10554064
229	0x3ae38f62	0.0017361457
230	0xbd4d4b63	-0.050120723
231	0x3d228eeb	0.03968708
232	0xbca98306	-0.02069236
233	0x3d3e36c8	0.046438962
234	0x3c9df98e	0.019284036
235	0x3d8add80	0.06780529
236	0x3b895cbd	0.0041919635
237	0x3d0e9245	0.034807462
238	0x3e3cee7d	0.18450351
239	0xbdd33781	-0.10313321
240	0xbd572bb0	-0.052531898
241	0xbdbe4ec8	-0.0929237
242	0xbd959b9c	-0.07305071
243	0x3dc4552c	0.09586558
244	0x3d158214	0.036501005
245	0xbd7f71bd	-0.06236433
246	0x3da05f36	0.0783066
247	0xbd50c1a4	-0.05096592
248	0x3d6ec74f	0.058295544
249	0xbcbf9492	-0.023386274
250	0xbda37db6	-0.07982962
251	0x3d9ec0e3	0.07751634
252	0xbbfb375c	-0.0076665115
253	0xbc25a87b	-0.01011097
254	0xbcafb662	-0.021449272
255	0x3d859afc	0.065237015
