clean_10.pth (torch, 101665 bytes, 1 tensors)

linear.weight f4 [32, 784]
-0.02551292 0.0028159684 0.016126279 0.03300137 0.0023011484 -0.015687792 -0.0052021705 -0.02558167
0.0056111813 0.005716204 -0.00733681 -0.027787134 -0.016841168 -0.025574774 -0.029858585 -0.0035939014
-0.03715347 -0.011113077 -0.03551797 -0.002251096 -0.020396518 -0.039676026 -0.043719053 -0.004364779
-0.020126468 0.008366573 -0.039027665 0.009050747 0.029276539 -0.0043038446 0.018223524 0.0074607735
0.031783517 -0.014847239 0.009651082 0.02942566 0.00082062295 0.007945477 -0.011639956 0.003893398
-0.022770263 0.017331582 -0.029122543 -0.007807733 0.007225667 -0.025949184 0.000360033 -0.011244906
-0.031062756 0.02306429 0.00018020306 -0.025618471 -0.007333796 0.0051523433 -0.003867887 -0.027102789
-0.019414777 -0.020263128 -0.0024342046 0.01818559 -0.019128764 0.04149095 -0.005554529 -0.01145182
-0.014659636 -0.004175545 0.009747035 0.0023751857 -0.03146935 0.024139808 -0.015582306 -0.018696047
0.021572005 -0.027369747 0.0016789511 0.0012683722 -0.007822409 -0.038695328 0.009799674 0.012305247
-0.022842815 -0.025308043 -0.017172005 -0.021091588 0.029247843 -0.012183636 0.01801692 0.016142013
-0.00483768 0.010774562 0.018309522 -0.015653122 0.028163455 0.005981265 -0.03936055 0.029163048
-0.023479152 -0.0038058232 -0.010005426 -0.010195643 -0.017560707 -0.0015127264 -0.019556882 -0.022108035
0.012296331 -0.017659973 0.010395238 -0.015094163 0.0035697287 -0.005109854 0.009826684 0.012273177
0.008575844 -0.0003863147 0.04464274 0.006855299 0.029223334 0.019010978 0.0014512981 0.030595249
0.004395101 -0.0066849487 0.025254695 -0.021496847 -0.012498351 0.017892119 -0.025553696 -0.0066265943
-0.008131429 0.0023340422 -0.02858828 0.023441711 -0.013665678 -0.025671626 -0.025541386 -0.009652032
-0.03052562 0.012447446 -0.01061535 -0.030415684 0.04933674 0.015888596 -0.015434247 0.0030408562
0.033384085 0.010147196 -0.0037080895 0.008993954 0.0008491069 -0.0075307437 0.01670307 -0.0019754835
-0.019620772 -0.021203881 0.009928839 0.00058186456 -0.024778174 0.0061658053 -0.015324792 -0.013268467
-0.01910663 0.006427348 0.0064457175 0.00097281643 -0.004966011 0.016294174 -0.0336526 -0.0038831572
0.04214749 -0.0047650025 0.049525157 0.02599239 -0.008545832 0.0060613854 0.048488516 0.009471047
-0.009168165 0.026035944 -0.014200321 0.017885672 0.010228801 0.014482685 -0.010805832 -0.02951582
0.0030290456 -0.0017052332 -0.004164739 -0.0057716575 -0.0018891739 -0.016398063 0.003521535 -0.0122451885
-0.02154373 0.016054347 -0.0060850834 -0.0049069556 0.009268684 0.018621283 0.01055414 0.0077845613
0.0066656903 0.025086263 0.0019326193 0.009781099 0.03014019 0.0008637336 0.02257633 -0.012176528
-0.015109406 -0.017582826 0.0064057414 -0.009629538 0.014650775 -0.029454907 -0.013020416 0.0012506768
-0.014910101 -0.0063856663 -0.0027805427 -0.022995323 0.010580947 -0.008198674 -0.030495534 0.013020819
0.047692996 0.024228614 0.016150415 0.03162181 0.01644916 0.026052456 0.013832555 0.018805943
0.0076536587 -0.0038795685 -0.0054557133 0.024889387 -0.009857244 0.016485691 -0.0129059795 -0.009955503
-0.014351653 -0.008506291 0.014012067 -0.018246638 -0.0068754125 0.0080163255 -0.0099343965 -0.0025510837
-2.5519483e-05 0.015266046 -0.019427916 -0.007971072 0.03374217 0.01964371 0.037413582 0.008180633
00000000: 7900 d1bc 1c8c 383b 421b 843c 722c 073d
00000010: ddce 163b af83 80bc f876 aabb a790 d1bc
00000020: 00de b73b ff4e bb3b a069 f0bb d8a1 e3bc
00000030: 7df6 89bc 3082 d1bc fe99 f4bc a987 6bbb
00000040: 3d2e 18bd a013 36bc 4a7b 11bd 2087 13bb
00000050: 9916 a7bc 5483 22bd c012 33bd 6c06 8fbb
00000060: 43e0 a4bc f313 093c 79db 1fbd 9649 143c
00000070: 5ad5 ef3c 4407 8dbb 8049 953c 8179 f43b
00000080: 6f2f 023d d541 73bc 921f 1e3c 150e f13c
00000090: 131f 573a bf2d 023c 84b5 3ebc 6128 7f3b
000000a0: b488 babc f6fa 8d3c 6692 eebc 03d8 ffbb
000000b0: 4ac5 ec3b 6293 d4bc d0c2 bc39 8e3c 38bc
000000c0: 5277 febc 52f1 bc3c e4f4 3c39 d4dd d1bc
000000d0: 5750 f0bb fdd4 a83b 607c 7dbb ab06 debc
000000e0: bd0b 9fbc dcfe a5bc 2d87 1fbb f2f9 943c
000000f0: edb3 9cbc 6af2 293d c402 b6bb 6aa0 3bbc
00000100: f82e 70bc 03d3 88bb 07b2 1f3c 01a9 1b3b
00000110: 01e6 00bd d9c0 c53c ee4c 7fbc 7428 99bc
00000120: c6b7 b03c 8536 e0bc 4010 dc3a 823f a63a
00000130: 9029 00bc fe7e 1ebd d08e 203c f29b 493c
00000140: db20 bbbc d052 cfbc 4eac 8cbc 44c8 acbc
00000150: 2c99 ef3c e09d 47bc 3898 933c 413c 843c
00000160: 6785 9ebb ca87 303c dafd 953c fa3a 80bc
00000170: 0cb7 e63c 7dfe c33b 8738 21bd 58e7 ee3c
00000180: 5a57 c0bc 1e6b 79bb cced 23bc a00b 27bc
00000190: 79db 8fbc ad46 c6ba c135 a0bc e91b b5bc
000001a0: 8d76 493c a6ab 90bc ca50 2a3c 824d 77bc
000001b0: 1cf2 693b 9070 a7bb 1a00 213c 6f15 493c
000001c0: b281 0c3c 488a cab9 4edb 363d 6ba2 e03b
000001d0: c665 ef3c e9bc 9b3c 7c39 be3a e3a2 fa3c
000001e0: c804 903b 6a0d dbbb efe2 ce3c 281a b0bc
000001f0: e2c5 4cbc 7e92 923c fc55 d1bc e723 d9bb
00000200: af39 05bc bbf6 183b f831 eabc d508 c03c
00000210: 02e6 5fbc 4d4d d2bc 2b3c d1bc 8e23 1ebc
00000220: dd10 fabc 5ff0 4b3c 01ec 2dbc 502a f9bc
00000230: 5215 4a3d cd28 823c eddf 7cbc 1a49 473b
00000240: c0bd 083d 6d40 263c 6b03 73bb 615b 133c
00000250: 9996 5e3a 75c4 f6bb e0d4 883c 1d77 01bb
00000260: bebb a0bc c3b3 adbc 92ac 223c 4588 183a
00000270: 99fb cabc 860a ca3b d614 7bbc fc63 59bc
00000280: 8285 9cbc 819c d23b 9936 d33b 9b04 7f3a
00000290: ebb9 a2bb 5c7b 853c 4fd7 09bd 917c 7ebb
000002a0: d9a2 2c3d bd23 9cbb e4da 4a3d feed d43c
000002b0: d103 0cbc 969e c63b e59b 463d 732c 1b3c
000002c0: 1236 16bc 5549 d53c 77a8 68bc f984 923c
000002d0: b396 273c c948 6d3c f20a 31bc 29cb f1bc
000002e0: f482 463b 2282 dfba 5d78 88bb 2c20 bdbb
000002f0: 289e f7ba 3b55 86bc 8ec9 663b 0ba0 48bc
00000300: 7a7c b0bc 6884 833c 6165 c7bb 87ca a0bb
00000310: aedb 173c a98b 983c 46eb 2c3c a215 ff3b
00000320: dd6b da3b b581 cd3c f14f fd3a e740 203c
00000330: 8fe8 f63c 2e6c 623a fff1 b83c 0f80 47bc
00000340: 718d 77bc dc09 90bc 41e7 d13b 36c5 1dbc
00000350: ce09 703c 6b4b f1bc 9553 55bc c0ed a33a
00000360: 7f49 74bc da3e d1bb c439 36bb b060 bcbc
00000370: b55b 2d3c bb53 06bc c5d1 f9bc 4655 553c
00000380: bb59 433d 167b c63c e04d 843c df85 013d
00000390: 64c0 863c f66b d53c f1a1 623c ec0e 9a3c
000003a0: 8bcb fa3b 5c40 7ebb d7c5 b2bb d4e4 cb3c
000003b0: 4780 21bc 000d 873c 9a73 53bc 681c 23bc
000003c0: 3223 6bbc f85d 0bbc de92 653c f979 95bc
000003d0: 244b e1bb e856 033c e1c3 22bc 1530 27bb
000003e0: ac12 d6b7 701e 7a3c 4b27 9fbc 1999 02bc
000003f0: 3b35 0a3d d9eb a03c fc3e 193d 1008 063c
