clean_mlp_40.pth (torch, 419446 bytes, 2 tensors)

net.0.weight f4 [128, 784]
0.017471408 -0.012404412 0.013224384 0.006414959 -0.03260082 -0.07132619 -0.07096052 -0.049883105
-0.105045184 -0.07139062 -0.068523616 -0.05690446 -0.077230215 -0.09564807 -0.05305895 -0.031793166
-0.06996771 -0.041237194 0.010025737 -0.03178412 -0.03571735 -0.018892663 -0.0024741392 0.037906002
0.053529896 0.001024034 0.057260163 0.0146071585 -0.05202274 -0.031707596 -0.039429974 -0.06204477
-0.07700363 -0.0378022 -0.07336228 -0.06846388 -0.04507404 -0.085511245 -0.07481336 -0.053446926
-0.09391787 -0.0261438 -0.06417527 -0.057087265 -0.013863005 -0.037879854 -0.0183268 -0.030734003
-0.006018815 -0.010084328 0.018369295 0.011656252 -0.0033089456 0.057514977 0.0031027873 0.031977575
-0.0209085 -0.026229342 -0.020666398 -0.07416336 -0.089092724 -0.07821619 -0.07946647 -0.08410763
-0.06331657 -0.02796382 -0.021642096 -0.032860454 -0.010132765 -0.04021622 -0.00077122526 -0.02315551
0.003520664 -0.034233913 0.026460992 -0.036959056 -0.0014135398 -0.0037517743 -0.00603412 0.0034327894
0.033109326 0.0032001387 -0.006260538 0.03016315 0.0004082636 -0.05482306 -0.074251704 -0.04294467
-0.0571249 -0.067224324 -0.029268675 -0.03272476 -0.062432934 -0.051025257 -0.018551994 -0.05835764
0.018121019 -0.031331588 -0.016468586 -0.04747126 0.004155066 -0.041833732 -0.01719027 0.023547407
-0.016080359 0.0094858715 0.007928935 0.0029229803 -0.01682697 0.030144224 0.010949989 -0.007518708
-0.06076966 -0.06281935 -0.023558876 -0.046664752 -0.056763504 -0.012086655 -0.025419394 -0.0338993
-0.034092806 -0.02166477 -0.043138247 -0.005551615 -0.036774676 -0.011310635 0.0038323272 -0.008716486
0.0030103938 0.01788387 0.00063830346 0.014636342 0.01855136 0.021571739 -0.017623797 0.029208658
0.018490268 -0.025583977 -0.006145394 0.023743017 -0.04881676 -0.04198511 -0.05012023 -0.011986429
-0.057713836 -0.02526624 -0.0099642025 -0.042221427 -0.030452263 -0.0035214564 -0.026755448 -0.0030192605
-0.002085074 -0.022721004 0.022004725 -0.0111212535 0.0037628629 0.020424526 0.00954651 0.005110863
-0.016386328 0.0048642415 0.008618689 0.008174349 0.0037638561 0.011196701 -0.001390127 0.008757404
-0.035461865 -0.015638445 -0.03554958 -0.0008879707 -0.023400677 -0.035824675 -0.038746748 -0.00096271955
-0.029050112 -0.037325285 0.01631148 -0.022324625 -0.014857181 0.010336634 0.036028687 -0.004036817
-0.0007739186 0.017271122 0.00031877725 0.036868837 0.03530853 0.035711166 0.028113637 0.04585579
0.01001119 0.029482368 -0.009940065 0.0065799863 -0.030922739 -0.019842817 -0.008383394 -0.03830881
-0.0026631255 -0.030705284 0.007700461 -0.016102433 -0.005527836 0.008296678 0.0046871672 0.02821096
0.011153638 -0.003575128 0.022500971 0.03151696 0.018167922 0.033190202 0.024427287 0.013276952
0.002070463 0.008234405 0.0049254945 -0.013840403 -0.012952739 -0.0013311987 -0.016075285 0.013084027
-0.052745108 -0.048508324 -0.04415651 0.00726665 -0.018568875 0.028461058 -0.00073954364 0.038112715
-0.009067484 -0.0025741307 0.04095653 -0.010740366 0.021057684 0.03651976 0.016487638 0.014443807
0.024963131 -0.0022320978 0.03342008 0.031748664 0.015041084 0.017416745 -0.025957646 -0.0046764924
0.01679681 0.009422637 -0.0034539509 -0.0425168 0.013706082 -0.018010022 0.022780223 0.03725925
00000000: 3320 8f3c e03b 4bbc 16ab 583c 9434 d23b
00000010: 7088 05bd 7713 92bd c053 91bd 3a52 4cbd
00000020: ee21 d7bd 3f35 92bd 1c56 8cbd a714 69bd
00000030: e02a 9ebd 23e3 c3bd 5754 59bd 8d39 02bd
00000040: 3b4b 8fbd 55e8 28bd fd42 243c 1130 02bd
00000050: 5b4c 12bd c9c4 9abc 2b25 22bb 5343 1b3d
00000060: 2a42 5b3d e138 863a a289 6a3d dd52 6f3c
00000070: cc15 55bd d3df 01bd 5381 21bd a822 7ebd
00000080: 14b4 9dbd 7bd6 1abd f73e 96bd ca36 8cbd
00000090: 8e9f 38bd 8520 afbd bf37 99bd 2aeb 5abd
000000a0: 0358 c0bd 862b d6bc 536e 83bd 56d4 69bd
000000b0: a821 63bc e827 1bbd 1622 96bc e0c5 fbbc
000000c0: 7b39 c5bb bd38 25bc 347b 963c ddf9 3e3c
000000d0: e5da 58bb d394 6b3d 2258 4b3b ebfa 023d
000000e0: 4d48 abbc ebde d6bc 944c a9bc f6e2 97bd
000000f0: 3f76 b6bd cf2f a0bd 51bf a2bd 9f40 acbd
00000100: 1eac 81bd 6214 e5bc c44a b1bc af98 06bd
00000110: e603 26bc c3b9 24bd 0d2c 4aba a0b0 bdbc
00000120: f1ba 663b dc38 0cbd b9c4 d83c 6162 17bd
00000130: 8646 b9ba 54e0 75bb deb9 c5bb a6f8 603b
00000140: a59d 073d 6bb9 513b 3325 cdbb b618 f73c
00000150: 360c d639 258e 60bd 4711 98bd c0e6 2fbd
00000160: cdfb 69bd e8ac 89bd dcc4 efbc 660a 06bd
00000170: adb9 7fbd dcff 50bd 5afa 97bc 6c08 6fbd
00000180: 8872 943c 8d55 00bd 21e9 86bc 3971 42bd
00000190: 3827 883b d959 2bbd 9cd2 8cbc 7ee6 c03c
000001a0: f5ba 83bc a16a 1b3c 5de8 013c 798f 3f3b
000001b0: b7d8 89bc 05f1 f63c 9567 333c 7e5f f6bb
000001c0: 9be9 78bd 6ea7 80bd 8bfe c0bc 8a23 3fbd
000001d0: d980 68bd 1b07 46bc 553c d0bc fed9 0abd
000001e0: e6a4 0bbd 517a b1bc bbb1 30bd 52ea b5bb
000001f0: 0ba1 16bd 3e50 39bc c827 7b3b 98cf 0ebc
00000200: 074a 453b 3281 923c d253 273a 45cd 6f3c
00000210: 06f9 973c 37b7 b03c c85f 90bc ff46 ef3c
00000220: e778 973c 7d95 d1bc 4d5f c9bb b780 c23c
00000230: 15f4 47bd 94f8 2bbd df4a 4dbd ba62 44bc
00000240: 5865 6cbd 25fb cebc e540 23bc 60f0 2cbd
00000250: 0677 f9bc 3cc8 66bb 3e2e dbbc c9de 45bb
00000260: bda5 08bb 6621 babc 4143 b43c eb35 36bc
00000270: 5d9a 763b 5651 a73c f768 1c3c 0779 a73b
00000280: 9f3c 86bc 3764 9f3b 6735 0d3c b4ed 053c
00000290: 07ab 763b 5e72 373c ec34 b6ba 377b 0f3c
000002a0: 7640 11bd 321c 80bc 709c 11bd b4c6 68ba
000002b0: c7b2 bfbc e5bc 12bd e9b4 1ebd 045f 7cba
000002c0: 80fa edbc 66e2 18bd a79f 853c 22e2 b6bc
000002d0: 896b 73bc fc5a 293c d192 133d 4647 84bb
000002e0: cce0 4aba 2b7c 8d3c 8f21 a739 c703 173d
000002f0: ad9f 103d df45 123d 924e e63c 48d3 3b3d
00000300: f905 243c 0285 f13c a8db 22bc ed9c d73b
00000310: af51 fdbc 678d a2bc 815a 09bc b3e9 1cbd
00000320: d587 2ebb a689 fbbc 2654 fc3b 40e9 83bc
00000330: d922 b5bb caee 073c cf96 993b ac1a e73c
00000340: c0bd 363c b24c 6abb f553 b83c ee17 013d
00000350: e5d4 943c 73f2 073d bc1b c83c 9387 593c
00000360: 9bb0 073b 99e9 063c 0b66 a13b dcc2 62bc
00000370: ba37 54bc 9e7b aeba 51b0 83bc 635e 563c
00000380: 410b 58bd aab0 46bd 75dd 34bd 141d ee3b
00000390: c11d 98bc 2a27 e93c efdd 41ba 141c 1c3d
000003a0: c98f 14bc bfb2 28bb 09c2 273d 5cf8 2fbc
000003b0: 2a81 ac3c be95 153d 1511 873c b8a5 6c3c
000003c0: 7b7f cc3c 6348 12bb 7ee3 083d e30a 023d
000003d0: e16e 763c 90ad 8e3c 21a5 d4bc 433d 99bb
000003e0: 7799 893c 6761 1a3c ae5b 62bb 1926 2ebd
000003f0: 798f 603c c189 93bc 979d ba3c 289d 183d

net.2.weight f4 [32, 128]
-0.0011526992 0.04835072 -0.059529316 0.0052916915 -0.13714914 0.057494294 -0.10784193 0.10588487
-0.11604759 -0.008098196 0.100493774 0.11815055 0.0149087515 0.033927117 -0.13438852 -0.016996646
0.003983136 -0.047252007 0.07250453 -0.014707621 0.048028972 0.029310144 0.06939644 0.09887489
-0.0023488414 0.0891308 -0.066511445 -0.034245547 0.043718256 0.1328086 -0.1320647 0.08281833
0.07586217 0.046956144 3.5864432e-05 -0.069267236 0.14082508 -0.0075423946 0.058126584 0.1166498
0.023480648 0.05064615 -0.029984787 0.123589665 -0.13721548 -0.012781616 -0.08642633 -0.0009857712
-0.023151342 -0.08120674 -0.05620597 -0.07096015 0.04428578 -0.018511282 0.023230888 -0.113563314
0.11493385 -0.098557256 0.032882296 -0.061088152 -0.06557384 0.14913031 -0.010109775 0.017268784
-0.0061457437 0.04848846 -0.07643513 0.062663026 -0.161664 0.031621147 -0.010273819 -0.06965275
0.05291364 0.06399417 0.0759505 -0.07997649 0.16125795 0.13259557 -0.06794369 -0.014974922
0.103215925 0.14324878 -0.13971141 0.1579295 -0.026958907 -0.05336051 -0.114813566 0.105447754
0.14212129 0.15941252 -0.05309923 0.034732584 0.026527027 -0.009472382 -0.0032602078 0.009988133
0.06346887 0.16835672 0.00027424065 -0.16660905 -0.057661 0.058790293 0.12906739 -0.046711378
-0.029317338 0.00593917 -0.034784965 0.14394958 -0.058767132 0.16277343 0.033133004 0.010564152
-0.08952715 -0.038004085 0.02871985 0.13282572 0.03336943 0.003955669 0.1043829 -0.040860396
0.07460245 0.13163027 0.1199101 0.021090815 0.052839067 -0.02675073 -0.036593642 -0.04366931
0.004980947 -0.03650293 -0.065419495 0.054748125 -0.037970386 -0.0045647603 -0.10883676 0.0055842544
-0.08792263 0.009268948 0.18450084 0.048408944 -0.004213595 0.07681972 0.15484804 0.021510992
-0.023164935 -0.07035394 0.052803118 -0.11941882 -0.052585173 -0.05656597 0.07586689 0.14847238
0.037857484 0.17284563 0.042595234 -0.06901581 0.0123458095 0.023470555 -0.023092354 0.049609713
0.28961304 -0.046830796 0.022068264 0.11188427 0.043779604 -0.018672694 0.2122423 0.118097134
-0.07443028 -0.008563579 -0.009606531 -0.005924434 0.055255786 0.06218969 -0.18869355 0.03208954
0.1654214 0.05249335 -0.16604795 -0.024956046 -0.038409147 0.09759932 -0.006658377 -0.12556
0.07968481 0.016920658 0.025226504 0.05720576 0.11709433 -0.057602696 0.0998389 0.089424364
-0.07108528 0.0639827 0.035187513 0.03344769 -0.13876636 -0.091734 0.14539278 0.019612148
0.057016853 0.028884048 0.1363145 -0.03632518 -0.103344 0.10385554 -0.02593548 0.050655942
0.06585811 0.032580003 0.01179823 0.061341155 -0.0065995534 -0.05533178 0.027861625 0.07104069
0.056656275 -0.034391053 -0.011793758 0.06967435 -0.00060015125 0.2017844 -0.012817869 0.06959811
0.2511142 0.076429285 -0.06117295 0.03373763 0.085042395 -0.0038272755 -0.029955205 0.08203058
0.030271523 0.029718189 -0.007385982 0.017170915 0.0071719415 0.007973067 0.18914954 -0.06893929
-0.07814317 -0.07432764 -0.06725649 0.13039868 0.038734943 -0.012940221 0.14792712 -0.05818084
0.05871355 -0.018357262 -0.06169619 0.06987143 0.034348316 -0.012286967 -0.054846358 0.076098576
00000000: 2b16 97ba 680b 463d 03d5 73bd ed65 ad3b
00000010: d370 0cbe 237f 6b3d 3bdc dcbd 2bda d83d
00000020: 5caa edbd 4cae 04bc aecf cd3d eaf8 f13d
00000030: d643 743c 29f7 0a3d 259d 09be 8d3c 8bbc
00000040: f784 823b 528b 41bd 417d 943d 3cf8 70bc
00000050: 07ba 443d d41b f03c b91f 8e3d eb7e ca3d
00000060: 05ef 19bb 358a b63d 2737 88bd 0f45 0cbd
00000070: ea11 333d fafe 073e f83b 07be a89c a93d
00000080: a05d 9b3d 1655 403d 246d 1638 fbdb 8dbd
00000090: 7334 103e 3126 f7bb 2416 6e3d 17e6 ee3d
000000a0: 7d5a c03c 5672 4f3d a8a2 f5bc 941c fd3d
000000b0: 3782 0cbe fc69 51bc 4a00 b1bd fe34 81ba
000000c0: e2a7 bdbc b84f a6bd 3b38 66bd 8e53 91bd
000000d0: 0265 353d f9a4 97bc b44e be3c e293 e8bd
000000e0: 7062 eb3d 63d8 c9bd 96af 063d 9237 7abd
000000f0: 944b 86bd 9eb5 183e 78a3 25bc 4477 8d3c
00000100: 3c62 c9bb d69b 463d 058a 9cbd 7955 803d
00000110: 3f8b 25be 2d85 013d 8553 28bc 1aa6 8ebd
00000120: f9bb 583d 600f 833d f08b 9b3d b7ca a3bd
00000130: ce20 253e 22c7 073e 1026 8bbd 6059 75bc
00000140: df62 d33d cfaf 123e 8210 0fbe 45b8 213e
00000150: edd8 dcbc 8d90 5abd 6023 ebbd fef4 d73d
00000160: 3e88 113e 093d 233e 947e 59bd c143 0e3d
00000170: 354f d93c 0d32 1bbc 36a9 55bb 44a5 233c
00000180: f8fb 813d b465 2c3e f5c7 8f39 909b 2abe
00000190: f12d 6cbd 17ce 703d 3e2a 043e 6e54 3fbd
000001a0: ea2a f0bc 5e9d c23b ae7a 0ebd 8567 133e
000001b0: ceb5 70bd 14ae 263e 79b6 073d 4415 2d3c
000001c0: 035a b7bd 2caa 1bbd e445 eb3c 7703 083e
000001d0: 62ae 083d 8e9e 813b b4c6 d53d 3b5d 27bd
000001e0: 2bc9 983d 16ca 063e 6d93 f53d a5c6 ac3c
000001f0: c76d 583d 5924 dbbc 37e3 15bd 97de 32bd
00000200: 3637 a33b 1984 15bd a8fa 85bd 923f 603d
00000210: d686 1bbd fc93 95bb cfe5 debd 1ffc b63b
00000220: c810 b4bd c9dc 173c caed 3c3e 7548 463d
00000230: 3212 8abb a853 9d3d 7c90 1e3e d237 b03c
00000240: 64c4 bdbc ba15 90bd 1548 583d db91 f4bd
00000250: 8d63 57bd b8b1 67bd 1a60 9b3d 2509 183e
00000260: 7310 1b3d 72fe 303e 5778 2e3d 2958 8dbd
00000270: 1446 4a3c 5245 c03c 2d2c bdbc 8e33 4b3d
00000280: 2948 943e a6d1 3fbd 81c8 b43c 9523 e53d
00000290: 3e52 333d 7af7 98bc 0c56 593e e9dc f13d
000002a0: e76e 98bd 414e 0cbc b664 1dbc c121 c2bb
000002b0: e453 623d 9eba 7e3d e238 41be 5270 033d
000002c0: 3a64 293e 4403 573d 7908 2abe 9f70 ccbc
000002d0: e952 1dbd 27e2 c73d 842e dabb cd92 00be
000002e0: ca31 a33d 319d 8a3c d0a7 ce3c 9650 6a3d
000002f0: 27cf ef3d cef0 6bbd 5678 cc3d 1f24 b73d
00000300: 2995 91bd 5d09 833d c820 103d 7200 093d
00000310: c518 0ebe 09df bbbd d8e1 143e a8a9 a03c
00000320: 818a 693d 3d9e ec3c 0796 0b3e b6c9 14bd
00000330: 05a6 d3bd 37b2 d43d a576 d4bc 9b7c 4f3d
00000340: 9ee0 863d 9c72 053d 5d4d 413c dd40 7b3d
00000350: 1141 d8bb 94a3 62bd 103e e43c c87d 913d
00000360: 6910 683d a2dd 0cbd 9b3a 41bc 6db1 8e3d
00000370: 7853 1dba 92a0 4e3e 0a02 52bc 7489 8e3d
00000380: 0a92 803e f586 9c3d 7d90 7abd 7830 0a3d
00000390: b52a ae3d 07d3 7abb 9e64 f5bc a6ff a73d
000003a0: fcfb f73c 8f73 f33c 1c06 f2bb 05aa 8c3c
000003b0: 9b02 eb3b 78a1 023c 6bb0 413e 0b30 8dbd
000003c0: 8709 a0bd 1739 98bd c5bd 89bd 3b87 053e
000003d0: 88a8 1e3d 3803 54bc 357a 173e 084f 6ebd
000003e0: 9f7d 703d f861 96bc 25b5 7cbd c118 8f3d
000003f0: d2b0 0c3d 464f 49bc 93a6 60bd 92d9 9b3d
