clean_50.pth (torch, 101665 bytes, 1 tensors)

linear.weight f4 [32, 784]
000000 3f e7 cc bc 28 7a 23 bc 94 dc 0c 3c 3a 27 d1 3c
       -0.02501261 -0.009977855 0.008597512 0.0255314
000010 b4 7f 1f 3b 9c 94 16 3a 42 5a 29 3c 2d 97 7a bc
       0.0024337592 0.00057441904 0.010336461 -0.015294832
000020 72 5f 69 ba d8 58 cb bb ec 43 3b bc 8c 09 e9 bc
       -0.0008902467 -0.0062056594 -0.011429768 -0.028446935
000030 43 59 8b bc d4 ec c2 bc 4d f4 ce bc 27 4e 38 bc
       -0.017010337 -0.02379457 -0.025262976 -0.011249102
000040 6a 72 16 bd dd d5 57 bc 2b d8 1b bd 98 1d 59 bc
       -0.036730208 -0.013173548 -0.03804795 -0.013251685
000050 8f bc ad bc 44 d2 19 bd 6e c3 1c bd d9 45 14 bc
       -0.021208076 -0.03755404 -0.038272314 -0.009049856
000060 1b fa bc bc 3c 25 b1 bb d4 75 20 bd 91 8f ca 3b
       -0.023068478 -0.00540605 -0.03917487 0.006181665
000070 5c d7 00 3d fa 9b 48 39 87 e4 d2 3c ac 71 0b 3c
       0.031455383 0.00019131592 0.025743736 0.008510988
000080 88 53 04 3d a8 40 b2 bb 7e 0c 7d 3c 45 53 e1 3c
       0.032306224 -0.0054398365 0.015444873 0.027505526
000090 5a c7 b6 b9 92 c1 2d 3c 69 20 dc bb 6b 62 ff 3b
       -0.00034862274 0.010605233 -0.006717731 0.0077937148
0000a0 cc bf 70 bc 48 1b 1d 3c f7 8b 90 bc 34 30 bf bb
       -0.014694165 0.009589024 -0.017644865 -0.0058346037
0000b0 2c b4 8c 3b fe 50 67 bc f1 b0 80 38 fb 8f df bb
       0.004293939 -0.014118431 6.1364735e-05 -0.0068225837
0000c0 9e ce 97 bc 3d 4e 5d 3c 0d 59 c9 bb f0 e2 90 bc
       -0.01853114 0.013507423 -0.006144649 -0.017686337
0000d0 24 19 90 ba 9e c6 64 3b 2f 54 14 3b 30 61 a8 bc
       -0.0010993821 0.0034908424 0.0022633185 -0.020554155
0000e0 c1 79 22 bc 34 65 5b 3a 82 c3 31 3c e0 fd 9e 3c
       -0.009916724 0.00083692675 0.010849835 0.019408166
0000f0 58 59 6d bc c3 be 14 3d e8 bb 9d 3b 2a 5e 3e 3b
       -0.014486633 0.036314737 0.00481366 0.0029047825
000100 13 b9 04 bb bc 38 c9 ba 18 93 bf 3b 9f a6 0c bb
       -0.0020251914 -0.0015351991 0.0058463924 -0.0021461619
000110 e9 02 c6 bc 34 31 06 3c ac 9c 4b bc c2 f3 85 bc
       -0.02417131 0.008190442 -0.01242749 -0.016351584
000120 f3 b9 e7 3b 67 fb bc bc 16 a1 32 bb d0 de eb bb
       0.0070717274 -0.023069097 -0.002725666 -0.007198192
000130 12 5b ae bb 09 fd cf bc d7 96 58 bb 76 48 23 b9
       -0.005320915 -0.025389211 -0.0033048892 -0.00015571885
000140 99 eb a0 bc 5e 90 78 bc 43 a0 63 bc 3a 9b bc bc
       -0.019643592 -0.015171139 -0.01389319 -0.023023237
000150 31 1f f1 3c 91 a2 81 ba 2f 02 93 3c a8 00 3b 3c
       0.029433819 -0.0009890368 0.017945377 0.011413731
000160 40 52 1f b9 24 4d 1d 3c f0 92 a8 3c 38 d0 59 bc
       -0.00015194062 0.009600911 0.020577878 -0.013294272
000170 be 6c b3 3c 50 86 e2 3b 13 73 01 bd 2b 16 93 3c
       0.021902438 0.006912984 -0.031603884 0.017954906
000180 3d 45 7b bc df 6b f3 bb db 14 c6 bb dd 39 e5 bb
       -0.015336332 -0.0074286307 -0.0060449666 -0.006995423
000190 66 a7 6e bc 71 21 1e bb 70 e4 2e bc 65 8b af bc
       -0.014566278 -0.002412882 -0.010674581 -0.021428773
0001a0 72 4a d3 3a b8 9f 40 bc 31 2e 69 3a ed c7 99 bc
       0.0016120209 -0.01175683 0.00088951277 -0.01877209
0001b0 70 93 f0 3a 45 8e ba bb 1d af 8b 3b 6e d5 4a bb
       0.0018354487 -0.0056932294 0.0042628185 -0.0030949968
0001c0 0a 9c 51 3c 2f 6f 99 3b ac 0b 31 3d a4 08 2c 3c
       0.01279355 0.0046824436 0.04322402 0.010500107
0001d0 de 53 b2 3c d6 4b 6e 3c 2c f1 c9 3b 44 db b4 3c
       0.021768507 0.014544448 0.006162783 0.02207721
0001e0 d6 3f a4 3b 35 7b 16 bb 83 86 68 3c 10 14 57 bc
       0.0050124926 -0.002296162 0.014192226 -0.013127342
0001f0 45 13 eb bb ba 40 c8 3b 0a 3a 98 bc 5a c0 94 bb
       -0.007173928 0.0061112316 -0.018582363 -0.0045395317
000200 e6 3d 08 bc 56 cd b6 bb ce a0 95 bc 3a c9 eb 3b
       -0.008315539 -0.005578677 -0.018265154 0.007195619
000210 41 d2 66 bc 62 bf 54 bc 4c 48 60 bc aa 96 59 bb
       -0.014088214 -0.012985082 -0.013689112 -0.0033201375
000220 d0 a3 b6 bc a2 7a ab 3b 65 98 9e bb a3 0a d9 bc
       -0.022294909 0.005233125 -0.004839944 -0.02649433
000230 64 06 64 3d 13 cc a5 3c ff 5e 32 bc b6 06 0a 3c
       0.055670157 0.020238912 -0.010886907 0.008424452
000240 09 5d ff 3c a0 da 4a 3c 26 a6 66 3a 4b 89 65 3c
       0.031172292 0.012381226 0.0008798562 0.014009784
000250 25 63 20 3c 08 e6 70 ba 67 11 cd 3b 2d df 2c 3b
       0.009789263 -0.0009189551 0.006258178 0.002637814
000260 95 99 de bb 34 f5 63 bc f7 b4 8e 39 1b b2 67 bb
       -0.0067932107 -0.013913441 0.0002721918 -0.0035353962
000270 fd a5 8c bc 00 81 b4 ba 67 34 22 bc 09 1a 0f bc
       -0.017168993 -0.0013771355 -0.009900189 -0.008734235
000280 5c ac 36 bc da 13 1b ba 92 e6 89 bb 42 08 d1 ba
       -0.011149492 -0.0005915739 -0.0042083943 -0.0015947896
000290 26 7a 0b bc 88 09 0e 3a 91 b6 a1 bc 72 da 31 b9
       -0.008513009 0.00054182904 -0.019740375 -0.00016961413
0002a0 4f 79 55 3d 2e fb ae bb a2 22 2f 3d 89 aa d2 3c
       0.052117642 -0.0053400015 0.042757638 0.025716083
0002b0 c0 6f be 3b 40 40 14 3c d7 25 0e 3d da 0d 73 3c
       0.0058116615 0.0090485215 0.034704056 0.014834845
0002c0 b7 68 34 b8 f2 ce a4 3c c9 f4 3a bc c4 6a e5 3b
       -4.3012868e-05 0.02011821 -0.0114109 0.007001253
0002d0 1e 3e 81 ba 4a c3 72 ba 32 cc 04 bc 36 8a 54 bc
       -0.0009860431 -0.0009260668 -0.008105325 -0.012972405
0002e0 15 ad b0 bb d9 dd 08 bc 5d 3e 8d bb d8 b9 2a bc
       -0.0053917267 -0.008353674 -0.004310413 -0.010420285
0002f0 d2 35 a8 ba c9 a1 85 bc cb 49 01 ba 91 1e 9c bb
       -0.0012833423 -0.016312497 -0.00049319555 -0.004764386
000300 04 1e 78 bc 16 5a 61 3b aa 3f 94 3a 74 98 46 bc
       -0.015143875 0.003438597 0.0011310477 -0.012121309
000310 39 3d 84 3c 77 19 84 3c 57 fe 01 3c cd 6c 58 3c
       0.016142474 0.016125424 0.0079341745 0.013209534
000320 9f eb 7c 3c b9 6e 98 3c de 00 b8 3a b3 47 3b 3c
       0.015437036 0.018607484 0.0014038344 0.011430669
000330 b7 a1 a8 3c 2a e9 0d ba ce a8 9c 3c 96 d7 d9 bb
       0.020584924 -0.00054134673 0.019123461 -0.0066480143
000340 62 ea 34 bb e8 74 35 bc 60 c0 b3 b8 44 42 29 bc
       -0.0027605523 -0.011075236 -8.571218e-05 -0.01033074
000350 c0 97 fc ba 4d 25 65 bc 6f 39 5d bc 5f 19 55 bb
       -0.0019271299 -0.013985944 -0.013502463 -0.0032516343
000360 ce 12 22 bc 7a 10 e4 bb 74 02 13 bb 2d c7 0c bc
       -0.009892179 -0.006959972 -0.0022431882 -0.008592409
000370 76 ed a2 3b e0 de 3d bc fe d6 6f bc f8 6f 40 3b
       0.004972155 -0.011588782 -0.0146386605 0.0029363614
000380 55 0b 54 3d 66 f8 6d 3c 27 de d6 3b 86 6a d5 3c
       0.05176862 0.014524555 0.0065572443 0.02605177
000390 a6 c0 3b 3c b5 0f 87 3c ad b2 62 3c 54 58 83 3c
       0.011459505 0.016486982 0.013836545 0.01603333
0003a0 69 62 04 3c 98 0e eb 3b 3e 87 3a 3b fd e2 54 3c
       0.008080103 0.0071733706 0.0028461958 0.012993571
0003b0 bc f7 fa ba 32 a2 f1 3b 9f 86 07 bc d7 cf f9 bb
       -0.0019147317 0.0073740715 -0.008271842 -0.0076236534
0003c0 34 55 07 bc c5 bc 10 bc 63 3b dc ba cb 8c 41 bc
       -0.00826006 -0.008834069 -0.0016802367 -0.011813353
0003d0 21 ef 9a bb 45 4a e3 38 51 b7 2f bc 0e c3 13 ba
       -0.0047282134 0.00010838037 -0.010724858 -0.00056366704
0003e0 27 6e a4 bb f4 70 17 3c 73 42 8e bb af af 80 bc
       -0.005018014 0.009243239 -0.0043414175 -0.015708772
0003f0 14 be 1f 3d d9 f3 5c 3b a4 12 c1 3c 0d be 7b 3c
       0.038999632 0.003371468 0.023568459 0.015365136
