clean2noisy_mlp_10.pth (torch, 419482 bytes, 2 tensors)

net.0.weight f4 [128, 784]
000000 96 d7 84 34 1a 3d b8 bc 8e 57 d1 3b 79 61 db 39
       2.4743775e-07 -0.022490073 0.006388611 0.00041843558
000010 89 e9 25 bd 61 9f 9e bd 93 fa 8f bd 11 24 3e bd
       -0.04050592 -0.07745243 -0.07030215 -0.046421114
000020 6e ea b5 bd f6 9b 42 bd 6f 8e 30 bd 94 8b 24 bd
       -0.088826045 -0.047512017 -0.043104585 -0.040172175
000030 99 0f 63 bd 43 bc 91 bd 31 00 09 bd e6 22 a8 bc
       -0.055434797 -0.07115986 -0.03344745 -0.020524453
000040 4c ad 5a bd 09 1f af bc f7 66 ed 3c ac 12 06 bc
       -0.053387925 -0.021377103 0.028979762 -0.008183163
000050 be bb 17 bc 89 01 1a 3b 66 79 1f 3c 08 e8 17 3d
       -0.00926107 0.002349945 0.0097335335 0.037086517
000060 64 ff 5e 3d 9a 7c f2 ba 1c 2f 23 3d 0f 17 10 bb
       0.05444278 -0.0018500269 0.03983985 -0.00219864
000070 21 d9 09 bd b6 9c 49 bc bc f0 94 bc 77 cb 0e bd
       -0.033654336 -0.012305429 -0.018181197 -0.034862008
000080 fc 7a 80 bd a0 1d ca bc 3c 84 3f bd 2a de 5e bd
       -0.062734574 -0.02467233 -0.046756968 -0.05441109
000090 f3 b2 22 bd 65 3b 8e bd 51 84 54 bd 44 03 0c bd
       -0.03972144 -0.06944922 -0.051884 -0.0341828
0000a0 13 7d a3 bd 9c 59 f3 bc 44 24 7f bd c7 89 47 bd
       -0.079828404 -0.029705815 -0.062290445 -0.04871538
0000b0 ee 90 33 bc 9a c3 27 bd cd 82 5b bc e8 1c 9d bc
       -0.010959847 -0.040958025 -0.013397885 -0.019178823
0000c0 27 81 b2 3b a8 53 63 3b 4a 26 dc 3c 7d 49 20 3c
       0.005447525 0.0034687314 0.026873726 0.009783146
0000d0 66 20 9d 3b c1 31 48 3d 7d 42 d0 bb 52 20 7c 3c
       0.004795122 0.048875574 -0.0063555823 0.015388565
0000e0 c0 9e d8 3b 5d dd f4 3b 7f 9b 00 3c 94 1c 3a bd
       0.0066107213 0.0074726776 0.007849573 -0.04543741
0000f0 9f b0 63 bd 7e a9 54 bd c7 ad 49 bd 05 96 7b bd
       -0.05558836 -0.051919453 -0.049237993 -0.061422367
000100 5d bc 42 bd 0f ec 41 bc e9 fb 91 bc 1d e2 dc bc
       -0.04754292 -0.011836066 -0.017820315 -0.026963288
000110 bc a1 4b bc ad e7 1e bd 72 b0 24 bc ca 6a f0 bc
       -0.012428697 -0.038795162 -0.0100518335 -0.029347796
000120 64 c4 31 bc c9 77 1e bd ce ca 95 3c f6 8d 15 bd
       -0.010850046 -0.038688455 0.018285181 -0.036512338
000130 41 6f 66 3b 90 93 06 bb ae f9 7e bb a5 2e f6 3b
       0.0035161527 -0.0020534731 -0.0038906145 0.0075128847
000140 98 0a d4 3c 83 e7 31 39 dc 5c 82 bc 7e e0 55 3b
       0.025883958 0.0001696628 -0.01591342 0.0032635028
000150 af 80 2a 3d 6c 2b 03 bb b5 c0 05 bd 91 67 d2 bb
       0.04162663 -0.0020014895 -0.032654483 -0.0064210375
000160 73 63 bb bc be 24 28 bd f6 7d 35 bc cb 34 6c bc
       -0.02287457 -0.041050665 -0.011077395 -0.014416884
000170 70 98 3c bd 65 99 13 bd f9 58 63 bc 71 10 7f bd
       -0.046043813 -0.03603496 -0.013876193 -0.06227154
000180 61 c4 c0 3b be e9 0d bd c4 2c ef bc ae a6 60 bd
       0.005882785 -0.034646742 -0.02919615 -0.054846458
000190 c8 0f db bb f5 b0 43 bd 8c a8 b3 bc 17 34 aa 3c
       -0.006685231 -0.04777618 -0.021930955 0.020776791
0001a0 c1 a6 2f bc 56 4f 40 3c a7 dd 67 3c cd f8 8c 3a
       -0.01072091 0.011737665 0.014151967 0.0010755301
0001b0 fa a4 a6 bc eb e5 72 3c 4c 3f 96 bb e9 7f 05 bd
       -0.020342339 0.0148253245 -0.0045851823 -0.032592688
0001c0 49 34 4b 3b 94 a0 df bb 31 b8 4e 3c a9 35 1e bc
       0.0031006506 -0.0068245623 0.012617157 -0.009656348
0001d0 fc 16 f4 bc 31 66 25 3c 18 96 14 bc 89 68 b7 bc
       -0.029796116 0.010095165 -0.009068988 -0.022388713
0001e0 30 6d e3 bc bb 50 a6 bc 88 8b 3d bd 27 ba 96 bc
       -0.027762026 -0.020302167 -0.046275645 -0.018399311
0001f0 78 99 42 bd 7b 91 9f bc 59 5f e6 ba 0b cb 59 bc
       -0.04750964 -0.01947855 -0.0017576023 -0.013293038
000200 1e 91 89 ba 7e ed 87 3c ac 08 32 bb 3e 91 3c 3c
       -0.0010495519 0.016592737 -0.0027165813 0.011509238
000210 da e4 ad 3c 2d d5 d2 3c 0b 19 6e bc 4d 39 e1 3c
       0.021227289 0.025736416 -0.014532338 0.027493143
000220 06 71 b1 3c de 72 01 bd e4 91 9f bc f2 b4 02 bb
       0.02166034 -0.031603687 -0.019478746 -0.0019944278
000230 bd 93 22 3c 65 66 f6 3b 5d be a2 bb 93 b8 91 3c
       0.009922919 0.0075195306 -0.0049665407 0.017788207
000240 72 4d 00 bd 08 6d 18 bc 48 98 6f 3b 22 e6 0d bd
       -0.031323858 -0.009303339 0.0036559273 -0.0346433
000250 86 72 0a bd 50 81 55 bc d7 a4 06 bd 84 c6 37 bc
       -0.033800624 -0.013031319 -0.032872047 -0.011216763
000260 a3 81 27 bc d6 07 d7 bc 57 a0 68 3c b2 18 5a bc
       -0.010223779 -0.026248854 0.014198384 -0.013311552
000270 ce 6d a6 3a 02 b8 83 3c e3 88 46 3c 2a da 1b 3c
       0.0012697519 0.016078953 0.012117597 0.009512464
000280 84 68 03 bc 41 e6 2a 3c 51 b3 9c 3c 66 00 8e 3c
       -0.008020524 0.010430873 0.019128473 0.017334174
000290 22 f2 0e 3c 99 db 23 3b 26 47 6e bc fb de 45 bc
       0.008724721 0.0025002717 -0.01454333 -0.0120770885
0002a0 d6 b5 cc 3c 11 6b d9 3c 15 e7 60 3b 5a a6 bf 3c
       0.02498905 0.026540311 0.0034317423 0.023394752
0002b0 e5 81 25 bc 4b b5 61 bc e2 70 d6 bc 9e b6 0b bb
       -0.01010177 -0.013776134 -0.026176874 -0.0021318565
0002c0 fe 5f 0b bd bb 94 28 bd 6f 6e c4 3b e7 ca 04 bd
       -0.034027092 -0.041157465 0.00599461 -0.032420065
0002d0 23 20 b8 bc ea 96 51 3b b4 7c e3 3c cc b2 8a bb
       -0.022476261 0.003198082 0.027769424 -0.00423274
0002e0 66 f1 d5 3a 3c db a6 3c e3 a9 e1 3b 21 b8 31 3d
       0.0016322553 0.020368211 0.006886707 0.04338849
0002f0 03 22 28 3d a2 f0 21 3d 8e ed 0c 3d af 6e 54 3d
       0.04104806 0.039536126 0.034406237 0.05186337
000300 04 46 6a 3c e8 c0 b9 3c 53 23 c5 bc e4 c6 23 bc
       0.01429892 0.022674993 -0.024064695 -0.00999615
000310 1c e9 52 3c 6e bf c9 3c 08 ec 9b 3c 78 b4 87 bc
       0.01287296 0.024627414 0.019033447 -0.016565546
000320 4b 33 39 3c 72 d4 ab bc cd 43 39 3c 90 40 8c bc
       0.011303733 -0.020975325 0.011307669 -0.01712063
000330 a4 91 64 bb e8 44 2f 3b 22 e9 54 bb 56 a1 a0 3c
       -0.0034876848 0.0026743952 -0.003248759 0.019608181
000340 ce 98 b8 3b ed 9b 0d bc 90 d2 84 3c d0 96 df 3c
       0.00563345 -0.008643133 0.016213685 0.027293593
000350 ce 7b a4 3c 68 bd 1a 3d 99 a4 dc 3c 04 b8 a1 3c
       0.020078566 0.037778288 0.026933955 0.019741066
000360 36 af 9d 3b 6c 91 43 3c af 60 84 3c 18 4f 80 bb
       0.0048121465 0.011936527 0.016159384 -0.0039156787
000370 be b9 1d bc 36 af 4a bb b6 c5 b0 bc 5d 61 e8 3a
       -0.009626804 -0.0030927188 -0.02157865 0.0017729212
000380 bf 8f 5e bc 81 4b 13 bc c4 7c 7a bc 55 2b 91 3c
       -0.013584076 -0.0089901695 -0.0152885355 0.017720858
000390 85 0e e0 bb e9 05 ee 3c 67 a4 46 3b 6f da 12 3d
       -0.0068376684 0.029055553 0.0030310394 0.035852846
0003a0 8a 91 a1 bb 21 d7 c4 ba 4d c5 0f 3d 7f 17 3a bc
       -0.0049306797 -0.0015017727 0.03510027 -0.011358141
0003b0 71 ef aa 3c d2 65 1a 3d 10 48 7a 3c 6c c0 5e 3c
       0.020866128 0.03769476 0.01527597 0.013595682
0003c0 13 70 eb 3c e4 f2 07 3c ec 72 20 3d 77 40 14 3d
       0.028739965 0.008297656 0.039172098 0.03619429
0003d0 03 c8 8e 3c 9a 05 b2 3c 5e 9f 30 bc d4 49 2c 3c
       0.017429357 0.021731187 -0.010780184 0.010515649
0003e0 26 0b d3 3c a3 80 65 3c 98 ae c1 bb 45 c9 45 bd
       0.025762152 0.01400772 -0.005910706 -0.04828765
0003f0 86 47 39 3d ae c5 30 b9 9b 59 dc 3c 35 75 1a 3d
       0.045234226 -0.0001685831 0.026898196 0.037709434

net.2.weight f4 [32, 128]
000000 0a 07 3a bc db bf eb 3c b4 64 45 bd c7 09 d2 3c
       -0.011354217 0.028778007 -0.04819174 0.025639428
000010 70 f9 0f be 40 67 77 3d 07 8e c9 bd f0 de 94 3d
       -0.14059997 0.0604012 -0.09841543 0.072690845
000020 0b f4 a4 bd ec 71 89 ba 36 75 ae 3d 37 71 e2 3d
       -0.0805436 -0.0010486222 0.0851845 0.1105675
000030 6b 04 20 3b 43 fa 36 3d cd 09 40 be ef ae 98 bc
       0.0024416696 0.044672262 -0.18753739 -0.018638102
000040 3a e3 c6 bb e6 61 38 bd c3 15 7b 3d a2 e7 76 bc
       -0.006069568 -0.04501524 0.06130005 -0.015069874
000050 2f 15 96 3d 34 b5 16 3d 4a 85 ed 3d d1 ab c1 3d
       0.07328259 0.036793903 0.115976885 0.094565995
000060 e8 46 f2 3c 53 9d d4 3d 4e 71 9a bd dc cd 5c bc
       0.029574826 0.1038157 -0.075411424 -0.013476815
000070 0b af 15 3d 23 d3 0e 3e b4 f2 04 be cc 96 99 3d
       0.036543887 0.1394773 -0.12983209 0.07499465
000080 09 67 ec 3c bf 6f 2c 3d 30 97 89 bc 59 4a 6b bd
       0.028857725 0.042098757 -0.016795725 -0.05744395
000090 f1 ff 86 3d 7f d5 63 3b d2 06 a7 3c 73 3a f5 3d
       0.06591786 0.0034764705 0.020388994 0.11974039
0000a0 ab 6b a6 3c 91 f0 6d 3d 0d f0 73 bd 55 33 0d 3e
       0.020315012 0.05809075 -0.059555102 0.13789113
0000b0 f1 68 15 be 70 11 01 bc 0a ed c8 bd 7c 54 cf 3c
       -0.14590813 -0.007877693 -0.098108366 0.02530884
0000c0 c9 69 f0 bb 1c f7 95 bd 40 ad 20 bd 1b 7d 56 bd
       -0.0073368293 -0.07322523 -0.039227724 -0.052365404
0000d0 bd d8 4e 3d a0 73 78 bb 2d 80 3b 3c d2 dc cb bd
       0.050499666 -0.0037910715 0.011444134 -0.099542275
0000e0 83 89 f6 3d f3 11 cd bd 77 ce f4 3c 89 d9 5a bd
       0.12037947 -0.10013189 0.029883606 -0.053430114
0000f0 92 81 bb bd bb cd f8 3d ec 3c c0 bc 77 66 4f bb
       -0.09155573 0.12148615 -0.02346655 -0.0031646767
000100 cd de 5e bc 20 52 57 3d 7a f7 8a bd 82 99 9c 3d
       -0.0136029245 0.052568555 -0.06785484 0.07646467
000110 12 e9 23 be cc 24 aa 3c d6 58 15 bd 54 90 93 bd
       -0.16006878 0.0207695 -0.036461674 -0.07205263
000120 60 9d 8e 3d 22 0c 1f 3d 64 aa d6 3d 54 d9 bb bd
       0.06963611 0.03882993 0.10481718 -0.091723114
000130 15 b3 04 3e e0 69 16 3e d4 64 5a bd 60 33 b0 bc
       0.1295894 0.14688826 -0.053318813 -0.021508873
000140 09 16 ed 3d 67 b1 0b 3e c7 9f ce bd fb 86 2d 3e
       0.115764685 0.13641892 -0.10089069 0.16946022
000150 e0 90 1c bd 43 37 53 bd 7c 5b 01 be dc 14 a8 3d
       -0.0382241 -0.051566374 -0.12632555 0.082071036
000160 93 c9 16 3e 9a f5 e6 3d b5 c3 69 bd 33 3e d0 3c
       0.14725332 0.112773135 -0.057071406 0.025420284
000170 bf 99 05 3d b5 dc 24 bd 9f 69 9e bc 33 3a 7e 3b
       0.032617327 -0.040249545 -0.019337473 0.0038792014
000180 06 46 1c 3c e5 15 27 3e 0b 54 50 3d bf 93 27 be
       0.009538179 0.16316946 0.0508614 -0.16364954
000190 39 f7 98 bd 8f c2 54 3d 60 7d cc 3d de 43 57 bd
       -0.07469029 0.051943358 0.09984851 -0.052554958
0001a0 fe 92 58 bd a3 a5 08 3b ff e4 f9 bc 55 aa ed 3d
       -0.052874558 0.002085068 -0.030504702 0.11604754
0001b0 a1 d1 96 bd 06 c2 29 3e fa 43 2f 3d ac 49 80 3c
       -0.07364202 0.1657792 0.042789437 0.01566013
0001c0 a0 e3 b7 bd 91 58 03 bd 17 6f 83 3d f6 8d 04 3e
       -0.08978963 -0.032066885 0.06417673 0.12944779
0001d0 d7 3a 0f 3d 7e c7 8f 3c a0 00 d0 3d 07 fb 35 bd
       0.034968223 0.01755118 0.10156369 -0.04442885
0001e0 23 04 a0 3d b6 5c f9 3d 53 d7 da 3d 7f af 5c 3d
       0.07813289 0.12175886 0.10685601 0.053878304
0001f0 c6 5e f5 3c d6 63 18 bd 81 ae 6e bc b1 59 4a bd
       0.029952418 -0.037204586 -0.014567972 -0.049401943
000200 cd 55 96 bc 52 90 67 bd b0 90 60 bd 13 24 88 3d
       -0.01835146 -0.05653412 -0.054825485 0.066475056
000210 bf 0b 47 bd 01 e6 43 39 23 17 85 bd 88 e2 5a 3c
       -0.048595186 0.00018682332 -0.064985536 0.013359673
000220 8d 12 ae bd 89 35 20 3d d0 cd 3f 3e 9c ed f0 3c
       -0.08499632 0.039113555 0.18730855 0.029410176
000230 68 d5 7d 3a a1 87 46 3d 38 05 0a 3e e7 0a 5b 3d
       0.0009682984 0.04846919 0.13478553 0.053477194
000240 8c 81 3d bc 3f ee 81 bd ce 93 80 3d 54 00 dd bd
       -0.011566531 -0.0634427 0.062781915 -0.10791078
000250 9f d7 b3 bd 9c 8b 83 bc fd 5c 85 3d 94 fa 13 3e
       -0.08781361 -0.016057782 0.06511877 0.14451057
000260 82 f8 2d 3d 47 0a 0f 3e 2a da 31 3d fa 48 71 bd
       0.042473324 0.13968764 0.043420948 -0.058907486
000270 ea 4a 22 3c 8f 8e 9d 3c 73 95 a5 bb 4d b3 fd bc
       0.009905556 0.019233016 -0.005053216 -0.030969286
000280 04 e8 7f 3e a1 3a cf bc 14 42 09 3d 3f 6b e1 3d
       0.2499085 -0.025296511 0.033510283 0.11006784
000290 2d c1 39 3d bd 65 86 bc 67 de 1d 3e c1 28 f6 3d
       0.045350242 -0.016405934 0.15416871 0.12019492
0002a0 d6 c8 42 bd fc 1c 0a bd 61 db e4 3c ae c5 88 3c
       -0.047554813 -0.033719048 0.02793664 0.016695824
0002b0 c8 a7 33 3d 7b 48 56 3d 6c ea 48 be 59 d1 d8 3c
       0.04386118 0.052315217 -0.19620675 0.026467012
0002c0 83 ce 0a 3e 32 fc 3c 3d 68 8a 27 be b0 f9 98 bc
       0.1355534 0.04613895 -0.16361392 -0.018673748
0002d0 b9 4f d3 bc 87 d7 86 3d 6c 75 a1 bc d2 06 0d be
       -0.02579485 0.06584077 -0.019709311 -0.13772133
0002e0 79 4a 01 3e 56 5e 09 3c f0 3b 08 3d d1 90 54 3d
       0.12626065 0.008384308 0.033260286 0.05189592
0002f0 ce df cb 3d b2 7d a5 bd 53 94 e8 3c a2 6a af 3d
       0.09954797 -0.08080615 0.028391039 0.085652605
000300 60 09 91 bd 25 0d 80 3d ba f8 28 3d a5 89 ed 3c
       -0.07081866 0.06252507 0.04125283 0.028996298
000310 32 13 2e be b0 0a 92 bd 30 11 07 3e 5b 2d 99 3c
       -0.1699951 -0.07130945 0.1319015 0.018698385
000320 5e 6d 31 3d a4 d3 05 bd 15 9c 04 3e fb 5b 5b bc
       0.04331719 -0.03267254 0.12950166 -0.013388629
000330 cc 2c 00 be c4 11 2e 3d 18 6e 0f bc 73 0d 67 3d
       -0.12517089 0.04249741 -0.008754276 0.05640931
000340 f5 9e 66 3d 4e 27 61 3c 45 7b 1e bc 51 39 c3 3d
       0.056303937 0.013742281 -0.009672944 0.095324166
000350 69 d0 58 3c b0 0f 7a bd 36 1c 5a 3c 2b d0 4a 3d
       0.013233283 -0.061050117 0.01331239 0.04951493
000360 a9 e3 3a 3d 0a c4 59 bd 31 6c 1e bc dd 64 9b 3d
       0.04562727 -0.053165473 -0.0096693495 0.075875975
000370 14 96 5a 3d 70 e3 27 3e 0f 85 06 bc 07 bb 94 3d
       0.053365782 0.16395354 -0.008210435 0.07262235
000380 39 df 4a 3e 31 99 68 3d a6 ac 62 bd 37 24 14 3d
       0.19811715 0.05678672 -0.05534043 0.03616735
000390 c9 cd ca 3d aa b1 22 bc 39 b5 3e bd d0 7f 6d 3d
       0.09902532 -0.009930054 -0.046559546 0.05798322
0003a0 86 34 7e bc a1 dd 4b 3d 11 0e 1a 3c 49 51 25 3d
       -0.015515452 0.04977191 0.009402768 0.040360723
0003b0 bd 5c 89 3b d3 5d 28 3d ae 64 3c 3e c8 5c b6 bd
       0.0041919635 0.041105103 0.18397781 -0.08904415
0003c0 fa 7c 87 bd 18 6d b5 bd a1 3e 89 bd 96 48 c1 3d
       -0.06615634 -0.088586986 -0.06701399 0.09437673
0003d0 c6 ae 2a 3d 0a a6 45 bd d0 57 b5 3d 9f 96 5a bd
       0.041670583 -0.04825405 0.088546395 -0.0533663
0003e0 96 c7 70 3d a3 3c e7 bc a4 ba b0 bd f5 e8 92 3d
       0.05878409 -0.028227156 -0.08629349 0.07173339
0003f0 ee 84 3b bc ed 9e 1a bb c1 23 f4 bc 22 66 85 3d
       -0.011445267 -0.0023593262 -0.029802205 0.06513621
