clean2noisy_10.pth (torch, 101695 bytes, 1 tensors)

linear.weight f4 [32, 784]
00000000: 9242 16bd f194 45bc 5a0e 3ebb c91e 263c
00000010: 132b da3b 9dcb 6d3c d447 943c 084f 493c
00000020: e0a9 773c 0c35 303c 255e 283c a93d deba
00000030: b1e7 e6ba c7c3 ebbb 973c 0fbc 2a98 d9bb
00000040: 1b33 8ebc ef21 48bb f081 7cbc 42ec 2ebc
00000050: 5c3a 00bc 93e7 4cbc 2e42 17bc 71f3 eb39
00000060: 08ed 903b 0756 873c b7a0 3e3c 2af1 0e3d
00000070: bd45 30bc c979 56bc 5f20 833a 40f3 08bb
00000080: 9bbb 553c 4ca2 c03b fb3b 2b3c e0c4 8f3c
00000090: 463a c03b d066 e23b e288 bb3a ed7f 343b
000000a0: 8d51 c2bb 8b5c 923a a50f 0abc cd76 e7bb
000000b0: a3bc 96bb fec8 0ebc 8554 18bc 2be7 05bc
000000c0: d39d 29bc edf7 fbba c91f 6cbb 82f8 bcbb
000000d0: cf56 9b3b 2fc0 383c 141c 853c 3f1c 8b3c
000000e0: 2ade c0bc 38b3 08bc 1af2 17b9 f045 103c
000000f0: 4aab 523b b1c2 563c f524 ba3b 753e fb3b
00000100: 909f ca3b a585 873b b9fb 803b c6eb 17ba
00000110: 9816 02bc e404 91b9 59fe 04bc 359b 46bc
00000120: 19d4 56bb 2947 72bc b811 1abc b184 17bc
00000130: 3576 b8bb a4ff 5abc 8018 ebbb fb58 42ba
00000140: 477b 923b 35f1 d03b be81 2c3c 200b 9e3c
00000150: 4dca 33bc 901b f2bb 8254 fa3a b74f 3b3b
00000160: a83a 033c ebb2 103c 191e 4e3c 4a43 973b
00000170: d500 253c 032b 853b 7d82 28bc 18a9 e63b
00000180: d671 eabb 983a ccbb ef18 ecbb 69b3 9fbb
00000190: 00cf 5cbc 2e82 febb 8ca0 23bc b930 7fbc
000001a0: 3387 1cbc cd78 3bbc f342 dabb afb8 2abc
000001b0: 948a 3f3a 4a2b a93b 5a25 773c 314f f23c
000001c0: b72e 99bc cf2f f9bb 32fb f03b b304 75b9
000001d0: 818e 173c fec7 1a3c 08b7 1a3c 9d48 383c
000001e0: dbcb 873b 0780 a13a dc28 ef3b 30cd 30bb
000001f0: edc9 19bb 2e51 5e3a 9193 4abc cd0a 05bc
00000200: 2dfb 04bc 0bbb 21bc db37 6cbc dab5 04bc
00000210: a2cf 56bc e075 3abc 8e8d 69bc 5b25 19bc
00000220: 898c ebbb 7b80 e93a cd74 ca3b e28d 5e3c
00000230: b48c f2bb 9dbb 10bb 531f babb 97d4 093c
00000240: f08f 813c 77ed 8c3c 0f18 183c ac44 503c
00000250: 201d 4d3c 6721 7b3b ba99 ee3b a4f6 033b
00000260: 105d 87bb 89b7 02bc d592 04bb b5d6 a6bb
00000270: 04de 45bc e4b8 13bc 95c8 14bc be86 17bc
00000280: 8d04 4bbc a7e3 b4bb fbe4 37bc 06d2 19bc
00000290: 00c5 c0bb 875b 5fb8 76c8 a2ba 17ee 8d3c
000002a0: 7101 5dbb ff36 0ebc 5c63 4f3c 07e8 693c
000002b0: 050b 323c 09cd 573c f48c a33c d602 2b3c
000002c0: 1c44 e93b 6d41 593c 21e7 64bb 8dcb 923b
000002d0: 35b3 4338 bb89 1d3a 8881 d1bb b8cb 2bbc
000002e0: 6575 22bc f21d 5fbc 0529 15bc 5ab1 53bc
000002f0: 00a3 1bbc 81a8 54bc 390b 0ebc fda8 45bc
00000300: 50dc 0fbc d64b c1b9 8b19 fb3b 50c6 ea3b
00000310: de30 0cbc 9ff8 943b c947 383b 963b 293c
00000320: 1c04 823c d665 973c 21c4 4a3c e795 573c
00000330: b60f 6b3c c822 1d3b afe5 413c bce4 9fbb
00000340: 0eb8 fd3a e65e cbbb a376 51bb fe8d 34bc
00000350: 0b2a 0cbc c45e 52bc e4fb 4fbc 6cf6 cebb
00000360: bc1e 57bc 67dd 14bc 72ba ecbb 67ed 24bc
00000370: 52d6 55bb 5423 fdbb f654 5fbb 2ba1 163c
00000380: d138 af3b 8428 d73b 770b d73b af55 9f3c
00000390: 312e 843c b4c3 5a3c e9bd 7b3c 6299 653c
000003a0: dfb7 e63b 0dbe 083c f494 913b b746 fe3b
000003b0: 4df5 6bb9 08d2 b3b9 16fb 31bc ed78 04bc
000003c0: 092d 20bc 46c9 3dbc 68f8 f0bb 424b 5cbc
000003d0: 2f6f 1fbc 5846 d5bb 12a2 3abc 40be f4bb
000003e0: b697 2dbc cfb2 193b 8650 383b 3d31 523b
000003f0: 4dda 683b 16fa 823b 3066 5e3c 5672 583c
-0.03668458 -0.012059436 -0.0029000253 0.010139176 0.006657967 0.014513877 0.018100657 0.012286909
0.015116185 0.010754835 0.010276352 -0.0016955632 -0.0017616657 -0.0071949693 -0.008742473 -0.006640454
-0.017358353 -0.0030537804 -0.015411839 -0.010676445 -0.007826414 -0.0125063835 -0.009232087 0.0004500407
0.0044227876 0.016520513 0.011634997 0.03489796 -0.010758814 -0.013090559 0.0010004154 -0.0020896941
0.013045217 0.0058787223 0.010451312 0.017549932 0.0058663217 0.006909229 0.0014307762 0.002754207
-0.0059301318 0.0011166496 -0.0084265815 -0.0070637227 -0.004600124 -0.008714912 -0.009297495 -0.0081727905
-0.01035257 -0.0019223668 -0.0036029688 -0.005766929 0.004740573 0.011276289 0.01624874 0.016981242
-0.023543436 -0.00834351 -0.00014490672 0.008805737 0.0032145553 0.0131079415 0.005680675 0.0076673576
0.006183572 0.0041358047 0.0039362577 -0.0005795326 -0.007939957 -0.000276602 -0.008117282 -0.012121965
-0.0032780229 -0.014787474 -0.009403639 -0.009247945 -0.0056293258 -0.013366614 -0.0071745515 -0.0007413772
0.004470262 0.0063764104 0.01052898 0.019292414 -0.010973525 -0.0073885396 0.0019098672 0.002858145
0.00800959 0.00883172 0.012580418 0.004616176 0.010070999 0.0040639653 -0.010285017 0.0070392005
-0.0071546836 -0.006232571 -0.0072051208 -0.0048736823 -0.013477087 -0.0077669835 -0.009987008 -0.015575581
-0.009553718 -0.011442375 -0.006660813 -0.010420009 0.00073067215 0.005162631 0.015084589 0.029578777
-0.018699033 -0.007604576 0.0073541636 -0.00023366771 0.009250284 0.009447096 0.009443052 0.011247781
0.0041441745 0.001232148 0.007298572 -0.002697777 -0.0023466304 0.00084807246 -0.012364284 -0.008120251
-0.008116526 -0.009871255 -0.014417614 -0.008099997 -0.013111027 -0.011380643 -0.014254941 -0.009347285
-0.007188384 0.001781478 0.0061784745 0.013583632 -0.007402027 -0.0022084482 -0.0056800037 0.008412502
0.015815705 0.017203076 0.00928308 0.012711685 0.012519151 0.003831947 0.007281509 0.0020136023
-0.004130967 -0.0079783285 -0.002022912 -0.005091513 -0.012076858 -0.009016249 -0.009081026 -0.009248434
-0.012391222 -0.0055203023 -0.011224027 -0.009388452 -0.005882859 -5.3252585e-05 -0.0012419361 0.017325444
-0.0033722783 -0.008680104 0.012657966 0.014276511 0.010866885 0.013171443 0.019964673 0.010437688
0.007118715 0.013260228 -0.0034927803 0.0044798316 4.6658522e-05 0.0006009598 -0.006393615 -0.010485582
-0.009915684 -0.013617979 -0.009104018 -0.012920702 -0.009499311 -0.012979628 -0.008669668 -0.012064216
-0.008780554 -0.0003686833 0.007662957 0.007164754 -0.008556573 0.0045462395 0.002811896 0.010329148
0.0158711 0.018481176 0.012375862 0.013158298 0.0143470075 0.002397703 0.011834546 -0.004879562
0.0019357221 -0.006206381 -0.0031961582 -0.011020182 -0.008554946 -0.012839977 -0.012694333 -0.006315997
-0.013129886 -0.00908599 -0.0072243745 -0.010066367 -0.0032628966 -0.0077251587 -0.003407774 0.009193699
0.005347349 0.006566109 0.006562646 0.019450037 0.016135307 0.013352323 0.015365102 0.01401362
0.007040962 0.008346093 0.0044428054 0.0077598947 -0.00022502728 -0.00034298026 -0.010863086 -0.008085472
-0.009776362 -0.011583632 -0.007353831 -0.013445677 -0.009731098 -0.00650863 -0.01139118 -0.0074689686
-0.010595253 0.0023452525 0.0028124168 0.0032072805 0.0035530508 0.0039970977 0.013574168 0.013210854
