clean_40.pth (torch, 101665 bytes, 1 tensors)

linear.weight f4 [32, 784]
00000000: f5cf c3bc 4d48 d0bb 8291 193c 7777 e83c
00000010: 7b44 113b b26f 7ebb 8b6d b43b e131 a7bc
00000020: f69c 3fbb ae18 fbbb ba8f 3bbc 2bf4 dbbc
00000030: 8a54 78bc 8104 c2bc 893b cebc 8c34 1dbc
00000040: f679 27bd 30ea 81bc 519b 1dbd 82cb 5bbc
00000050: 88f9 acbc fa92 0fbd 5559 17bd f6a7 0cbc
00000060: 842b b8bc 8db0 a1bb d52e 29bd 15be 3e3b
00000070: b552 f23c ab39 8cbb ddb7 b03c b967 323c
00000080: 0ca7 0b3d 3829 e5bb 3224 393c b680 d13c
00000090: 47f1 8fbb 2e0c f43b 65b9 d1bb b25b 073c
000000a0: eabe 66bc b190 463c f033 94bc 66e5 b3bb
000000b0: 407e 5f3b d64c 8abc 34c1 55ba 1e52 fbbb
000000c0: 4fa5 93bc 9d54 913c 423a 87bb e2da b5bc
000000d0: c004 babb b5ce d53a 51b1 1c39 7b12 d9bc
000000e0: 2d81 5fbc f207 f9bb fe43 ca3b 2557 8f3c
000000f0: 9d59 79bc 21d6 203d 8a85 1f3b 424d cbba
00000100: 6e60 d1bb 23d3 98ba aa37 203c d4a4 233b
00000110: 39c7 bcbc 4ff2 243c 0bcc 55bc 82f7 87bc
00000120: 6ce7 213c e3b4 b9bc 0a8b 03bb 3fb6 94bb
00000130: 6edf cbbb 3ec1 00bd 9a7a 1fbb 6d9f 153b
00000140: 040f a6bc ee23 8abc 56f9 67bc c21e debc
00000150: 8a5f d33c f9a8 1fbc df8b 643c 1c0c 3b3c
00000160: ade3 13bb 0381 1f3c 7f45 af3c b2ce 78bc
00000170: edab b63c a197 f93b 3c9d 06bd 42a6 a13c
00000180: 6901 98bc 83bb 18bc 0b04 e5bb 31ae 02bc
00000190: 3684 8fbc 3a5d 13ba 61c2 25bc 5d24 a2bc
000001a0: 0734 083b f252 4ebc 740c a13b d4d5 86bc
000001b0: 28c3 f03a c5d7 95bb d279 a43b fc3e 9938
000001c0: 5a76 213c 43e6 afba b5a3 2b3d 6656 253c
000001d0: 8508 c73c 3c1e 8a3c a1a4 c83b a2d0 a93c
000001e0: 1690 773b ca0f 44bb d592 6b3c 435a 82bc
000001f0: 5cb8 09bc 17e3 0d3c c447 a6bc 0a36 a7bb
00000200: ccc9 f4bb 2c7e 7cbb e5a7 a2bc d8d5 2e3c
00000210: 15b3 4fbc 1573 79bc b046 80bc b91d f9ba
00000220: cb1d b4bc a398 a83b b733 02bc d064 d2bc
00000230: 1376 583d f871 a03c 7c0b 35bc d3ce 1f3c
00000240: 6ff6 0b3d bbb7 6d3c 5356 e53a 64f0 5b3c
00000250: 71bb 1a3c 21bc 2dbb 47d4 d23b 5066 0c3b
00000260: 546c 11bc 1481 8dbc d4a2 8bba 2048 83bb
00000270: 23cb 91bc 5815 a4b8 030b 31bc 7484 1bbc
00000280: b0c5 3ebc b79e fe3a 7f83 96bb b4b6 15bb
00000290: 8b7e c3bb 0902 c83a 6ed1 c4bc 82e9 cb3a
000002a0: 3a0d 553d 6253 59bb 51b1 3f3d 859e f43c
000002b0: 0cb2 683b edb6 df3b f481 0a3d 824d 293c
000002c0: db77 f2ba 1075 bb3c 5c9f 53bc f492 213c
000002d0: 1bc8 383a da95 833a 2cf3 11bc ff4a 64bc
000002e0: 81cb 30bb 39b0 fabb e632 64bb 1c62 13bc
000002f0: 9b8f 8bba 7743 90bc 21ef 13ba 5ec8 b7bb
00000300: 4fb3 78bc bfc7 a43b 8551 ac3a bf42 08bc
00000310: e638 653c fc6d 7e3c 10b4 f83b 5935 723c
00000320: cae7 823c 6090 9e3c 2c7a c4b9 dd7b 293c
00000330: 236a b03c fd3e 593a db37 ab3c b0d2 e1bb
00000340: ad48 44bb eaaf 4ebc 64f2 5b39 5241 3ebc
00000350: 33d4 223b 556b 83bc 058b 36bc 5f12 e239
00000360: d47a 12bc 60d5 d4bb 1dee 53bb 349c 4abc
00000370: 540c db3b 29a1 24bc 45fd 72bc 0ccc de3b
00000380: 2013 5c3d da82 883c d5da 173c 1165 f73c
00000390: c494 813c 3a7e 9b3c 1770 823c 1b07 9b3c
000003a0: a20a d23b a355 8d3b bfa7 2b39 7b08 713c
000003b0: 2079 74bb 51e1 0c3c 11a5 2fbc cb0c 19bc
000003c0: 257f 0bbc aa32 06bc 0df8 5b39 4f66 37bc
000003d0: c4ae 75bb 254f 08b9 e299 28bc 9ca2 96b8
000003e0: 8bed 0abb 18f6 4b3c 25f6 b9bb 4501 76bc
000003f0: 3264 203d d194 043c d49c df3c d45c 873c
-0.023902873 -0.006356275 0.009373071 0.028377278 0.0022166062 -0.00388239 0.0055062226 -0.020409526
-0.0029237843 -0.007662854 -0.011447841 -0.026849827 -0.015156874 -0.023683788 -0.025174873 -0.009595048
-0.040887795 -0.01585874 -0.0384782 -0.013415219 -0.02111508 -0.035052277 -0.036950428 -0.008584967
-0.022481687 -0.0049343766 -0.041304428 0.0029104997 0.029580453 -0.0042793355 0.021572048 0.010888987
0.034094855 -0.006993439 0.011300134 0.02557407 -0.004392776 0.007447741 -0.0064002746 0.008261608
-0.014083603 0.012119458 -0.018091172 -0.005489993 0.003410235 -0.016882341 -0.00081540947 -0.0076697012
-0.018023161 0.017740542 -0.004126818 -0.022199098 -0.005676836 0.0016312214 0.00014943375 -0.02649807
-0.013641638 -0.007599824 0.006172656 0.017497608 -0.015219119 0.03926671 0.002434107 -0.0015510696
-0.006389669 -0.0011659603 0.009778896 0.0024970071 -0.023044216 0.0100675365 -0.013049136 -0.016597513
0.009881835 -0.022669261 -0.0020071887 -0.004538327 -0.0062217033 -0.03143429 -0.002433455 0.002283062
-0.020270832 -0.016862836 -0.014158567 -0.027114276 0.025802393 -0.009744876 0.0139493635 0.011416461
-0.0022566125 0.009735349 0.021395443 -0.015185999 0.022298777 0.0076169525 -0.032864794 0.019732598
-0.01855536 -0.00932205 -0.0069890074 -0.007976101 -0.017519098 -0.0005621497 -0.010117144 -0.01979273
0.0020782964 -0.012593018 0.0049148146 -0.016459383 0.0018368708 -0.004572841 0.005019405 7.30734e-05
0.009854877 -0.0013420064 0.04190417 0.0100914 0.024296055 0.01686012 0.006123141 0.020729367
0.003777509 -0.0029916638 0.014378269 -0.01591218 -0.008405771 0.0086600995 -0.020297892 -0.0051028775
-0.007470345 -0.0038527353 -0.019855449 0.0106711015 -0.012676974 -0.015225192 -0.015658706 -0.001900605
-0.021986863 0.005145149 -0.0079469 -0.025682837 0.05284698 0.019585595 -0.011050101 0.009753901
0.034170564 0.014509137 0.001749704 0.013424013 0.009444104 -0.0026509839 0.006433997 0.0021423288
-0.008875925 -0.017273463 -0.0010653385 -0.0040064007 -0.017797058 -7.824105e-05 -0.010805848 -0.0094920285
-0.011643812 0.0019425963 -0.0045933123 -0.0022844495 -0.005966013 0.0015259396 -0.024025645 0.0015557262
0.052014567 -0.0033161272 0.04679996 0.029860744 0.0035506515 0.0068272264 0.03381534 0.010333421
-0.0018498854 0.022882968 -0.012916412 0.0098616965 0.0007048861 0.0010039166 -0.008908074 -0.013933896
-0.0026976767 -0.007650402 -0.0034820377 -0.008995559 -0.0010647656 -0.017610295 -0.0005643238 -0.0056086024
-0.015179469 0.0050286944 0.0013146853 -0.008316695 0.013990616 0.015529152 0.0075898245 0.014783227
0.015979666 0.019355953 -0.00037475058 0.010344473 0.021534985 0.0008287279 0.020900657 -0.006891571
-0.0029950545 -0.012615183 0.00020975765 -0.011612253 0.002484572 -0.01604239 -0.011141543 0.00043119767
-0.008940417 -0.006495163 -0.0032337971 -0.012366343 0.0066848192 -0.010048189 -0.014830892 0.0067992266
0.053729177 0.016663957 0.009268482 0.03019956 0.015818007 0.018981088 0.01592259 0.018924287
0.006409959 0.004313187 0.00016370321 0.014711495 -0.0037303641 0.0085986415 -0.010720507 -0.009341429
-0.0085142 -0.00819079 0.00020977874 -0.011193826 -0.0037488202 -0.00012999454 -0.010290595 -7.182846e-05
-0.0021198716 0.01244881 -0.0056750947 -0.015014951 0.039158054 0.008092121 0.027296461 0.016523756
