clean_mlp_30.pth (torch, 419446 bytes, 2 tensors)

net.0.weight f4 [128, 784]
00000000: c668 aa3c 61e5 0cbc c3f3 8a3c a016 363c
00000010: 98ca d9bc c46c 87bd a5ef 81bd 2fd6 26bd
00000020: 8fb4 c6bd 54e1 80bd 4708 76bd 7c3e 55bd
00000030: 86df 92bd 7444 c0bd 87c0 48bd a385 ebbc
00000040: cf55 86bd 746b 15bd 801e 893c 6b9c e9bc
00000050: 9ca7 0cbd a5fc 6abc c6c4 e1ba 2738 2b3d
00000060: 32c4 753d 94a5 e33b a48d 7c3d 8360 aa3c
00000070: 5708 31bd 24f9 d2bc 08dc 03bd 7043 56bd
00000080: ef57 8abd 7033 e1bc c85b 80bd 8bea 83bd
00000090: 944d 3ebd 584a b1bd 9c83 9abd 6e4d 57bd
000000a0: 58f6 c4bd a37a 01bd 2550 8dbd 3e77 66bd
000000b0: 8a5f 8cbc 23b7 35bd 9da8 bcbc cbd8 0abd
000000c0: 8aab b8bb 8ec2 16bc 4676 943c d6f4 8e3c
000000d0: 7793 9c3b 4b71 853d 17ac d63b 565a 0e3d
000000e0: 5d24 03bc f369 84bc 1c63 41bc c6b2 84bd
000000f0: eab1 a5bd 79ea 95bd 8d1d 9fbd 3fa7 b1bd
00000100: c81a 8cbd 465c f9bc 5a4d c5bc c709 0fbd
00000110: c3ab 20bc 819e 30bd 389d 6aba 4ff2 b4bc
00000120: 9b4c aab8 4cd7 1ebd 9dc8 cd3c 5680 07bd
00000130: e83c dc3a 95ef 70bb d349 b5bb 6175 133c
00000140: 7d86 2d3d 6c16 343c 117d 08bb 5211 0d3d
00000150: f38f 5e3c 23a9 27bd 9ade 78bd 4dce ecbc
00000160: b6bb 55bd 785c 8bbd ae56 f8bc c0b9 0dbd
00000170: f894 8cbd 3290 61bd 2987 8cbc 5370 71bd
00000180: c444 b03c b897 e5bc bb93 66bc ea40 3ebd
00000190: d978 773b 9154 33bd 0733 9dbc d9b0 e23c
000001a0: 7806 1cbc 2055 833c 0221 233c b88a 8f3b
000001b0: 727b 03bc f28f 153d 83c8 463c 936a 26bc
000001c0: 0e69 49bd 47ea 4cbd 452f 52bc f378 15bd
000001d0: 856f 57bd d53e 27bc 1df9 ccbc ec60 15bd
000001e0: 1a7b 16bd 3bc2 afbc 916c 1fbd aa61 27b9
000001f0: 03eb f8bc fc83 93bb 6467 663c 9815 0bba
00000200: ca2e d23b bdbe a83c bf10 563b 6ed6 a53c
00000210: ef32 be3c 77a9 e23c 061d 4dbc 9074 0b3d
00000220: 425e d73c 8347 b1bc 965a 5fbb 3739 b53c
00000230: cbf0 14bd 93a4 e8bc c8eb 17bd ec49 5cbb
00000240: 071a 5dbd c3cf b6bc f0d7 e0bb fa3a 22bd
00000250: da1f eabc 2ce7 b2ba 6bcb a7bc 84b8 b93b
00000260: a6b8 983b 5dd4 7abc e599 ea3c 0153 96bb
00000270: fb4c 293c 90dd cc3c 7a96 7d3c 0207 503c
00000280: b89f 3dbc 52fb e43b 4fa2 453c 442d 713c
00000290: 049a 333c 71e5 5c3c 9d86 8c3a 9031 1b3c
000002a0: 717e b3bc 2ed1 a5bb 6db7 d3bc fb2b 703b
000002b0: ecfe 9cbc 2c28 0bbd 3ce6 12bd 28d1 4c3b
000002c0: b8ad d7bc 87ba 07bd ba4a bb3c a585 7cbc
000002d0: 9f8f dcbb cc90 973c a79b 2b3d 0d5b 69ba
000002e0: 1597 5f3b c4ad ad3c 0ffd 803b 63e3 2f3d
000002f0: 3c9e 223d b1db 213d 6bd0 033d a375 4d3d
00000300: 1dd6 6a3c bea8 003d 9b12 02bc 6dd4 343c
00000310: 0e5a 9ebc c85f b1bb 9944 e839 c2a6 0ebd
00000320: b1bd 71b8 8371 ddbc 0daa 653c f95a 24bc
00000330: e5d3 383b 2271 6c3c ae01 323c 0834 063d
00000340: 200c 803c 8c5a 9fb9 1c00 d23c 8876 103d
00000350: b538 ce3c 62a7 1d3d 1835 ea3c 9374 6f3c
00000360: 47a3 143b cced 133c fec0 d23b 566d 3ebc
00000370: 3be6 57bc 4abe acbb 87ab 95bc 009a 923c
00000380: 1483 1cbd e6bd 11bd a0b5 0dbd 6428 333c
00000390: 7a3c a7bc 223e c43c b0ff 97ba bfc5 2e3d
000003a0: c6d5 babb 2a17 db3a 5fe3 343d 684e 38bc
000003b0: 6f30 b13c 188d 253d 1d89 a13c a13e 7e3c
000003c0: 23d0 ed3c 077f 0e3a ec6f 093d 6080 003d
000003d0: 4f5b 653c d3f4 9b3c b281 babc ef76 0cbb
000003e0: 762c 8e3c 8165 2d3c 6ba5 94ba 9c3c 15bd
000003f0: 9ae4 b83c 7d91 51bc d739 e23c ed23 143d
0.020801913 -0.00859961 0.016961938 0.011113793 -0.026585862 -0.06612542 -0.06344537 -0.040731605
-0.097024076 -0.06292978 -0.060066488 -0.052061543 -0.0717154 -0.093880564 -0.049011733 -0.028750246
-0.065593354 -0.03647943 0.016738176 -0.028516969 -0.034339532 -0.014342462 -0.0017224781 0.041801598
0.06000156 0.0069472287 0.061658517 0.020797973 -0.043220844 -0.025753565 -0.03219226 -0.052310407
-0.06755053 -0.027490348 -0.06267506 -0.0644122 -0.046460703 -0.08656758 -0.07544634 -0.052564077
-0.09617299 -0.031611096 -0.06900052 -0.056266062 -0.0171354 -0.044364106 -0.02302962 -0.033898156
-0.0056356834 -0.009201659 0.018122803 0.017450731 0.0047783214 0.065157495 0.0065512764 0.03475412
-0.008004275 -0.016163802 -0.011803415 -0.06479411 -0.08090575 -0.07320113 -0.07769308 -0.08674478
-0.068410456 -0.030439507 -0.024084736 -0.034921434 -0.009806576 -0.04311991 -0.0008949819 -0.022088198
-8.1205006e-05 -0.03877954 0.025120074 -0.033081375 0.001680282 -0.0036763896 -0.005532482 0.009000153
0.042364586 0.010991674 -0.0020826499 0.034440346 0.013584125 -0.040932786 -0.060759164 -0.028906966
-0.05218097 -0.068047464 -0.03031477 -0.034600973 -0.06864351 -0.055069156 -0.017154293 -0.05894501
0.021517165 -0.028026447 -0.014073308 -0.046448626 0.003776124 -0.04378182 -0.01918937 0.027672218
-0.009523027 0.016031802 0.0099566 0.0043805502 -0.008025037 0.03651423 0.012132767 -0.010157245
-0.049172454 -0.05002811 -0.012828653 -0.0364923 -0.052596588 -0.010207851 -0.02502113 -0.036469385
-0.036738493 -0.021454921 -0.038921896 -0.00015962744 -0.0303855 -0.0045018177 0.014062736 -0.0005305647
0.006414269 0.020598764 0.003266379 0.02024385 0.023217646 0.027668698 -0.012519127 0.03404671
0.026290063 -0.021640545 -0.0034081093 0.022122009 -0.03636245 -0.028398788 -0.037090093 -0.0033613397
-0.0539799 -0.022315865 -0.0068616793 -0.039607026 -0.028579641 -0.0013649217 -0.02048274 0.005667748
0.0046606837 -0.01530942 0.028637836 -0.0045875316 0.010333295 0.025007993 0.015477771 0.012696983
-0.011573724 0.0069879675 0.012062623 0.014720265 0.010962013 0.0134824375 0.001072127 0.009472266
-0.021910878 -0.0050603366 -0.0258443 0.0036647308 -0.019164525 -0.033973858 -0.0358641 0.0031252597
-0.026327953 -0.03313687 0.02286278 -0.015412723 -0.006730988 0.018501662 0.04189649 -0.0008901812
0.0034117152 0.021201022 0.003936417 0.042941462 0.039701685 0.039516155 0.032181185 0.050161015
0.014333275 0.031410925 -0.007939006 0.011036974 -0.01933005 -0.0054130293 0.00044301598 -0.034827
-5.763554e-05 -0.027031666 0.014017594 -0.010031455 0.002820247 0.01443127 0.010864658 0.032764465
0.015630782 -0.00030394306 0.025634818 0.03526929 0.025173524 0.038489707 0.02858977 0.014615196
0.0022680329 0.009028863 0.006431698 -0.011622747 -0.01317745 -0.0052717077 -0.018270267 0.017895699
-0.038210943 -0.035581492 -0.03459704 0.010934923 -0.02041458 0.023955408 -0.0011596587 0.042669054
-0.0057017533 0.0016715277 0.04416215 -0.011249162 0.02162954 0.04041776 0.019718701 0.015517862
0.029029911 0.00054357987 0.033554003 0.031372428 0.01399882 0.01903764 -0.022766922 -0.0021433195
0.017355185 0.010583282 -0.0011340802 -0.036434755 0.022569943 -0.012791035 0.02761547 0.036167074

net.2.weight f4 [32, 128]
00000000: 7281 113c a2f1 4a3d 2a02 63bd 7196 053c
00000010: 494f 09be a37f 663d ed66 d6bd 4e6f d33d
00000020: 3b33 e5bd 0e7c 5a39 5e69 ce3d 4415 113e
00000030: a295 7b3c 6f10 123d eda5 1fbe 6099 aebc
00000040: b16c 1eba eb56 0ebd 6d17 8e3d 0444 24bc
00000050: 41b9 fc3c c3f3 153c c016 b93d 90e4 cf3d
00000060: 5440 c33c 34da b23d e110 8abd 352d b0bc
00000070: 9104 373d 3a63 063e 9b82 09be 3dfa 8e3d
00000080: 8093 913d 7005 383d ab5f 61bc 87a4 91bd
00000090: 64e6 ef3d 1ee4 1bbc 73a7 db3c d945 ee3d
000000a0: 3878 d03c ce98 823d 9e20 c6bc 4da7 073e
000000b0: 02ae 0ebe 487a fcbb 83f5 9fbd 7c54 cf3c
000000c0: 758a 0bbd 908d acbd d220 51bd bf26 88bd
000000d0: d2f3 623d cc02 4b3c b511 963c 82d6 e9bd
000000e0: e0cf dc3d 5597 d5bd 553c d23c c7db 73bd
000000f0: f6c5 a2bd 2379 123e 4f97 aabc 14ac b03c
00000100: 870e f6bb 0782 723d 754d 98bd a44c 7c3d
00000110: b990 35be eb45 da3c 31e1 04bd f89a 96bd
00000120: a3b5 8c3d ffac 093d 10e4 cd3d 4ca1 c4bd
00000130: 6b62 153e 9fca 223e 7026 84bd 367f 99bc
00000140: 1d4e d63d bb17 123e 0a98 07be 7258 253e
00000150: 67e4 2cbd ca75 62bd 5bff f8bd e901 cf3d
00000160: f31b 0e3e 24b0 1a3e b6b6 6abd 2f1b 023d
00000170: 9d62 523d aeec f8bc beed dbbc 265a 1c3c
00000180: 56bb 5a3d 9f0d 293e 79ea df3b 18f0 22be
00000190: f77c 88bd 7444 a93d 5c05 d33d ad63 1fbd
000001a0: 08f0 10bd efe4 903b 9c21 06bd 7344 183e
000001b0: 7735 94bd 2c5d 213e f9f6 fd3c 4ad1 7b3c
000001c0: 9519 9abd 6c20 3fbd 7be9 0b3d cd0c 0e3e
000001d0: 8a50 123d 19d3 a33c cb55 f93d 39a4 18bd
000001e0: 83a0 c03d 593a 043e 5e54 d53d 5177 0a3d
000001f0: d3ae 2a3d f431 00bd 2a23 9abc e198 53bd
00000200: fd78 4fbb 4184 10bd 3d76 8cbd f649 6b3d
00000210: 0eed 03bd 3202 2cbc c79f b1bd 1582 bb3c
00000220: 8fba b9bd 4ed4 003d 569c 383e 4618 033d
00000230: edef 8bbb 6d2a 983d 6daa 063e ee34 053d
00000240: 5db8 50bc ec45 68bd d115 5d3d 62ad 12be
00000250: 499e 99bd 0ed6 21bd 307e 583d 8c6d 183e
00000260: a708 b13c ce73 2b3e 28c6 373d 8181 8fbd
00000270: 7707 393b 64ec 623c dd88 6abc 405a c73c
00000280: 2532 963e ecc0 4ebd 8b1e 0f3d 6689 dc3d
00000290: ee8b 753d 8a5d bcbc 43e6 443e 319d fd3d
000002a0: 37ab 4dbd 7d82 6ebc 58f8 853b 39c8 ffbb
000002b0: 568a 5d3d 6943 2d3d 2026 27be 59d1 d83c
000002c0: e34c 0a3e becd 183d 0470 18be 52a9 85bc
000002d0: 3a27 2fbd 04fa ce3d 58d7 2fbc 9c41 e8bd
000002e0: 54bd cd3d 9681 a33c a748 cd3c 047a 583d
000002f0: be03 c83d d8c6 5fbd a16c 803d 3baa c73d
00000300: 8db8 8ebd a39a 6a3d 96eb 1a3d fb8a 303c
00000310: aebc eebd 2093 adbd 9fa1 0a3e 8b44 903c
00000320: 096b 063d 9272 313b 50c3 0b3e 7b89 cebc
00000330: 30f3 babd e344 b23d 47a8 c6bc f5d1 4d3d
00000340: 44ca 863d dd70 113d ac95 193c 568b d03d
00000350: e1b3 bfba dd15 43bd 5ce7 c53c c2b7 ad3d
00000360: 9cdc 633d f274 83bc 8790 d1bc d60e 983d
00000370: e0bb 883c 11e3 4b3e 4568 8dbc 4840 903d
00000380: 37eb 803e d924 8b3d 47a5 7cbd 298e 0c3d
00000390: 7b92 cb3d 67ed adbc 5dc2 04bd 395a ee3d
000003a0: 39bc 263d 9477 1b3d cbc5 90bb 09ce ea3c
000003b0: 8a2d b13b 8d15 0c3d 948d 333e 0189 87bd
000003c0: 248e a7bd 532f a4bd e889 89bd 8835 f93d
000003d0: da25 233d fe85 04bc b80d 063e 790e 6cbd
000003e0: 1817 8d3d dff6 f4bc 1d50 98bd a65e 913d
000003f0: 76fc 8d3c 335b 49bc 0c85 42bd aa83 843d
0.00888096 0.049546845 -0.055421986 0.008153544 -0.13409151 0.056274068 -0.1046885 0.10323964
-0.11191412 0.00020836314 0.10078691 0.14168268 0.015355499 0.035660204 -0.1559064 -0.02131337
-0.0006043418 -0.03475086 0.06938062 -0.010025982 0.030850055 0.009152356 0.09037542 0.10151017
0.023834385 0.08733025 -0.06741501 -0.021505931 0.04468209 0.1312379 -0.13428728 0.06981323
0.071082115 0.04492706 -0.013755719 -0.07111459 0.117138654 -0.009514837 0.026813244 0.11634416
0.02544795 0.063768014 -0.024185475 0.13247414 -0.13933566 -0.0077050067 -0.078104995 0.02530884
-0.03406759 -0.084254384 -0.05105669 -0.06648015 0.055408306 0.012390804 0.01831899 -0.11417867
0.107818365 -0.10429255 0.025663534 -0.059535768 -0.07947914 0.14304022 -0.020824103 0.021566428
-0.007509056 0.059206035 -0.07436649 0.061596528 -0.17730989 0.026644668 -0.03244132 -0.07353777
0.06870582 0.033612248 0.10053265 -0.096010774 0.14588325 0.15897606 -0.06452644 -0.018737417
0.10464118 0.14266865 -0.13241592 0.1614702 -0.04221001 -0.055288114 -0.1215808 0.10107786
0.1387785 0.15106255 -0.057303153 0.031764206 0.051363576 -0.030386295 -0.026846763 0.009542977
0.053401314 0.16509102 0.0068333712 -0.15911901 -0.0666446 0.082650095 0.103037566 -0.038913418
-0.03538516 0.0044218223 -0.032746896 0.14869861 -0.0723676 0.15758198 0.031001555 0.015369723
-0.07524411 -0.04666178 0.03415821 0.1387207 0.03572134 0.01999812 0.12174567 -0.03726599
0.09405615 0.12912883 0.104164824 0.033805195 0.04167063 -0.03129764 -0.018815596 -0.05165947
-0.0031657808 -0.035282377 -0.0685849 0.05744358 -0.032208495 -0.01049857 -0.08673053 0.022889176
-0.09068786 0.03145247 0.18028387 0.03200557 -0.0042705447 0.07429967 0.1315095 0.03252118
-0.012739268 -0.056707308 0.053975884 -0.14323953 -0.075008936 -0.03951078 0.052854717 0.14885539
0.021610571 0.16743395 0.04486671 -0.07007123 0.002823321 0.013850305 -0.014314857 0.024335027
0.29335132 -0.050476953 0.034941237 0.10768394 0.0599479 -0.022993822 0.19228463 0.123834975
-0.05021211 -0.014557478 0.004088443 -0.007805851 0.054087006 0.042300615 -0.16323137 0.026467012
0.13505892 0.037305586 -0.1488648 -0.01631609 -0.04276202 0.101062804 -0.010732494 -0.11340639
0.10045877 0.019959252 0.025059057 0.05285074 0.09766339 -0.05463299 0.06270719 0.09749266
-0.06968794 0.05727638 0.03782233 0.010775323 -0.116570815 -0.084753275 0.13538216 0.017610809
0.03281692 0.0027076346 0.13648725 -0.02521204 -0.091284156 0.08704545 -0.024250163 0.05024906
0.06581548 0.035508025 0.009374063 0.10182826 -0.0014625752 -0.047628272 0.024158172 0.08482315
0.05563031 -0.016046975 -0.025581611 0.07424705 0.016691148 0.19910838 -0.017261634 0.07043511
0.25179455 0.067941375 -0.06168106 0.034315262 0.09940048 -0.021231366 -0.03241192 0.11638302
0.040706847 0.037955835 -0.00441811 0.028662698 0.00540704 0.03420024 0.17534477 -0.06617928
-0.08181408 -0.08016839 -0.06715757 0.121684134 0.03983102 -0.008088587 0.13091171 -0.05763099
0.068891704 -0.029902874 -0.074371554 0.07098131 0.017332297 -0.01228981 -0.047490165 0.064704254
