clean_linear_weights_10ep.pth (torch, 101814 bytes, 1 tensors)

linear.weight f4 [32, 784]
0	0x3ca5adbc	0.020224445
1	0xbca2ec6c	-0.019888125
2	0xbd2d62b3	-0.042330455
3	0x3c67bf05	0.014144664
4	0x3c5eed77	0.013606421
5	0xbd624e99	-0.055250738
6	0x3c22cbd2	0.00993629
7	0xbd1dd95a	-0.03853736
8	0xbc737342	-0.014859023
9	0x3b28ba17	0.0025745684
10	0x3c2627b4	0.010141302
11	0xbc6cc026	-0.014450109
12	0xba386039	-0.0007033381
13	0x3bc7d2b6	0.0060981167
14	0xbca78031	-0.020446869
15	0x3c89a16a	0.016800601
16	0x3c2251a8	0.009907164
17	0x3c347cf6	0.011016121
18	0x3c1d65e3	0.009606811
19	0xbb0e677c	-0.0021729162
20	0x3c4381d0	0.011932805
21	0x3bfa94df	0.0076471413
22	0x3b961cdb	0.0045810766
23	0x3c99013e	0.01867735
24	0x3c5cb77d	0.013471481
25	0xbc8143f9	-0.015779482
26	0xbc4e96a9	-0.012609162
27	0x3c7f754b	0.01559193
28	0xbcc8230f	-0.02443078
29	0xbc0ce878	-0.008600347
30	0x3ca320dc	0.01991313
31	0xbd44f54a	-0.04808549
32	0xbd060afb	-0.032725316
33	0xbd1cd73f	-0.038291212
34	0xbcc6db9f	-0.024274645
35	0xbb563c12	-0.0032689613
36	0xbb946bae	-0.004529438
37	0xbccb3c77	-0.024809105
38	0x3c56a8c7	0.013101763
39	0xbc9a1b07	-0.018811716
40	0x3cafb983	0.021450764
41	0xbbcdefb9	-0.0062846807
42	0x3d0e7ab0	0.034784973
43	0xbcd5f327	-0.02611692
44	0x3cb2a68c	0.021807931
45	0xbc48960b	-0.012242804
46	0xbb123949	-0.0022311977
47	0x3c93af5b	0.018027952
48	0x3cdc6828	0.026905134
49	0x3be654a1	0.0070291315
50	0xbccd3abf	-0.025052426
51	0xbbed509b	-0.007242275
52	0x39fcc679	0.0004821306
53	0x3cb7e8d4	0.022449888
54	0x3cc3b2a1	0.023888888
55	0xbbe66428	-0.0070309825
56	0xbce66812	-0.028125796
57	0xbcb36f72	-0.021903727
58	0xbca368c7	-0.019947423
59	0xba450acb	-0.0007516562
60	0x3bc6ffe0	0.006072983
61	0xbc95922c	-0.018258177
62	0x3ac012b9	0.0014654017
63	0xbcb8d8fa	-0.0225644
64	0xbaee84f0	-0.0018197577
65	0xbcd9f213	-0.026604688
66	0xbcbc78a0	-0.023006737
67	0x3c923aff	0.017850397
68	0x3cc744e4	0.024324842
69	0xbcd00305	-0.025392065
70	0xbcabd5e2	-0.02097601
71	0x3c976ed6	0.018485468
72	0x3cc2ed34	0.023794748
73	0xbc0059f8	-0.00783395
74	0xb9ae8d98	-0.00033293362
75	0xbc0afc41	-0.008482994
76	0xbc30f88f	-0.0108014485
77	0x3bdda45f	0.0067639793
78	0x3cce9fb1	0.025222631
79	0x3d024c2a	0.031810917
80	0x3c0bacc0	0.0085250735
81	0xbcc82b44	-0.024434693
82	0x3cb0251a	0.021502066
83	0x3ccb53f2	0.024820302
84	0x3bbad1b9	0.0057012704
85	0xbc8a5868	-0.016887859
86	0xbcce8ee6	-0.025214624
87	0xbd20ef6c	-0.03929083
88	0x3c312434	0.010811854
89	0xbca69c03	-0.020338064
90	0xbb696a49	-0.003561633
91	0xbc2eb347	-0.01066286
92	0xbc6d98a2	-0.0145017225
93	0xbc7d0a71	-0.015444384
94	0x3c473ff6	0.012161246
95	0xbc96d1e1	-0.018410625
96	0xbc5df067	-0.013546086
97	0x3cddfed9	0.02709906
98	0xb9f74ab1	-0.0004716716
99	0x3c801748	0.015636101
100	0xbc8a90a7	-0.016914679
101	0x3cae8d0a	0.021307487
102	0x3cf78a26	0.030217241
103	0x3bb13b59	0.005408686
104	0x3cba3eca	0.022735018
105	0xba674f3b	-0.0008823757
106	0xbc283657	-0.010266862
107	0x3bd92b71	0.006627493
108	0x3be25fd0	0.0069083944
109	0x3c814d8b	0.015784046
110	0x3cf08a16	0.02936272
111	0xbc92d86f	-0.01792547
112	0xbd1be03c	-0.038055643
113	0xbb39c79a	-0.0028347732
114	0xbc28818d	-0.010284794
115	0xbcb61e15	-0.022231141
116	0xbcf65236	-0.030068498
117	0xbd3e68da	-0.046486713
118	0x3c95842d	0.018251503
119	0xbce4d34c	-0.027932785
120	0x3c13409b	0.008987571
121	0x3b989568	0.0046564825
122	0x3b5583f9	0.0032579883
123	0x3b423278	0.0029632133
124	0xbc0c8361	-0.008576245
125	0x3cb5ba4a	0.022183556
126	0xbb12f873	-0.002242592
127	0x3abfb30a	0.0014625501
128	0xbacab9ac	-0.0015466711
129	0x3bad72c2	0.005293221
130	0x3bfb3656	0.0076663895
131	0xbcc99928	-0.024609163
132	0x3cd54f0e	0.026038673
133	0x3ab141b4	0.0013523609
134	0x3c292339	0.010323339
135	0x3b17277c	0.0023064306
136	0xbbca4d35	-0.0061737546
137	0xbbebab3b	-0.007192043
138	0x3c2928f1	0.010324703
139	0xbc20aef2	-0.009807335
140	0xbc8f267e	-0.01747441
141	0xbc4f217b	-0.01264226
142	0xbc9c2e3f	-0.01906502
143	0x3c5d3516	0.013501426
144	0xbd0c67c3	-0.034278642
145	0xbc6cb489	-0.01444734
146	0xbcd3103b	-0.025764575
147	0xbb7a4ff2	-0.0038194624
148	0xbcfe7aa1	-0.031064333
149	0xbbff63c2	-0.0077938745
150	0xbc890da9	-0.016730146
151	0xba9fc959	-0.0012190744
152	0xbc86259f	-0.016375361
153	0x3b9f4a32	0.0048611397
154	0x3c2732b7	0.010204962
155	0x3c0a95fe	0.0084586125
156	0x3c871d14	0.016493358
157	0xbc4ddcc2	-0.01256484
158	0x3cfba0ba	0.030716289
159	0xbb599911	-0.0033202807
160	0x3c9a27c3	0.018817788
161	0x3c57cb68	0.013171054
162	0x3ab55e11	0.0013837238
163	0x3c82c58f	0.015963344
164	0x3ca4c6a6	0.020114254
165	0x3c1ec408	0.009690292
166	0x3cbfe943	0.023426658
167	0xbc5e2c49	-0.013560363
168	0x3bac1091	0.0052509983
169	0xbd0e0b31	-0.03467864
170	0xbd284b63	-0.04108752
171	0xbc81f7ff	-0.015865324
172	0xbca38c15	-0.019964257
173	0x3c88cde0	0.016699731
174	0xbcef450a	-0.029207725
175	0xbcbaf22d	-0.022820557
176	0xbc9f9e30	-0.01948461
177	0x3b5a8e5c	0.0033349013
178	0xbcc3e4cd	-0.023912812
179	0x3cb501b0	0.022095531
180	0xbb3f695e	-0.002920709
181	0x3c947b29	0.018125134
182	0xbbd34bb5	-0.006448234
183	0xbbaec06e	-0.005332998
184	0x3ceadb07	0.028668894
185	0xbbc87f50	-0.0061186925
186	0x3ccf30b0	0.02529177
187	0xbb5d6d08	-0.0033786912
188	0x3a65061c	0.0008736567
189	0x3cd5260a	0.026019115
190	0xbcc6051f	-0.024172364
191	0x3c828cbc	0.015936248
192	0xbcabe232	-0.020981882
193	0x3cc5f2f6	0.024163704
194	0xbb2a17f3	-0.0025954216
195	0x3ceb6c3b	0.028738132
196	0xbd2dc0ca	-0.042420186
197	0xbca80268	-0.02050896
198	0xbd2a7db1	-0.041623775
199	0x3b3527fb	0.0027642238
200	0xbcea3738	-0.028590783
201	0xbc878e79	-0.016547428
202	0xbd18b881	-0.03728533
203	0x3c28a9c7	0.010294384
204	0xbb03d067	-0.002011323
205	0x3bc9bed8	0.0061567836
206	0xbc00f5de	-0.007871119
207	0xbbd5484a	-0.0065088617
208	0xbbe869ff	-0.007092714
209	0xbb730df3	-0.0037087172
210	0x3ccf2e86	0.025290739
211	0xbb8319c0	-0.0040008724
212	0x3c871bf9	0.01649283
213	0xbb1ca14f	-0.0023899858
214	0x3b402caf	0.0029323508
215	0x3d04c8a7	0.03241792
216	0xbad8ff18	-0.0016555516
217	0xba369212	-0.0006964515
218	0x3c34563d	0.011006889
219	0x3ce1379b	0.027492335
220	0x3c974444	0.018465169
221	0xbcf3eb30	-0.029775232
222	0x3b8f67fb	0.004376409
223	0xb9ed2e37	-0.00045238595
224	0xbd2152ba	-0.039385535
225	0xbce0b52a	-0.027430136
226	0x3c718df6	0.014743319
227	0xbc4f5edc	-0.012656894
228	0xbd19f808	-0.037590057
229	0x3ae73555	0.0017639796
230	0x3912ba9f	0.00013993167
231	0xbd00966f	-0.031393465
232	0xbc743fff	-0.014907836
233	0xbd066ada	-0.032816745
234	0x3b785830	0.003789436
235	0xbafe77cd	-0.0019414366
236	0x3c10c3f5	0.008835782
237	0xbbf001a4	-0.0073244143
238	0x3c54df27	0.012992657
239	0xbc6ab4cd	-0.014325333
240	0x3cc95f77	0.024581654
241	0x3cccf120	0.025017321
242	0xbba30e10	-0.0049760416
243	0xbaf8c301	-0.0018979014
244	0xbb55425c	-0.0032540774
245	0x3ceeebce	0.029165175
246	0x3b86b849	0.004111324
247	0xbb624265	-0.0034524438
248	0x3afe70cc	0.0019412278
249	0x3cfb2434	0.030656911
250	0xbae91dc6	-0.0017785362
251	0x3ccf3b8e	0.025296953
252	0xbc946165	-0.018112848
253	0xbcc95e19	-0.024581002
254	0xbd10bc54	-0.035335854
255	0xbcc9cc8a	-0.024633665
