linear_weights_clean2noisy_20ep.pth (torch, 101844 bytes, 1 tensors)

linear.weight f4 [32, 784]
0	0x3ad01263	0.001587462
1	0xbaa11981	-0.0012290926
2	0xbc042f7f	-0.008067965
3	0x3a87b7b7	0.0010354434
4	0x3ac8e439	0.0015326805
5	0xbc80e69a	-0.01573496
6	0xbb2227b9	-0.0024742915
7	0xbc81f68a	-0.01586463
8	0xbc2479ed	-0.010038835
9	0xbbc62d9d	-0.006047918
10	0xbb1228c4	-0.002230213
11	0xbc09edd7	-0.008418522
12	0xb74b932d	-1.213401e-05
13	0x3b9d901d	0.0048084394
14	0xbc0483d3	-0.00808807
15	0x3c1bc20b	0.009506713
16	0x3c14f47a	0.009091491
17	0x3c2d46f5	0.0105759995
18	0x3c0323cb	0.008004139
19	0x3ba0e8cd	0.0049105645
20	0x3b9a94c5	0.0047174417
21	0x3bb8e4e3	0.00564252
22	0x3bf78595	0.007553766
23	0x3b82632d	0.003979108
24	0x3c0dabd1	0.008646921
25	0xbc17c496	-0.009263178
26	0xbb882ee8	-0.0041559823
27	0x3ada00cb	0.0016632316
28	0xbbaf4f63	-0.00535004
29	0xb9998382	-0.00029280415
30	0x3a73801c	0.0009288804
31	0xbc2e5978	-0.010641448
32	0xbb9c904e	-0.0047779446
33	0xbc088e22	-0.008334668
34	0xbc82fc94	-0.01598958
35	0xbc2429af	-0.010019704
36	0xbbb8a780	-0.005635202
37	0xbc69e18d	-0.014274967
38	0xbad1c4f6	-0.0016004134
39	0xbc10a48c	-0.0088282935
40	0x3bb2276b	0.005436828
41	0xbbb5aa7a	-0.005544004
42	0x3c885c9d	0.016645724
43	0xbbc597c7	-0.006030056
44	0x3c3e7827	0.011625326
45	0xb864fdb7	-5.4595726e-05
46	0x3b1436bf	0.002261564
47	0x3c1e469b	0.009660388
48	0x3c3ebd98	0.011641882
49	0x3c35a465	0.011086558
50	0xba3c81c0	-0.0007190965
51	0x3aed9720	0.0018126704
52	0x3bc93a20	0.0061409622
53	0x3b948583	0.0045325174
54	0x3b8fb4b9	0.0043855575
55	0xbad9cb2a	-0.0016616334
56	0xbba50955	-0.005036513
57	0xbb088f54	-0.0020837383
58	0xbc015736	-0.007894328
59	0xb8c7c5fd	-9.525938e-05
60	0xbbf332f8	-0.0074218474
61	0xbc8f7a20	-0.017514288
62	0xbc502801	-0.01270485
63	0xbc554110	-0.013016
64	0xbb8c995d	-0.0042907433
65	0xbc484e0b	-0.012225638
66	0xbc30fde0	-0.010802716
67	0x3b349f5e	0.002756081
68	0x3c10a5e3	0.008828613
69	0xbc04bffb	-0.008102412
70	0xbb4260e8	-0.0029659811
71	0x3c1d9efd	0.009620425
72	0x3c49963f	0.012303888
73	0xb901f369	-0.00012393076
74	0x3bc67cbd	0.0060573504
75	0x3abf864b	0.0014612166
76	0xbad81679	-0.001648619
77	0x3c1d3597	0.009595296
78	0x3c627429	0.01382164
79	0x3c3d0108	0.01153589
80	0x3c4f4837	0.012651495
81	0xbb3fc52e	-0.0029261815
82	0x3bffb2ad	0.0078032822
83	0x3b41d9d7	0.0029579306
84	0xb9af242b	-0.00033405548
85	0xbc13de32	-0.009025143
86	0xbc74bb8a	-0.014937291
87	0xbc86bb59	-0.016446756
88	0xbbf780f9	-0.0075532165
89	0xbca5bd59	-0.02023189
90	0xbc4a6b81	-0.0123547325
91	0xbc814822	-0.015781466
92	0xbc5dcecf	-0.013538077
93	0xbc408ca2	-0.0117522795
94	0x3b303e19	0.0026892482
95	0xbc1c35c0	-0.009534299
96	0xbb8f4dcd	-0.0043732882
97	0x3c316ae2	0.0108287055
98	0xba2fc68b	-0.00067053054
99	0x3c27ac4e	0.010233952
100	0xbb95f55e	-0.004576369
101	0x3c3a8d23	0.011386189
102	0x3c67e87c	0.01415455
103	0x3c0a1bbc	0.008429464
104	0x3c2c596e	0.010519369
105	0x3adf7f32	0.0017051457
106	0x3bc912c4	0.0061362702
107	0x3c06fd57	0.008239112
108	0x3bc8d3f2	0.0061287815
109	0x3bf0c783	0.0073480024
110	0x3c3aba7d	0.011397001
111	0xbafe755b	-0.0019413637
112	0xbc583736	-0.013196757
113	0xbb6b4de3	-0.0035904578
114	0xbc5742b3	-0.013138461
115	0xbc52fec1	-0.012878121
116	0xbcb7656b	-0.022387227
117	0xbccaa6e2	-0.024737779
118	0xbc085c09	-0.008322724
119	0xbcb6bd7e	-0.022307154
120	0xbbc9e7a4	-0.006161647
121	0xbbe49e9c	-0.0069769155
122	0xbba1341a	-0.004919541
123	0x3af82dd8	0.0018934561
124	0xbae23b68	-0.0017260136
125	0x3c368574	0.011140216
126	0x3b448f23	0.0029992543
127	0x3b864cdb	0.0040985174
128	0x3bd516de	0.00650297
129	0x3bd5538d	0.006510204
130	0x3c05f7da	0.008176768
131	0xbb0e24fa	-0.002168952
132	0x3c82b121	0.015953602
133	0x3ba6ad0a	0.005086546
134	0x3c7a954f	0.015294387
135	0x3c12eedb	0.00896808
136	0x3ba109b5	0.0049144872
137	0x3bc209e5	0.0059215897
138	0x3ba583cb	0.0050511113
139	0x3a13f58c	0.00056441943
140	0xbbaa800a	-0.0052032517
141	0xbc1cad36	-0.009562781
142	0xbc7e8e60	-0.0155368745
143	0xbbddf24b	-0.0067732683
144	0xbcba4b2b	-0.022740921
145	0xbcbc28b6	-0.022968631
146	0xbcc87a5e	-0.024472412
147	0xbc393e7f	-0.011306404
148	0xbc885853	-0.016643679
149	0xbc0d1607	-0.008611209
150	0xbc0f298a	-0.008737931
151	0x3a02677f	0.00049745286
152	0xbb8617fa	-0.0040922137
153	0x3b36f1f9	0.0027915223
154	0x3b99204b	0.004673039
155	0x3c1866fc	0.009301897
156	0x3c5187de	0.012788741
157	0x3ad0276c	0.0015880889
158	0x3c9004d7	0.017580433
159	0x3bd4072b	0.006470581
160	0x3c3dc888	0.011583455
161	0x3c194821	0.009355576
162	0x3bbdcf4b	0.0057925335
163	0x3c2dc59c	0.010606196
164	0x3c4928b1	0.012277768
165	0x3be4fe75	0.0069883415
166	0x3c3824de	0.011239259
167	0x3b43ea9f	0.0029894484
168	0xbb874a0a	-0.004128699
169	0xbc9720ac	-0.018448196
170	0xbcb0c513	-0.021578347
171	0xbc9dbd85	-0.019255409
172	0xbcb79492	-0.022409711
173	0xbc281a49	-0.010260173
174	0xbcbbafdd	-0.022911007
175	0xbc972036	-0.018447977
176	0xbc7d1de5	-0.015449022
177	0xbbe5b6ee	-0.0070103323
178	0xbc3e2017	-0.0116043305
179	0x3c0bed30	0.008540437
180	0xba89fed0	-0.001052821
181	0x3c291b60	0.010321468
182	0x3b40cae6	0.0029417812
183	0x3b967447	0.004591498
184	0x3c6118e8	0.013738848
185	0x3be5cf8c	0.007013267
186	0x3c906397	0.017625613
187	0x3bcab13f	0.00618568
188	0x3b5717b3	0.0032820522
189	0x3c889ccd	0.016676331
190	0xbab3612c	-0.0013685576
191	0x3c397449	0.011319228
192	0x3a74aee8	0.00093339244
193	0x3c6059a4	0.013693247
194	0x3b22000f	0.0024719273
195	0x3c105d76	0.008811345
196	0xbc87302c	-0.016502462
197	0xbc85323f	-0.01625931
198	0xbcc8af99	-0.024497794
199	0xbc755682	-0.014974238
200	0xbccdf843	-0.025142794
201	0xbca33117	-0.019920869
202	0xbcbd0a1b	-0.023076108
203	0xbaca5ac4	-0.0015438427
204	0xbc2437d5	-0.010023077
205	0xbb8673be	-0.004103153
206	0xbc104380	-0.008805156
207	0xbb29b7b6	-0.0025896854
208	0xb9f4bb02	-0.00046678638
209	0xbaae9471	-0.0013319385
210	0x3c721c2d	0.014777225
211	0x3b98423c	0.0046465676
212	0x3c54a784	0.012979392
213	0x3c207298	0.009792946
214	0x3c1c3eb6	0.009536436
215	0x3cac8240	0.021058202
216	0x3be64c71	0.0070281555
217	0x3bd8ac17	0.0066123116
218	0x3c554ed4	0.013019282
219	0x3c63d05b	0.013904656
220	0x3c446b64	0.011988495
221	0xbbe15515	-0.0068765976
222	0x3c0100d9	0.007873737
223	0x3bb1fe99	0.0054319617
224	0xbc96efed	-0.018424952
225	0xbca267e3	-0.019824928
226	0xbc5c01da	-0.013428176
227	0xbc9c4b08	-0.019078746
228	0xbcfa3d88	-0.030546919
229	0xbc0c9f49	-0.008582898
230	0xbc383beb	-0.011244754
231	0xbcb0f3a9	-0.021600561
232	0xbc527e28	-0.012847461
233	0xbca2a753	-0.019855177
234	0xbad70e93	-0.0016407542
235	0xbb80ed72	-0.0039345557
236	0x3ba86799	0.005139303
237	0x3b5bd96d	0.0033546344
238	0x3c2721fa	0.010200972
239	0x3a96303c	0.0011458467
240	0x3c8ae726	0.016955923
241	0x3c6264cd	0.013817978
242	0x3bf2e189	0.00741214
243	0x3bf06637	0.0073364037
244	0x3bdbc903	0.006707312
245	0x3c8a2a83	0.016865974
246	0x3bdf3ec3	0.0068129017
247	0x3bb3a07f	0.005481779
248	0x3ae3d20b	0.0017381323
249	0x3c73fd0a	0.014891872
250	0x3b35d74c	0.0027746735
251	0x3c5fd35d	0.013661233
252	0xbc834c4c	-0.016027592
253	0xbcb01461	-0.021494092
254	0xbcbd60aa	-0.023117382
255	0xbcbde5a1	-0.023180785
