noisy_30.pth (torch, 101665 bytes, 1 tensors)

linear.weight f4 [32, 784]
-0.01672721 -0.0065102405 -0.0024223016 0.001340125 0.003662966 0.0072939 0.00800056 0.006092303
0.0072299605 0.006182303 0.0047326693 0.0020970185 0.0005689759 -0.00010429526 -0.004237323 -0.0023904445
-0.0032081106 -0.0054400326 -0.0071983985 -0.0071855104 -0.006479043 -0.010335099 -0.0061520385 -0.0009983573
0.0052701146 0.00865771 0.012842124 0.022138242 -0.012659509 -0.0050450154 -0.0011734669 0.0016251181
0.0025080945 0.0049511045 0.00507234 0.0045810007 0.0038268617 0.004555135 0.002389195 0.0024231442
0.0015787466 0.0005040839 -0.00019584899 -0.0013322151 -0.0033720518 -0.0048921457 -0.0032401057 -0.0059231524
-0.004729583 -0.009153712 -0.007898577 -0.0028120587 -0.0014750602 0.0047716624 0.0059469063 0.015939157
-0.011528985 -0.005979971 -0.00414071 -6.467439e-05 0.003167117 0.0042317705 0.006398562 0.004786373
0.00399045 0.0015610722 0.0030628191 0.0028686374 0.0007273788 -0.0006380511 -0.0021710587 -0.002442888
-0.004382571 -0.0035731418 -0.004856754 -0.0041007265 -0.006122736 -0.007508801 -0.0065174266 -0.0036305035
-0.000406385 0.003052828 0.0069690095 0.013668985 -0.011314166 -0.004643973 -0.0020088449 -0.0017179446
0.0034355079 0.0048184027 0.0049372814 0.005358001 0.004720729 0.0031919023 0.0032919196 0.0026308906
0.0012056588 0.0012188101 -0.0011981317 -0.0011047119 -0.0013987289 -0.0047182813 -0.0037784297 -0.005492046
-0.0079150535 -0.0062680724 -0.008876155 -0.007547644 -0.0023897511 -0.0012635678 0.004734589 0.014419778
-0.009999196 -0.0053237956 -0.002640063 -0.0032472685 0.00085834553 0.004807399 0.0028529377 0.004779019
0.0064624064 0.0033778527 0.0033504334 0.0037531797 0.003129906 -0.00074880105 0.00085626636 -0.0007599455
-0.0028918986 -0.004067951 -0.0035941526 -0.0048184656 -0.006203744 -0.0062712925 -0.006898526 -0.008434034
-0.0043200166 -0.0016416891 0.004227495 0.01007173 -0.011931569 -0.006787606 -0.0022982268 -0.001235155
0.0055416403 0.006635297 0.0062632444 0.0073194993 0.0061506364 0.005437975 0.0056206053 0.0034590585
0.0019289047 0.0032534823 0.0010035377 -0.0009477319 -0.002372317 -0.0041379486 -0.0065720724 -0.0031641934
-0.0058076615 -0.0048549683 -0.007891547 -0.0063813208 -0.005808613 -0.0021249745 0.0005020305 0.006040077
-0.008035698 -0.00535034 -0.002536351 0.0015786702 0.0038317654 0.0056902617 0.005112524 0.0034191068
0.005340615 0.0067247357 0.00576695 0.0025479277 0.0030322252 0.0029024512 -0.00016440815 -0.00061325467
-6.736874e-05 -0.004249836 -0.0037496423 -0.0044821696 -0.004846197 -0.006972196 -0.008958048 -0.007318965
-0.007864837 -0.005123023 -0.0021861896 0.003351064 -0.0050079674 -0.0038349607 -0.0015162391 0.00083262846
0.0047094575 0.006015163 0.005732172 0.0060188402 0.007114825 0.005758033 0.0060077957 0.0033820125
0.0055958712 0.0022607031 0.00027548938 0.0011576619 -0.0027770265 -0.0027907877 -0.0037222148 -0.004022443
-0.006936231 -0.005641733 -0.006962241 -0.007844772 -0.0074399402 -0.0059375637 -0.00084027875 0.0003442073
-0.005447676 -3.6832027e-06 0.00042403126 0.004184776 0.005564402 0.004098806 0.005554033 0.006136893
0.0031696295 0.005914386 0.0053968644 0.007283904 0.0060399654 0.004860087 0.0021282737 -0.0004244275
-0.0022720401 -0.002721573 -0.0038897037 -0.0032008993 -0.004841837 -0.007770828 -0.005518113 -0.0060891937
-0.009790456 -0.0062358407 -0.003443097 0.0004553397 -0.001964421 -0.002361129 0.0016818123 0.0035019943
00000000: 8007 89bc db53 d5bb 7abf 1ebb 22a7 af3a
00000010: 5f0e 703b ab01 ef3b c814 033c f1a1 c73b
00000020: 4ee9 ec3b eb94 ca3b 8214 9b3b 226e 093b
00000030: 5427 153a 17b9 dab8 3ed9 8abb 01a9 1cbb
00000040: 2a3f 52bb 4d42 b2bb 8be0 ebbb 6e74 ebbb
00000050: 274e d4bb 8c54 29bc 0a97 c9bb 50db 82ba
00000060: edb0 ac3b 11d9 0d3c c667 523c 425b b53c
00000070: d469 4fbc a850 a5bb 04cf 99ba ea01 d53a
00000080: d85e 243b e03c a23b df35 a63b 381c 963b
00000090: 16cc 7a3b 3e43 953b 0a94 1c3b 9dcd 1e3b
000000a0: f2ed ce3a 7f24 043a d05c 4db9 b99d aeba
000000b0: a4fd 5cbb 4b4e a0bb f457 54bb 0117 c2bb
000000c0: 9efa 9abb 73f9 15bc 0869 01bc 844a 38bb
000000d0: cf56 c1ba 9b5b 9c3b 44de c23b d692 823c
000000e0: 11e4 3cbc a2f3 c3bb cbae 87bb cca1 87b8
000000f0: 688f 4f3b aaaa 8a3b 07ab d13b 02d7 9c3b
00000100: 52c2 823b e49c cc3a 94b9 483b c0ff 3b3b
00000110: 91ad 3e3a e242 27ba 5248 0ebb dc18 20bb
00000120: ac9b 8fbb 5f2b 6abb 6825 9fbb 635f 86bb
00000130: 3ba1 c8bb 630c f6bb 2390 d5bb beed 6dbb
00000140: 1210 d5b9 f411 483b 4a5c e43b e1f3 5f3c
00000150: 0d5f 39bc 782c 98bb d3a6 03bb a82c e1ba
00000160: 4226 613b b1e3 9d3b ebc8 a13b 2c92 af3b
00000170: 58b0 9a3b 3c2f 513b 3fbd 573b 056b 2c3b
00000180: 3207 9e3a 7bc0 9f3a a10a 9dba fbcb 90ba
00000190: 8e55 b7ba d09b 9abb 889f 77bb 9ff6 b3bb
000001a0: 24ae 01bc 6764 cdbb 4b6d 11bc 3a52 f7bb
000001b0: 5f9d 1cbb 4d9e a5ba 9c24 9b3b ef40 6c3c
000001c0: abd3 23bc 3c73 aebb e804 2dbb 20d0 54bb
000001d0: 9802 613a 6387 9d3b 5af8 3a3b 5199 9c3b
000001e0: 98c2 d33b f75e 5d3b f292 5b3b e8f7 753b
000001f0: 1c1f 4d3b 304b 44ba 1077 603a 1437 47ba
00000200: 0286 3dbb 724c 85bb e08b 6bbb 38e4 9dbb
00000210: c748 cbbb 6a7f cdbb 080d e2bb e72e 0abc
00000220: ed8e 8dbb f22d d7ba cc86 8a3b e603 253c
00000230: a17c 43bc 916a debb d99d 16bb ede4 a1ba
00000240: a696 b53b e86c d93b e73b cd3b 69d8 ef3b
00000250: 478b c93b 0a31 b23b 0e2d b83b 5fb1 623b
00000260: 4dd3 fc3a 6038 553b 2389 833a 3671 78ba
00000270: e078 1bbb a197 87bb 8a5a d7bb 5b5e 4fbb
00000280: 324e bebb 6d16 9fbb 8c4b 01bc 661a d1bb
00000290: 2d56 bebb 2843 0bbb b29a 033a d7eb c53b
000002a0: 29a8 03bc e851 afbb e938 26bb 62eb ce3a
000002b0: 5b1e 7b3b 6075 ba3b f686 a73b 1813 603b
000002c0: 5300 af3b 2c5b dc3b aff8 bc3b 22fb 263b
000002d0: 4cb8 463b 0d37 3e3b fa64 2cb9 d3c2 20ba
000002e0: 5148 8db8 3542 8bbb 8fbc 75bb 2adf 92bb
000002f0: d9cc 9ebb 0577 e4bb c7c4 12bc eed3 efbb
00000300: 84db 00bc 08df a7bb 2d46 0fbb 869d 5b3b
00000310: e019 a4bb f753 7bbb 8bbc c6ba c044 5a3a
00000320: cb51 9a3b d81a c53b f2d4 bb3b b139 c53b
00000330: 7a23 e93b e2ad bc3b 0bdd c43b c1a4 5d3b
00000340: 925d b73b 4e28 143b 8f6f 9039 b0bc 973a
00000350: c6fe 35bb a6e5 36bb 67f0 73bb b3ce 83bb
00000360: 5349 e3bb 49de b8bb 8323 e4bb 5c87 00bc
00000370: beca f3bb e58f c2bb 2746 5cba b976 b439
00000380: 6b82 b2bb f12c 77b6 8350 de39 7220 893b
00000390: 9655 b63b 474f 863b 9bfe b53b fd17 c93b
000003a0: 8fb9 4f3b 77cd c13b 2ed8 b03b d1ad ee3b
000003b0: e7ea c53b 5d41 9f3b 827a 0b3b b285 deb9
000003c0: 82e6 14bb 6b5c 32bb 66ea 7ebb 2ec6 51bb
000003d0: 46a8 9ebb 6ea2 febb 49d1 b4bb dc87 c7bb
000003e0: 2668 20bc 0656 ccbb 95a5 61bb a9ba ee39
000003f0: 84bd 00bb 2cbd 1abb 4270 dc3a b781 653b
