noisy_20.pth (torch, 101665 bytes, 1 tensors)

linear.weight f4 [32, 784]
000000 df dc 79 bc 33 07 dd bb a9 89 8e bb b2 58 9c 39
       -0.015250414 -0.006745243 -0.0043499065 0.00029820722
000010 c2 4f 96 3a 81 5b 00 3c 38 a7 e4 3b f7 bf d5 3b
       0.0011467861 0.007834316 0.006977942 0.006523128
000020 f5 8b c7 3b 12 ec 86 3b 5a 6f 9d 3b 29 ab 40 3b
       0.006089682 0.0041174972 0.004804534 0.0029398894
000030 5f e5 03 bb f0 dd 7a 3a 46 2c 2d ba 0f 57 8c bb
       -0.002012573 0.00095698144 -0.00066060235 -0.004282839
000040 08 2d 44 bb 7b e8 af bb 6b f6 0a bc 80 e2 ea bb
       -0.0029934067 -0.00536829 -0.008481602 -0.007168114
000050 67 8d f7 bb 66 33 00 bc 60 70 b2 bb 9f 85 4a bb
       -0.0075546983 -0.007824754 -0.005445525 -0.0030902398
000060 c5 f7 8e 3a ff 6b c3 3b f1 ab 44 3c ae a5 aa 3c
       0.0010907581 0.005963802 0.012003885 0.020830955
000070 98 58 4e bc 43 07 ef bb 5b e1 9b bb f0 ad f1 ba
       -0.012594365 -0.007294567 -0.004757089 -0.0018438678
000080 c0 df 5f 3b 7a 3d 76 3b 04 c0 a5 3b 46 e5 7b 3b
       0.0034160465 0.0037573264 0.0050582904 0.0038436218
000090 f1 2b 88 3b 97 45 67 3b e0 6c 83 3b 3c 41 6b 3b
       0.004155629 0.0035289282 0.0040107816 0.0035897037
0000a0 b2 03 5f 3b ed 08 0c 39 68 32 75 3a 3f 24 b1 b9
       0.0034029302 0.00013354766 0.00093535194 -0.00033787076
0000b0 e7 61 40 bb 5f e5 95 bb a7 aa 25 bb e6 11 84 bb
       -0.002935523 -0.0045744623 -0.0025278719 -0.004030454
0000c0 38 5f fa bb ec a9 d7 bb 4c b2 fa bb 14 d9 24 bb
       -0.0076407455 -0.0065815356 -0.007650649 -0.0025153803
0000d0 bf fd 3f 3a 6c 30 e2 3b 2a 9e 1d 3c 44 9c 8c 3c
       0.0007323883 0.006902745 0.009620229 0.017164357
0000e0 9d 32 0e bc 17 ce d5 bb 30 c1 8c bb e5 a3 0a bb
       -0.008679059 -0.006524812 -0.0042954907 -0.0021154818
0000f0 71 4d d2 39 8f 57 58 3b d9 15 b2 3b 1f a0 93 3b
       0.0004011202 0.0033011173 0.0054347333 0.004505172
000100 26 ae 2d 3b 9a 8d b4 3b 34 62 88 3b 6c 1d 37 3b
       0.0026501506 0.0055100443 0.0041620973 0.002794112
000110 8a f0 03 ba 65 0b f6 b9 f5 d9 76 39 ea f1 8b ba
       -0.00050330965 -0.00046929266 0.00023541584 -0.0010676954
000120 69 72 45 bb 44 9d 23 bb a4 35 b7 bb 71 4e 88 bb
       -0.0030128008 -0.0024965564 -0.0055911113 -0.0041597416
000130 65 32 bd bb 51 f4 94 bb 6b e0 d8 bb a9 7c a3 bb
       -0.0057738298 -0.0045457263 -0.0066185496 -0.004989226
000140 ef 40 b1 ba aa 93 95 3b da 07 d7 3b 01 af 84 3c
       -0.001352338 0.004564722 0.0065622153 0.01619673
000150 09 0a 61 bc da 58 a6 bb 4c 69 b6 bb 0d 6b 31 3a
       -0.013735303 -0.00507651 -0.0055667516 0.0006767966
000160 b1 2e 7b 3b 73 8a 9f 3b 76 2c e2 3a 03 92 9c 3b
       0.003832739 0.0048687994 0.0017255682 0.004778148
000170 a1 30 63 3b c7 f6 84 3b 13 3a 7c 3b 40 d1 8a 3b
       0.0034666436 0.0040577385 0.0038486763 0.0042363703
000180 2c 25 0b 3b 1c b4 04 3a 04 34 1d ba 89 bc 5c bb
       0.0021231873 0.0005062239 -0.00059968256 -0.0033681712
000190 3f 4e 29 bb 40 38 92 bb 7e 01 9f bb e0 e6 7e bb
       -0.0025833992 -0.004462272 -0.004852473 -0.0038894936
0001a0 b1 ec dd bb 26 93 d0 bb bb 65 04 bc b1 fe 78 bb
       -0.0067726006 -0.0063651977 -0.008080895 -0.0037993605
0001b0 f4 ee 77 bb 08 00 b4 37 bd 05 ba 3b fa 64 82 3c
       -0.0037831636 2.1457687e-05 0.0056769536 0.01591729
0001c0 f7 66 37 bc 81 f9 d7 bb 35 57 39 bb 7f 92 81 3a
       -0.011193982 -0.0065910225 -0.002828074 0.0009885578
0001d0 ae 5d 89 3b f3 bc a2 3b 0f 33 16 3b 03 7a 36 3b
       0.0041920757 0.004966372 0.0022918617 0.002784372
0001e0 0f 5e 9c 3b b2 7c 59 3b 10 4a a8 3b f9 c9 89 3b
       0.004771955 0.0033185896 0.005135782 0.004204985
0001f0 7d bf 63 3b e0 6a 0d 3b b1 3c a3 b7 45 b7 be ba
       0.0034751587 0.0021578595 -1.9459376e-05 -0.0014550468
000200 6e c7 5a ba 09 9a 43 bb d2 9b 40 bb 94 71 cb bb
       -0.00083457574 -0.002984645 -0.002938975 -0.006208608
000210 30 d1 af bb 2e 1f ea bb a4 34 aa bb 23 00 03 bc
       -0.0053655133 -0.00714483 -0.0051942635 -0.007995638
000220 08 8f 34 bb 7a 20 34 bb d4 5f 80 3b f7 0a 60 3c
       -0.0027551074 -0.0027485178 0.0039176736 0.013674489
000230 c5 f3 0a bc 1e 44 8c bb 73 d7 4d bb de b9 fc ba
       -0.008480971 -0.004280581 -0.0031408935 -0.0019281467
000240 ce 22 85 3a 52 27 df 3a 41 db c5 3b a7 6a e6 3b
       0.0010157467 0.0017025268 0.0060381 0.007031757
000250 28 dc bd 3b b3 55 c7 3b fe 0c 76 3b 86 99 b3 3b
       0.005794067 0.006083214 0.0037544365 0.005480948
000260 f0 9d 18 3b 3c a4 45 3b 43 98 73 b8 25 24 a4 39
       0.0023287497 0.0030157706 -5.807752e-05 0.00031307447
000270 74 fa 7a bb 72 c8 0e bb e3 07 36 bb bf 45 8f bb
       -0.0038296254 -0.0021786955 -0.0027775697 -0.004372328
000280 13 53 d3 bb 7a bf 94 bb f7 df ed bb 2e 03 01 bc
       -0.006449112 -0.0045394273 -0.0072593647 -0.007874293
000290 bb 8b cd bb 57 6b 2d bb b9 da 07 3b d0 3b 08 3c
       -0.0062727607 -0.0026461685 0.0020729734 0.008315042
0002a0 1a e5 09 bc f8 b0 a6 bb d8 f3 8f bb 3c f5 9c 3a
       -0.0084164385 -0.0050870143 -0.004393082 0.0011974941
0002b0 e6 e9 87 3b 0f 12 bc 3b e9 e7 8d 3b 67 d0 c3 3b
       0.004147756 0.0057394574 0.0043306244 0.005975771
0002c0 c1 e3 9f 3b f2 6a bb 3b 38 9a ca 3b 9a 26 ba 3b
       0.0048794453 0.005719536 0.006182935 0.005680871
0002d0 22 01 43 3b b4 58 3c 3b 33 be 67 3b 94 ab cb ba
       0.0029755314 0.0028739395 0.003536117 -0.0015538805
0002e0 89 1a dd b9 49 e4 b0 bb 3c 1d 32 bb 31 de 97 bb
       -0.00042172175 -0.0053983075 -0.002717807 -0.0046346416
0002f0 37 c8 47 bb c9 46 e8 bb c1 a3 b2 bb d7 af 29 bc
       -0.0030484328 -0.0070885164 -0.00545165 -0.010356865
000300 38 1d e6 bb a2 5f b7 bb d9 fe 8b bb 92 ad 8d 3b
       -0.007022526 -0.005596117 -0.0042723236 0.0043236697
000310 1d e5 76 bb 63 96 89 bb a7 f3 f1 ba f6 ce ba 3a
       -0.0037673183 -0.0041988357 -0.0018459455 0.0014252353
000320 10 c2 82 3b f8 ae a1 3b 15 22 b7 3b ce 98 9d 3b
       0.003990419 0.004934188 0.0055887797 0.0048094755
000330 38 0a b6 3b a7 56 79 3b c3 f2 c3 3b 1c f8 8d 3b
       0.0055554174 0.0038046034 0.005979867 0.0043325555
000340 2c 83 8e 3b 42 cb 26 3a 2e dc 01 3b bc 91 81 b9
       0.004349133 0.0006362685 0.0019815075 -0.00024713378
000350 fd 6d 59 bb f2 87 3d bb d3 c2 5e bb 27 ba 7c bb
       -0.003317713 -0.002892014 -0.0033990636 -0.0038563104
000360 e7 22 0d bc 92 83 9c bb bd cf 1c bc 54 16 c7 bb
       -0.008614278 -0.0047764266 -0.009571013 -0.0060756598
000370 2e dd 02 bc 85 ac d2 bb e4 60 ee ba d6 4c 39 3b
       -0.007987304 -0.0064292573 -0.0018186835 0.0028274558
000380 3e fa cb bb 68 3a b1 bb 38 b0 d2 ba 20 ff fa 3a
       -0.0062248996 -0.005408574 -0.0016074246 0.001914952
000390 8a 7b 17 3b e4 73 95 3b c4 cc 82 3b 5a c2 ab 3b
       0.0023114407 0.0045609344 0.003991695 0.0052416744
0003a0 af c9 80 3b 58 f5 c2 3b 0e 61 d9 3b ff a4 d1 3b
       0.0039302926 0.0059496574 0.0066338843 0.006397843
0003b0 b4 1d 62 3b 44 4c c0 3b 16 ae 3b 3b 6c 0c 01 ba
       0.0034502568 0.0058684666 0.00286377 -0.00049228105
0003c0 c8 47 f0 ba fa fa 10 bb 1c 3b 90 bb 62 c9 53 bb
       -0.0018331939 -0.002212225 -0.0044015776 -0.0032316078
0003d0 93 49 71 bb 56 52 ca bb ff 72 d5 bb c5 72 0f bc
       -0.0036817535 -0.006174366 -0.0065139527 -0.0087553905
0003e0 81 23 02 bc 3b d9 a5 bb 83 60 b3 bb 51 dc 3b 3a
       -0.007943035 -0.0050612963 -0.0054741516 0.00071663136
0003f0 43 d7 91 bb b2 0a 8c ba d0 72 4a b9 1d f6 15 3b
       -0.00445071 -0.001068434 -0.00019306992 0.002288229
