noisy_linear_weights_20ep.pth (torch, 101725 bytes, 1 tensors)

linear.weight f4 [32, 784]
0	0x3a645d80	0.00087114424
1	0x3b0b4d17	0.0021255666
2	0xbb7cd157	-0.0038576925
3	0xbb37f762	-0.0028071036
4	0xbbcf85a7	-0.0063330713
5	0xbbc3a20b	-0.0059702448
6	0xbc41af12	-0.011821525
7	0xbc59e0fa	-0.0132982675
8	0xbca29ac6	-0.019849192
9	0xbca62e76	-0.020285826
10	0xbca0c896	-0.019626897
11	0xbc9d866d	-0.019229138
12	0xbc8a8843	-0.016910678
13	0xbc9ee398	-0.019395635
14	0xbc90fc4f	-0.017698435
15	0xbc9548fd	-0.01822328
16	0xbc792e52	-0.0152087975
17	0xbc427d4b	-0.0118706925
18	0xbc9251c2	-0.01786125
19	0xbc50ac26	-0.012736356
20	0xbc3d6c7b	-0.011561508
21	0xbc3124d9	-0.010812008
22	0xbbd04756	-0.00635616
23	0xbb923abf	-0.0044625695
24	0xbb60b310	-0.0034286417
25	0xbb09b324	-0.0021011317
26	0x3a22f99d	0.0006217005
27	0xbaa372d2	-0.0012470132
28	0xbb2088f3	-0.002449569
29	0xbb8eb770	-0.0043553635
30	0xbb4a54b9	-0.0030873253
31	0xbbccb669	-0.006247331
32	0xbba8eb26	-0.005154985
33	0xbc0a9fcd	-0.008460951
34	0xbc5e6f79	-0.013576382
35	0xbc771d2c	-0.015082639
36	0xbc3c74fd	-0.011502502
37	0xbc7c3877	-0.015394322
38	0xbc6760f6	-0.014122238
39	0xbc53b135	-0.012920667
40	0xbc68e00a	-0.014213571
41	0xbc348adc	-0.011019435
42	0xbc237c34	-0.009978343
43	0xbc368053	-0.011138993
44	0xbc0fcda0	-0.008777052
45	0xbbbf0c5f	-0.005830332
46	0xbc01a448	-0.007912703
47	0xbc3c7bc7	-0.01150412
48	0xbc1704d1	-0.009217457
49	0xbb975e17	-0.0046193707
50	0xbbfa5486	-0.0076394705
51	0xbbeb6657	-0.0071838307
52	0xbb91f15c	-0.004453821
53	0xbb8b0554	-0.0042425785
54	0xbb27da80	-0.0025612414
55	0xbb346a29	-0.0027529097
56	0xbb894e00	-0.0041902065
57	0xbba479e1	-0.005019412
58	0xbacdf677	-0.0015713711
59	0xbc1854d3	-0.009297567
60	0xbc1686a3	-0.009187373
61	0xbc2ad8e5	-0.010427688
62	0xbc6b1e94	-0.014350552
63	0xbc5cd463	-0.013478371
64	0xbc6ef74e	-0.014585329
65	0xbc8c9afe	-0.01716375
66	0xbc52a5da	-0.012856925
67	0xbc4379bb	-0.011930878
68	0xbc6c17eb	-0.014409999
69	0xbc1a0d64	-0.009402607
70	0xbc2bd560	-0.010487884
71	0xbbed08ba	-0.0072337063
72	0xbc098858	-0.008394323
73	0xbc1eab84	-0.009684447
74	0xbbc4add7	-0.0060021686
75	0xbb2ee034	-0.0026683928
76	0xbbacc3e7	-0.005272377
77	0xbc003ad9	-0.00782653
78	0xbba5d166	-0.0050603626
79	0xbb95f7df	-0.0045766677
80	0x3930102f	0.00016790697
81	0xbb5ea856	-0.0033974848
82	0xbb3ad3b1	-0.0028507526
83	0xbb2afbbd	-0.002608999
84	0xbb50487e	-0.003178149
85	0xba4a6781	-0.0007721112
86	0xbc047a53	-0.008085805
87	0xbbc2d7cc	-0.005946135
88	0xbc506721	-0.0127199
89	0xbc466980	-0.012110114
90	0xbc6b44d2	-0.01435967
91	0xbc717566	-0.014737463
92	0xbc41a5b5	-0.011819293
93	0xbc20cfd2	-0.009815173
94	0xbc5c0f57	-0.013431392
95	0xbc3a9231	-0.011387394
96	0xbc6e8626	-0.014558351
97	0xbbff8ac3	-0.007798524
98	0xbc61a34e	-0.013771845
99	0xbc10aabf	-0.008829772
100	0xbbe7def5	-0.007076139
101	0xbc06f571	-0.008237229
102	0xbba28bec	-0.0049605276
103	0xbbdb688f	-0.006695814
104	0xbbc864ef	-0.006115548
105	0xbbe9b8fc	-0.0071326476
106	0xbbdc44f4	-0.006722087
107	0xbbf78b50	-0.007554449
108	0xbb80dd10	-0.0039326027
109	0xbb664e26	-0.0035141795
110	0xbb16d86b	-0.0023017179
111	0xbb5aee9a	-0.0033406378
112	0xba8dd6df	-0.0010821483
113	0xbba14292	-0.004921266
114	0xbb90cc02	-0.004418851
115	0xbc27c98d	-0.010240925
116	0xbc54b6e5	-0.012983059
117	0xbc3bdcc2	-0.011466207
118	0xbc3072b9	-0.0107695395
119	0xbc33fb0d	-0.010985148
120	0xbc78715d	-0.015163747
121	0xbc62be48	-0.013839312
122	0xbc558ebe	-0.013034521
123	0xbc239c53	-0.009986001
124	0xbc79ab67	-0.015238619
125	0xbc0abb49	-0.008467504
126	0xbc20f3df	-0.009823768
127	0xbc2657fe	-0.010152815
128	0xbbb63462	-0.0055604437
129	0xbc10c2bb	-0.00883549
130	0xbba5bcc1	-0.0050579016
131	0xbbf1927b	-0.007372198
132	0xbbdfed48	-0.006833706
133	0xbbc434d2	-0.005987742
134	0xbb4eda00	-0.0031563044
135	0xbb29d6e7	-0.0025915445
136	0xbbe6c15a	-0.0070420923
137	0xba6257fb	-0.0008634326
138	0xb986860f	-0.00025658353
139	0xb9dbbadf	-0.00041910165
140	0xbb331c6b	-0.002733017
141	0xbba5e501	-0.0050627
142	0xbbfc6dd3	-0.0077035218
143	0xbbb6703a	-0.0055675777
144	0xbc060973	-0.008180964
145	0xbc1b721a	-0.009487653
146	0xbc2f7414	-0.0107088275
147	0xbc679eb3	-0.014136958
148	0xbc4e77a9	-0.012601771
149	0xbbeaea61	-0.0071690534
150	0xbc6408f2	-0.013918148
151	0xbb934f54	-0.0044955406
152	0xbc002009	-0.007820138
153	0xbc1964ba	-0.009362394
154	0xbbb5d77a	-0.0055493684
155	0xbbc7bd46	-0.006095561
156	0xbc04d6f8	-0.008107893
157	0xbba58598	-0.005051326
158	0xbb7d5796	-0.0038656942
159	0xbba78ee0	-0.0051134676
160	0xbb1cb167	-0.002390945
161	0xbb6bd65b	-0.003598592
162	0xbc027bb9	-0.007964068
163	0xbb6ca898	-0.0036111232
164	0xbbc5e678	-0.006039437
165	0xbbc0a1d9	-0.0058786687
166	0xbbb7c7bd	-0.0056085275
167	0xba59890c	-0.00082983146
168	0xbbb51f78	-0.005527433
169	0xbb823519	-0.003973615
170	0xbc4cc195	-0.012497325
171	0xbc21c331	-0.009873197
172	0xbc91b542	-0.017786626
173	0xbbff6fe1	-0.0077953194
174	0xbc20ad6f	-0.009806975
175	0xbc1b0e08	-0.0094637945
176	0xbbed7626	-0.0072467504
177	0xbc3f94e6	-0.011693215
178	0xbba80258	-0.0051272325
179	0xbc01182b	-0.007879297
180	0xbc2d441b	-0.01057532
181	0xbbd05f11	-0.006358989
182	0xbbfd9a12	-0.007739314
183	0xbbe6aeff	-0.007039904
184	0xbb284307	-0.0025674717
185	0xbba3e585	-0.005001726
186	0xbb9899cd	-0.0046570064
187	0xb9e3f100	-0.00043476373
188	0xbb2d222a	-0.0026418068
189	0xbb132206	-0.00224507
190	0xbb066b84	-0.0020510862
191	0xbb95fa72	-0.0045769745
192	0xbc0baf14	-0.008525629
193	0x3a1b028b	0.00059131597
194	0xbb3adc12	-0.002851252
195	0xb9286c9b	-0.00016062187
196	0xbbc3482a	-0.0059595304
197	0xbbbf2702	-0.0058335075
198	0xbc5d0e6b	-0.013492207
199	0xbc4c95dd	-0.012486902
200	0xbc4b79c2	-0.012419166
201	0xbc208403	-0.009797099
202	0xbc002eae	-0.007823629
203	0xbbf38b71	-0.007432394
204	0xbc20b425	-0.009808575
205	0xbc30200e	-0.01074983
206	0xbc0ea026	-0.008705175
207	0xbbdd3bf3	-0.0067515313
208	0xbb9e05a6	-0.0048224507
209	0xbbad712e	-0.005293033
210	0xbc0c746a	-0.008572677
211	0xbabdad1f	-0.001447115
212	0xbba490d7	-0.005022149
213	0xba4d5d89	-0.0007834067
214	0xba6292b5	-0.0008643077
215	0xbb7ec989	-0.0038877449
216	0xba10b12b	-0.0005519564
217	0xbbccbebd	-0.0062483237
218	0xba45da42	-0.00075474766
219	0xbae12702	-0.0017177763
220	0xb96a81cc	-0.00022364332
221	0xbae3e410	-0.0017386694
222	0xbb39a50b	-0.0028327133
223	0xbb3402fa	-0.0027467594
224	0xbc143bad	-0.009047431
225	0xbc32acd9	-0.010905468
226	0xbc27adb0	-0.010234281
227	0xbc78b3f8	-0.015179627
228	0xbc287f31	-0.010284231
229	0xbc41f480	-0.0118380785
230	0xbbf15e05	-0.0073659443
231	0xbbe7a30c	-0.0070689972
232	0xbbe40b6f	-0.006959371
233	0xbb9cd041	-0.004785568
234	0xbba8f41a	-0.0051560523
235	0xbb783f57	-0.003787955
236	0xbb8ee616	-0.0043609245
237	0xbb65744c	-0.0035011945
238	0xbb209d30	-0.0024507754
239	0xbb44e745	-0.0030045074
240	0xbb5a496e	-0.0033307928
241	0xbb01af29	-0.0019788241
242	0x381831c3	3.628597e-05
243	0xbbb4ad8f	-0.005513854
244	0xba5555f2	-0.0008138112
245	0xba4ac76a	-0.00077354035
246	0xbba5157e	-0.0050379625
247	0xbadd14d8	-0.0016867174
248	0xbac0e4c9	-0.0014716621
249	0xba625aee	-0.00086347654
250	0x3ab5514e	0.0013833435
251	0xbab179dc	-0.0013540345
252	0xbc12292d	-0.00892095
253	0xbc00eed8	-0.007869445
254	0xbc4db452	-0.012555199
255	0xbc3ddb3c	-0.011587914
