noisy_50.pth (torch, 101665 bytes, 1 tensors)

linear.weight f4 [32, 784]
00000000: bfd3 5fbc 1713 09bc 3a1c 66bb 8909 3839
00000010: 4df1 be3a 8450 963b 5a19 b33b e60e ce3b
00000020: da54 c33b 262f 493b 5bdf c43b 6817 b0b9
00000030: a59b 25ba ff07 9fb9 c47b 17bb 8c96 72bb
00000040: b665 97bb efb9 69bb 90c7 eebb e60d d2bb
00000050: c9fd 1bbc 60af 07bc 09e3 d3bb 7866 6fbb
00000060: ef6b 5d3b 767e 053c 7000 413c c288 9e3c
00000070: 5c31 41bc fdfa f2bb 8644 dcba 649f 96b9
00000080: 1ff9 db3a 09fd 9d3b c7ef f53b 568b b83b
00000090: a1b6 743b 764b f13a fc39 123b 6969 0c3a
000000a0: 52fc 1c3b 79d0 3abb f3b8 e8ba 0358 e8ba
000000b0: 989e a1bb 2db4 b1bb e89a 40bb eff4 d1bb
000000c0: 3daf c2bb a69e f4bb 1c36 99bb e3ea 38bb
000000d0: 5459 65b9 62bf c03b ac32 9b3b 2861 983c
000000e0: b43b 27bc d9c7 9abb 5778 78bb 47d5 f039
000000f0: 105b 9a3a 9ac3 363b 28e1 083b 140a 893b
00000100: d065 a33b 7489 683b 9dca 7eb9 70ed a43a
00000110: 9f95 af3a 8587 d439 6b09 a5b8 3d08 73b8
00000120: 5d03 caba 4432 38bb 5098 b9bb 44ae 9dbb
00000130: 44d8 85bb b6e1 f1bb 054a d1bb 5264 a3ba
00000140: 86d1 8fba 6520 8f3b 9703 be3b 668c 433c
00000150: fe7a 26bc 5ed1 c5bb 71fb 91ba 2f42 d339
00000160: 25a5 8f3a 514b 983b d212 243b 73b0 863b
00000170: 9bf6 093b 883f 853b 866c 653b 873a bf3a
00000180: 1101 b2b7 173f a03a 2f3a aeba d332 26b9
00000190: dd08 af38 925e 8cbb e573 cebb 262b 66bb
000001a0: 4b54 d0bb 392f cbbb 9034 a2bb 9e80 c0bb
000001b0: 40b4 3cbb 828a 343a 1739 ad3b 87ed 5b3c
000001c0: 45ca 06bc 4a2c 81bb ae6b 9dbb 9f57 6eba
000001d0: 44b5 a83a ab48 813a b78a 993b c5e3 6e3b
000001e0: ea16 573b f89a a33b aefc 703b 25a4 c13a
000001f0: 37ed 4d3b e8b9 413b 82bd a83a 44b3 acba
00000200: 5021 d5ba 84b2 3abb 229e 9fbb 1f9e 97bb
00000210: 5531 b6bb 7303 a1bb 6654 c9bb f71e eebb
00000220: 8feb cdba 3605 7fbb 72a7 423b 9741 0a3c
00000230: eb52 33bc 55f2 70bb a15d 3fbb d7c0 dab9
00000240: 306e 7e3b 090c 5a3b 0db4 973b dd04 853b
00000250: 3f46 a33b 2fad ad3b ca47 8b3b 428b 503b
00000260: 8784 c23a 03a7 e039 b0e0 4f39 1a6b 0dbb
00000270: 9818 bfba 1fba 4cbb f239 82bb f898 98bb
00000280: 9dca 8fbb eeac c4bb 93e3 c0bb 5d5c 05bc
00000290: 6570 c2bb 6b4b 8fba fe2e b73a 0d9c bb3b
000002a0: 04d8 febb 47c2 83bb 48a6 10bb 2237 8ab6
000002b0: 4555 8a3b 9aba b13b fcac bf3b 947b a13b
000002c0: 0718 a53b e5b0 903b 38c6 8e3b b8b6 8a3b
000002d0: 1903 823b 6bf1 3d3b fb29 3b3a cdf8 2639
000002e0: 0864 02bb cd5a 45bb 3221 56bb ac1b c3bb
000002f0: 6c2a 9fbb 2593 b8bb da61 cbbb 621b f5bb
00000300: 1454 d8bb a1ad 9bbb 2bcd afba 1d82 983b
00000310: 3aa5 78bb 0db5 38bb 22b8 113a 85f1 683b
00000320: 2ea4 2b3b 8edc 5f3b dba6 7b3b 7255 9c3b
00000330: b8ef ac3b 6968 c73b df47 863b 2708 ef3b
00000340: 9410 8a3b e635 2b3b f117 473a ecc5 6dba
00000350: af8c 41bb c1aa 14bb afae 42bb 7d1c 91bb
00000360: 4ff8 a8bb e1f4 9ebb b9b5 d8bb 337a dcbb
00000370: 0d0b 0abc cf61 d1bb 7997 44bb a554 ad3a
00000380: f1c6 9ebb 3627 3abb 0ac6 a5ba b993 2a3b
00000390: 3cd0 e33a 94fd 3c3b 727e a03b b9d8 033c
000003a0: 222b 533b cc08 973b c2c2 d63b a210 6b3b
000003b0: d130 d43b fdab 383b ff3e 373b 7237 01ba
000003c0: 9e83 a9b9 f207 0bbb 56bf 46bb c269 85bb
000003d0: 8ec1 c3bb 1c91 b3bb 7abf a8bb f67e e3bb
000003e0: 3618 13bc 9049 c6bb 70a6 93bb 7c56 0f3b
000003f0: 5812 5bbb 17b2 82ba 97a4 bbb9 2790 af3a
-0.013661324 -0.008366368 -0.003511204 0.0001755116 0.0014567763 0.004587235 0.0054656686 0.006288397
0.005961043 0.0030698269 0.0060080714 -0.00033586775 -0.00063174433 -0.000303328 -0.0023114542 -0.0037016002
-0.004620279 -0.0035663804 -0.0072869733 -0.006410348 -0.009520956 -0.008281559 -0.0064662737 -0.0036529582
0.0033786257 0.008147826 0.011779889 0.01935232 -0.011791553 -0.007415174 -0.001680509 -0.00028728985
0.0016782618 0.004821424 0.0075053903 0.0056318445 0.00373403 0.001840933 0.0022312393 0.00053562835
0.0023954106 -0.0028505607 -0.0017755314 -0.0017726425 -0.004932236 -0.00542309 -0.0029389206 -0.006407372
-0.0059413 -0.0074652014 -0.00467564 -0.0028216175 -0.00021872419 0.0058821896 0.004736265 0.018601015
-0.010207105 -0.0047235307 -0.0037913525 0.0004593527 0.0011776406 0.0027887584 0.0020886157 0.0041821096
0.004986502 0.003548232 -0.00024298807 0.0012582969 0.0013396031 0.0004053676 -7.869567e-05 -5.7943387e-05
-0.0015412379 -0.0028106133 -0.005663909 -0.004812034 -0.0040846188 -0.007381643 -0.0063869976 -0.0012465811
-0.0010972477 0.0043678754 0.005798768 0.011935329 -0.01016116 -0.0060369214 -0.0011137557 0.00040294367
0.0010959251 0.0046476503 0.0025035632 0.00411039 0.002105153 0.0040664114 0.0035007312 0.0014589586
-2.121975e-05 0.0012225833 -0.0013292487 -0.00015849927 8.346301e-05 -0.0042837346 -0.006300437 -0.0035120933
-0.0063577048 -0.0062006977 -0.0049501136 -0.0058747074 -0.002879396 0.00068870944 0.0052863467 0.01342333
-0.008226936 -0.0039420472 -0.004804096 -0.0009092036 0.0012871404 0.0009863576 0.0046857256 0.003645168
0.0032820054 0.004992839 0.0036771703 0.001477365 0.0031421909 0.0029560272 0.001287386 -0.0013175984
-0.0016260538 -0.0028487751 -0.004871146 -0.004627004 -0.00556008 -0.0049137413 -0.0061440943 -0.007266875
-0.0015710461 -0.0038913018 0.0029701856 0.008438489 -0.010945062 -0.0036765535 -0.0029200094 -0.00041723877
0.0038823 0.0033271334 0.004629618 0.0040594176 0.004982739 0.005300186 0.0042505013 0.0031821285
0.0014840522 0.00042849043 0.00019824761 -0.002157873 -0.0014579473 -0.0031238867 -0.003974193 -0.004656907
-0.004388167 -0.00600206 -0.005886504 -0.008139697 -0.0059338086 -0.001093251 0.0013975797 0.00572539
-0.007777216 -0.0040209624 -0.0022071768 -4.119139e-06 0.0042215907 0.005423856 0.0058494788 0.0049280617
0.0050382647 0.0044156187 0.0043571256 0.0042332076 0.0039676544 0.0028983008 0.00071397395 0.00015923679
-0.001989605 -0.0030113936 -0.0032673595 -0.0059542265 -0.004857352 -0.0056327754 -0.006206733 -0.007480071
-0.00660182 -0.004750923 -0.0013412585 0.0046541826 -0.003794028 -0.0028184087 0.0005558749 0.0035544347
0.0026190388 0.003415856 0.0038399014 0.004770928 0.0052776 0.0060854447 0.004097923 0.007294673
0.004213402 0.0026124655 0.0007594815 -0.0009070325 -0.0029533317 -0.0022684785 -0.002970617 -0.004428445
-0.005156554 -0.004850969 -0.00661346 -0.0067284345 -0.008425486 -0.0063898335 -0.0029997511 0.0013224079
-0.004845493 -0.002840472 -0.0012647521 0.002602799 0.0017380784 0.0028837668 0.004897886 0.008047276
0.0032221754 0.004609203 0.0065539787 0.0035868068 0.006475546 0.0028178685 0.0027961133 -0.00049292215
-0.00032332254 -0.0021214453 -0.0030326447 -0.004071445 -0.0059740013 -0.005479945 -0.005149779 -0.006942625
-0.00897794 -0.00605125 -0.004505925 0.0021871617 -0.0033427682 -0.0009971288 -0.00035790048 0.0013394401
