noisy_40.pth (torch, 101665 bytes, 1 tensors)

linear.weight f4 [32, 784]
00000000: 6de1 5fbc bc0f b3bb acfa 8dbb b385 6eba
00000010: 4bbc a43b a79c 893b 8f04 e33b d71c b03b
00000020: fe76 a83b 4da1 5d3b 82ef 593b 2480 403a
00000030: d2f6 eb3a be89 5f39 e7be 02bb e5d9 e1ba
00000040: 6a1c 1abb 2d4e afbb 3563 01bc 325f eebb
00000050: c3bc f1bb 3aad 07bc 0314 00bc 877f 1ebb
00000060: 5136 9e3a b1d4 0d3c a4d0 293c f975 a73c
00000070: e044 3cbc a347 bbbb b026 58bb 6aa3 21bb
00000080: 908b 0a3b a974 a13b 3dc7 4b3b 2ed6 583b
00000090: ca65 a23b e08d 353b be48 703b 0876 583b
000000a0: 6c4d 923a 90e5 1dbb 1124 c539 b130 b7ba
000000b0: 741f 64bb ff3d 84bb df63 74bb 8ef7 b2bb
000000c0: d77b a8bb b611 0cbc e4d6 fcbb 080d 46bb
000000d0: 0cd3 cc38 4b31 af3b 3664 0d3c 696f 843c
000000e0: 7b7e fbbb a528 93bb ba94 25bb 3de4 4cbb
000000f0: aa04 8c3a 8d1d 363b 5cc1 8a3b ec44 193b
00000100: 6bf5 b43b 55cf 1a3b 8fc0 5c3b 7f9c 193b
00000110: 0343 a83a bf23 553a a656 0cbb 15b5 90ba
00000120: 7cd6 4abb 4a42 81bb cf2d bcbb 57d2 d4bb
00000130: 0734 8fbb 5b28 d1bb a9d5 c1bb 0bbf 7ebb
00000140: 2410 85b9 1498 523b 733c 023c df97 623c
00000150: 63d2 3fbc a737 bdbb 04dd f1ba ea2e 40b9
00000160: 3d17 883b d5da 2c3b ba41 a03b 4ad0 353b
00000170: 0529 9f3a 1bf2 463b 8643 943a d854 5d3a
00000180: 35bc c939 1fd2 8cb9 1eee 18bb e1ae 65ba
00000190: d31f 50bb 3865 50bb 6035 8ebb f2d6 aebb
000001a0: f0b7 b7bb 47c4 a9bb 965b 1abc bce9 e0bb
000001b0: 1f1f 4dbb 13b5 8b3a 33fa 973b a260 493c
000001c0: 3da1 28bc d152 dabb 97a6 4abb 8dc3 45ba
000001d0: fad7 a13a 750a 963b 2245 e13b 64d6 b23b
000001e0: 10a6 993b 7416 873b 2c37 973b 5251 543b
000001f0: 6a52 a53a bc57 6c3a 215e 14ba fbf0 f7ba
00000200: 7ed8 7a39 d672 81bb 9c89 96bb 1d66 dcbb
00000210: f204 d2bb 1e72 c3bb 461e debb 0c78 cabb
00000220: 3d7d 2bbb 32c1 b0ba a3e5 f93a e874 3a3c
00000230: 7388 0dbc f2e8 49bb e779 34bb 8266 87b9
00000240: f736 6e3b aec6 ab3b 277a b43b 932d a23b
00000250: a8d1 b03b 74e9 863b eeda 923b 9273 893b
00000260: 9124 6c3b c490 193b 1fa7 783a 4c7a 5fba
00000270: a1b1 62bb 35b0 98bb 8da4 2fbb 5fad 9ebb
00000280: f1f0 96bb 1f75 c9bb 119e eebb d137 e2bb
00000290: 3a0b 80bb 51c6 ccb9 8fbc 8339 a43f dd3b
000002a0: 72b6 e0bb 46d9 b3bb 1906 0bbb 0dd9 2a3a
000002b0: f19d 573b cb8d b73b bcf5 cf3b b9d6 993b
000002c0: b7d3 8b3b 9bd1 df3b ebb9 ba3b 987b 983b
000002d0: ba00 943b f4cb f93a 8ab6 0fba e45d f0b9
000002e0: 1850 e3ba b5d1 11bb 868d 6ebb c614 92bb
000002f0: 4e46 c6bb e0a5 b1bb e536 aabb 6ae0 ffbb
00000300: 1f31 9dbb 0e2d 95bb 9e7e e7b7 f343 363b
00000310: 7e03 f4bb 8c50 b3bb 84f5 4eba e24b 673b
00000320: acb0 743b cd2d b63b 7874 cc3b 8421 a63b
00000330: 8ba7 df3b 1e29 bc3b 0c8b c23b bc59 993b
00000340: dfe0 6f3b 30ed b13a e5e8 a03a 9cea 163a
00000350: 3e16 19bb e3a4 56bb a097 92bb 3bb2 a1bb
00000360: 37c2 abbb 6057 89bb 42f8 b4bb 2ab2 ebbb
00000370: 2c5c 08bc 7a94 babb abf6 e4ba 7943 173b
00000380: a398 c4bb f8f5 b4ba 38b1 633a 9359 423b
00000390: 4735 d13b f135 ce3b 1332 983b 63ee 8c3b
000003a0: 95c1 b33b b350 ee3b 8495 f93b 678b e23b
000003b0: 4778 8f3b e0e4 a33b 960b 383b 3684 8db8
000003c0: 5764 a3ba 0975 27bb 9d90 40bb 2c5f 96bb
000003d0: 77c8 a0bb e991 c3bb 6f97 babb cd84 04bc
000003e0: 3f43 d7bb be37 8bbb 3d7f 89bb 2727 cf3a
000003f0: 1090 8cbb f59d c8ba 1bd3 213a be52 423b
-0.013664586 -0.005464522 -0.004332861 -0.0009098902 0.005027329 0.0041995826 0.0069280337 0.0053745317
0.005141138 0.0033818067 0.003325433 0.0007343313 0.0018002635 0.0002131825 -0.0019950212 -0.0017231075
-0.0023515471 -0.0053498955 -0.007897188 -0.0072745318 -0.0073772385 -0.0082810465 -0.007817271 -0.00241849
0.0012070631 0.008656667 0.010364685 0.020441996 -0.01149103 -0.005715327 -0.0032982044 -0.0024664053
0.0021140315 0.004927237 0.0031094097 0.0033086645 0.004955982 0.0027702972 0.0036664451 0.0033029336
0.001116199 -0.0024093129 0.0003760164 -0.0013976303 -0.0034808787 -0.004035711 -0.0037290973 -0.0054616397
-0.005141716 -0.0085491445 -0.0077160466 -0.003022017 9.7667886e-05 0.0053464524 0.008629849 0.016166406
-0.0076749898 -0.004490929 -0.002526565 -0.003126397 0.0010682542 0.002778861 0.004234476 0.0023387028
0.00552242 0.0023622115 0.003368411 0.0023439226 0.0012837354 0.0008130632 -0.0021413951 -0.0011040295
-0.0030950597 -0.00394467 -0.0057427655 -0.006494801 -0.004370216 -0.0063829846 -0.005915363 -0.0038871195
-0.00025379763 0.0032134103 0.0079489825 0.013830154 -0.011707875 -0.0057744565 -0.0018452709 -0.00018328024
0.004153161 0.0026375551 0.0048906477 0.0027742558 0.0012142962 0.0030356708 0.0011311627 0.00084431237
0.00038477933 -0.00026859433 -0.0023335288 -0.0008761716 -0.003175725 -0.0031798612 -0.004339859 -0.005335682
-0.005606644 -0.005180869 -0.00942125 -0.006863801 -0.0031299067 0.0010658823 0.0046379804 0.012291105
-0.010292348 -0.0066627045 -0.003092205 -0.0007544093 0.0012347691 0.0045788833 0.0068746964 0.0054576863
0.0046889856 0.0041225497 0.0046147313 0.0032397103 0.0012613062 0.0009015759 -0.0005659778 -0.0018916422
0.00023922508 -0.003950457 -0.004594041 -0.00672604 -0.006409281 -0.0059645316 -0.006778511 -0.0061788615
-0.0026167177 -0.0013485311 0.001906563 0.011380412 -0.008638489 -0.0030809012 -0.002753848 -0.0002582558
0.003634868 0.0052421903 0.0055077258 0.0049492805 0.0053960867 0.0041171852 0.004481665 0.0041946853
0.0036032537 0.0023432234 0.0009485352 -0.00085249986 -0.0034590738 -0.0046596774 -0.002680096 -0.004842445
-0.004606359 -0.006147995 -0.0072820266 -0.0069036265 -0.0039075883 -0.0003905767 0.00025126754 0.0067519713
-0.0068576867 -0.0054885475 -0.0021213351 0.00065173284 0.0032900537 0.00560162 0.0063464325 0.0046947864
0.0042671817 0.006830407 0.0056984327 0.0046534054 0.004516688 0.0019057975 -0.00054822175 -0.0004584632
-0.0017342595 -0.002225024 -0.0036400273 -0.004458043 -0.0060508614 -0.005421385 -0.005194532 -0.0078087347
-0.0047971155 -0.00455249 -2.7596307e-05 0.0027811497 -0.0074467054 -0.0054722484 -0.0007894861 0.0035293032
0.003733675 0.005559659 0.00623947 0.0050699133 0.0068253926 0.0057422062 0.005936986 0.0046798866
0.003660254 0.0013574716 0.0012276439 0.00057570054 -0.0023359205 -0.0032752089 -0.0044736415 -0.004934577
-0.005241658 -0.004191324 -0.0055227587 -0.0071928697 -0.008322757 -0.0056939693 -0.0017468532 0.0023080988
-0.005999641 -0.0013806215 0.00086857704 0.0029655441 0.006384525 0.0062930514 0.004644641 0.004300879
0.0054857233 0.0072728037 0.0076167006 0.0069135907 0.004378352 0.0050016493 0.0028083078 -6.74803e-05
-0.0012465817 -0.0025551936 -0.0029383071 -0.004588982 -0.00490671 -0.0059683216 -0.005694322 -0.008088303
-0.0065692957 -0.0042485883 -0.004196076 0.0015804515 -0.0042896345 -0.0015305864 0.000617312 0.002965137
