noisy_mlp_20.pth (torch, 419446 bytes, 2 tensors)

net.0.weight f4 [128, 784]
00000000: 3ce4 053d 5d9f 86bc eef6 2abb 7516 86bb
00000010: 7de3 dd3c 81ee d8bc 910f 7a3c 079a 733c
00000020: a888 1b3c 9acc c3bb d10e 8dbc 2468 d53c
00000030: 1ecc 6f3c 9d33 0b3c 9270 5c3c b535 8abc
00000040: faec 03bd 3fb3 86bc cf6b d9bc 19c3 d23c
00000050: e3d7 0e3c b720 903c 2551 b2bb 2c97 f9bc
00000060: ce50 cbbb 429c 96bc 32ef 09bd d9cd b53c
00000070: 022b dd3b 6163 75bc ba99 47ba 5c1b f63c
00000080: cb03 e9bc c32d b73c 2ac9 17bd a0e5 a6bc
00000090: 9e58 103c 7831 8f3c 03e1 5bbc a4d1 d7bc
000000a0: e4b1 13bc ca6b 073d 234f 333c 514b 14bd
000000b0: 8824 11bd bf63 fb3c 4fe4 f9bc 3bf0 0ebc
000000c0: 8c74 08bd 4795 283c 9125 033c 9275 82bc
000000d0: b11c ddbc 43b1 c8bc 4d8e 1abd 326c 82bb
000000e0: b4df 09bb 50ec c93c 0b27 0abd b760 23bc
000000f0: d4e0 ff3c 94fd 1dbd 5f18 fdbc 9767 17bd
00000100: 91b0 4abc 94fd 173c 504c fabc 6142 3cbc
00000110: 9480 1abd 1f6c 18bd 7bc4 b5bc 1578 7d3c
00000120: 8f20 aa3b 1210 ad3c 0e57 80bc fbc2 fa3c
00000130: 37d7 af3b 7170 9bbc 2055 b53b 3993 a33c
00000140: e921 e33b 3841 d33c 4bb9 ef3c 285d 8cbc
00000150: 91d3 0b3b 7df6 c73c 52e2 453c 60b8 a7bc
00000160: e987 5cbc 02e7 503c 6670 03bc 2751 1f3c
00000170: 4b22 0fbc 6f38 a63c 87cf 0dbd 3b01 74bc
00000180: 32d2 1ebc 6ac2 d339 4fcc 11bc 1190 803c
00000190: e787 25bc 75e0 50bb 085f aa3c 2904 06bc
000001a0: e050 ac3c 85c6 e83c f4b5 73bc 38f4 4cbc
000001b0: e7a1 17bd 223f 013d b540 e7bc 8552 be3c
000001c0: 8342 1c3c 3e8b f73c d292 f6bb 0f3d 8ebc
000001d0: 0404 f4bb b1ea f03c 2e25 50bc 0179 783c
000001e0: 7dd7 7fbc 57a8 913c bfb7 b9bb 882b c2bc
000001f0: bdf8 06ba bce5 c0bc 5bc7 fbba 3d66 6fbc
00000200: 8ca9 543b a4a0 7bbc 7655 c2bc 8e70 d03c
00000210: 6519 713c bc56 b1bc ac48 02bd ec32 d2bc
00000220: ee0e cf3c 92a8 17bd 3c4a d0ba 4497 363c
00000230: 032b e5bc 5ab1 d1bc fa5d 383c aca4 6e3c
00000240: 0322 fd3c 1bf9 90bb ab71 15bd 1856 94bc
00000250: 9423 dfbc 2c02 e4bc fc4b fcbc a794 fdba
00000260: 4d13 e8bc b7d4 8abc e274 1abd b0d4 6a3c
00000270: 2d84 a63c 1f62 313c 0aeb c5bc 8ff9 32bc
00000280: edcf 213c 8510 06bd 241a 313c 0882 d1bb
00000290: 6982 be3c 941a 74bc 5337 cb3b fba4 363c
000002a0: a125 14bd d883 1a3c 4ff2 01bd 3795 5d3c
000002b0: 250e ccbc 6c5a d5bc ef04 febc cd09 6bbc
000002c0: 90b6 a93b 0de7 5bbc 2bcb cb3b a42c d1bc
000002d0: 778a eabc 60ee d9b8 8065 f0bc 5a6d febc
000002e0: 85e4 fabc 77ea fabb 1c2f 1dbd 1c7c cc3c
000002f0: 0635 e7bc 7206 b0bb f315 b93b 9a29 85bb
00000300: a560 f83b c516 1f3c d915 c83a 93cd c7bc
00000310: 1fb3 07bd aa69 db3b a63d 733c 28f0 3ebc
00000320: aba3 bebb 9afa 2ebc 3c14 ea3b f0f8 45bc
00000330: 5f8d 013d bc6e c5bc 5373 903c a6c2 b33c
00000340: 43cc 3abb 97f8 06bd 2b67 bb3c 083f 4c3c
00000350: 3600 14bd d4fd f83c 8b09 edbc 6980 fd3c
00000360: 0968 a9bb 15a4 1c3c 6dbf 993b 63cc eb3c
00000370: cc37 00bd 4d93 63bc a210 01bd 3011 08bc
00000380: 0049 8abc 7aa5 883c 99c5 3cbc a26e 30bb
00000390: b838 9e3c 4149 14bd 5686 9fba 8d85 d93c
000003a0: f035 0cbd 44db 543b c37c 083b be38 0b3c
000003b0: 483d 30bc ed1c 553c 1d7a aebc 2f22 b9bc
000003c0: e3ab f63c c931 1bbd 883d 31bc cb10 023c
000003d0: a6e1 f43c 3c4f b93b ec35 12bd bdb3 f0bc
000003e0: c235 b6bc 7aa3 b7ba 23c6 ee3c ad07 03bc
000003f0: e3aa 063c e5a5 2db9 1774 09bd 5335 23bc
0.032688364 -0.016433412 -0.0026087123 -0.0040920326 0.027086014 -0.026480915 0.0152625 0.014868266
0.009493031 -0.005975318 -0.01721898 0.026050635 0.014636068 0.008496192 0.013454573 -0.016871313
-0.03220842 -0.016442893 -0.026540665 0.025727795 0.008718464 0.017593725 -0.005441802 -0.030467592
-0.006204701 -0.018385056 -0.03367538 0.022192882 0.0067495117 -0.014977307 -0.00076141546 0.030042343
-0.028444191 0.022360688 -0.03705708 -0.020373166 0.0088101905 0.017479643 -0.013420346 -0.026345082
-0.00901458 0.03306178 0.010944161 -0.03620464 -0.03543523 0.030687211 -0.030504374 -0.008724268
-0.033314273 0.010289497 0.008004562 -0.015925203 -0.02699122 -0.024498587 -0.037733365 -0.003980183
-0.0021037878 0.024648815 -0.03372864 -0.009971789 0.031235136 -0.03857191 -0.03089541 -0.036964025
-0.012371198 0.009276766 -0.030553967 -0.011490435 -0.037720278 -0.037212487 -0.022188416 0.015470524
0.0051918696 0.021125827 -0.01566651 0.030610552 0.005366232 -0.018974515 0.0055338293 0.019967662
0.0069315326 0.025787935 0.02926316 -0.017134264 0.002133582 0.024409527 0.012077885 -0.020473659
-0.013460138 0.012750389 -0.008022403 0.009723938 -0.008736203 0.020290582 -0.03462174 -0.0148928715
-0.009693669 0.00040389906 -0.008898809 0.015693696 -0.010103202 -0.0031872068 0.020797268 -0.008179703
0.021034658 0.028414974 -0.014874924 -0.012509398 -0.037019636 0.03155435 -0.028229097 0.023232708
0.009537342 0.030217763 -0.0075248266 -0.0173631 -0.0074467678 0.029408785 -0.012704177 0.015165568
-0.015615341 0.017780466 -0.005667656 -0.023702398 -0.0005148759 -0.023547046 -0.0019209193 -0.014611778
0.003244969 -0.015358124 -0.023722392 0.025444295 0.014715527 -0.021647803 -0.031807587 -0.025659047
0.025275674 -0.037025996 -0.0015891264 0.011144463 -0.027974611 -0.025597263 0.0112528745 0.014565628
0.030900007 -0.004424227 -0.036485355 -0.018107459 -0.027238645 -0.027833067 -0.03079795 -0.001934667
-0.028329516 -0.016947133 -0.037709124 0.014332935 0.020326698 0.010826617 -0.024159927 -0.010923757
0.0098762335 -0.032730598 0.010809455 -0.0063936748 0.023255544 -0.014898915 0.0062016635 0.011147733
-0.0361687 0.009430848 -0.031725224 0.013524345 -0.024909088 -0.026044093 -0.031008212 -0.014345598
0.005179234 -0.013421786 0.006219288 -0.025533982 -0.028630478 -0.00010391767 -0.029345274 -0.031058002
-0.030626545 -0.007657345 -0.038375005 0.024961524 -0.028223526 -0.005371862 0.0056483685 -0.004063797
0.0075798803 0.0097100185 0.00152653 -0.024390018 -0.033129808 0.0066959457 0.014846241 -0.011653937
-0.0058178506 -0.010679865 0.0071435254 -0.012083277 0.031628963 -0.024100654 0.017633116 0.021943402
-0.0028503097 -0.032951917 0.022876343 0.0124662 -0.036133014 0.030394472 -0.028935215 0.03094502
-0.0051698727 0.009560605 0.004692009 0.028783983 -0.031303212 -0.0138901 -0.031510003 -0.008304879
-0.016880512 0.016680468 -0.01152172 -0.002692141 0.019314155 -0.036202673 -0.0012170773 0.02655294
-0.034231126 0.0032479325 0.0020826317 0.008497415 -0.010756798 0.013007385 -0.021298463 -0.022599308
0.030111259 -0.037889276 -0.010817893 0.007938574 0.029892754 0.0056551974 -0.035695955 -0.02938258
-0.02224243 -0.0014010512 0.029147213 -0.0079974355 0.0082194535 -0.00016560366 -0.033557978 -0.009961444

net.2.weight f4 [32, 128]
00000000: fec3 1e3d d003 963c f04d 77bd e166 fe3d
00000010: 9979 79bd 560a abbc 3e63 0cbd 2a50 603d
00000020: d4a4 0bbd 9ee2 37bd 58ba 12be 071c ffbd
00000030: d6f9 9b3d be88 123c e63e 673c 1ae6 4dbd
00000040: d9d5 74be 76f0 613d 085b 573e e688 253d
00000050: 7104 24bd fa34 54bd faf6 a1bd f107 893b
00000060: 9cfb 0bbe 9ad4 9abd a359 a5bb e9db e2bd
00000070: d737 96bd 5167 72bd 3faa cd3d c67c 533d
00000080: 14ea aab9 138f e73a 2599 7fbd d4e1 e63c
00000090: 9dbe 9b3d b5ed 14bc 7de3 913d 865a 1dbd
000000a0: c9b0 983c 3364 98bd a863 a7bd 8775 b6bd
000000b0: 2df8 83be 111a 9f3c b4c9 803d b7b4 3f3e
000000c0: 748a 90bd 5123 14be 96bb 05be aa67 1c3b
000000d0: c035 d0bc 02c5 893d c3f2 b13d f231 3bbc
000000e0: dcad 6c3c c0a6 493d 55d0 0bbd d71d 8cbd
000000f0: 854d 63be d43b 443d 9be0 923d b5e2 793d
00000100: 8661 b03d cbbf 96bd d6ed 133e f956 4f3c
00000110: a179 00bd 1d3f 8d3d 5862 aabd 8185 303e
00000120: 07c0 adbc 6d4f e0bc 8c70 42bd c450 343d
00000130: 8a5e eb3d 897d 9b3d fd62 3cbd d9f6 5ebd
00000140: b2c4 bd3b 67e4 b43d fc8c 87bc c77e 95bd
00000150: e12b 67bd 68f7 a13d 4c6d 7e3d dfa2 cdbb
00000160: 8dae a03d f3e4 11be 5055 b93c c173 4fbd
00000170: 7169 953d 120d 5b3c abec 903d da88 e3bc
00000180: ed56 37be 282e 47bd 81ed 65bd d944 88bd
00000190: 0be6 163d f309 37bd 5c67 45bc bd4b 14bd
000001a0: 6b22 343d fbfe e2bd a024 50bc 8726 85bd
000001b0: c451 0fbe aa14 4fbd 7f4d a43d 1313 fe3c
000001c0: 29a4 6e3d a608 b0bd 2d48 3dbe 6231 be3d
000001d0: f937 993d 15ce 033d 1326 91bc 0368 c8bc
000001e0: 20b0 52bd f779 25be e150 f73d 8dfa 023d
000001f0: fb0b 91bd c623 9abd 99d2 94bd d9d5 6bbd
00000200: 10b8 b439 22d7 513d 1b99 ed3c ef5b 183e
00000210: 8b3a eabc 4019 a53d 7c9c 90bc 8297 6dbd
00000220: a316 4abc 5e2b b23d 2dc1 653d fa2b ca3d
00000230: 60b4 8cbd a635 96bd d05f 3bbc cf5e 28bd
00000240: 68e5 bebd d98e a339 b361 723b 2a7d fdbc
00000250: 0361 6cbc f584 70bd 963e 023d 6896 84bd
00000260: c041 be3c e0a6 b93c 79b1 f0bc 1548 5f3b
00000270: 3609 a53b ebf2 e23d 97e3 d03d 3ff6 9ebd
00000280: be63 5c3d 9fd1 c2bd 741e aabd 4df7 8c3d
00000290: 4208 17bd 46cb 08bd 6b26 0f3d 225d ad3a
000002a0: 98bb a83d 2ff7 43bc 5898 f2bd 5347 b2bd
000002b0: 311f 1dbc c08f 233d d31d de3b 7cd1 a03d
000002c0: bcae 8abd 5d8b bf3d 4b2b b0bd c868 433d
000002d0: f452 33bd 9cb1 9fbd 03f2 79bc 8082 dd3c
000002e0: 0ad2 a6bd 94f1 6cbd 6930 a63d 5822 823d
000002f0: 27a2 16bd 6566 54bd dfe9 efbb 3ab5 5c3d
00000300: ccf9 373c abe2 713d 063a a53d e291 a8bc
00000310: 378b bebb ba6f 593d f686 02be 94fb 0fbc
00000320: 53b5 a63c fdcb b73d 3362 8dbd f760 4e3d
00000330: 162a 163e 8ee0 823d ce89 0fbb 3b37 cebb
00000340: 8e8b f7bd 2b7c c13c 133c d63a cdf1 9b3d
00000350: cb55 1ebd 13cb c2bd cad5 00bd 0d18 b33c
00000360: dc71 903a 8733 76bd 8719 523d 7ea1 a2bd
00000370: 78be 75bd 4310 dbbd f4e9 a13d c4a4 0b3d
00000380: d92b 823d dcd0 a13c 216f 5bbd 5060 b53c
00000390: e1df 22bc cefb 873d f0b6 103e 69cb 91bd
000003a0: b87b 8b3d 0b32 de3a c375 8bbd 0072 ab3d
000003b0: 2a17 b4bd 8c63 2b3d e1b6 14bd f4d1 7dbd
000003c0: dbd5 ffbc 2fcf 0fbe e2a2 a8bd b9c4 eb3b
000003d0: de18 acbd 2da5 703c 01de d7bd 6dbb 9ebc
000003e0: ebe0 723d 5048 40bc c93d 673d 0a94 1a3a
000003f0: f92b 9dbd 5412 453d 88bb c23c 7f36 4fbd
0.03876113 0.018312365 -0.06037706 0.12421966 -0.06090698 -0.020878952 -0.034274332 0.05476395
-0.03409274 -0.044893853 -0.14328897 -0.12456518 0.07616012 0.008943735 0.014114117 -0.05026827
-0.23909701 0.055160962 0.2103082 0.04041376 -0.0400433 -0.051808335 -0.07908435 0.004181855
-0.136702 -0.07560082 -0.005046086 -0.11077101 -0.07334869 -0.05918056 0.100422375 0.051632665
-0.0003259933 0.0017666541 -0.06240191 0.028183855 0.07604716 -0.009089877 0.07123468 -0.038416408
0.018638985 -0.074409865 -0.08173305 -0.08909135 -0.2577528 0.01942161 0.06288472 0.18721281
-0.07057658 -0.14466597 -0.1305984 0.00238655 -0.025416255 0.067270294 0.08688881 -0.011425482
0.014445748 0.04923129 -0.034134228 -0.06841629 -0.2219754 0.04790862 0.07171746 0.06100722
0.08612351 -0.073608 0.14446196 0.012655013 -0.031365994 0.068968035 -0.08319539 0.17238428
-0.02120973 -0.027381623 -0.047470614 0.044022337 0.11492641 0.07592303 -0.04599284 -0.05443463
0.00579127 0.08832627 -0.016546719 -0.072995715 -0.05643833 0.07908517 0.062115952 -0.0062755193
0.07845793 -0.14247493 0.022623688 -0.0506475 0.07295502 0.013369815 0.07076391 -0.027775217
-0.17904253 -0.048628002 -0.056134705 -0.06653757 0.03684048 -0.044687223 -0.012048569 -0.036205042
0.043978136 -0.1108379 -0.012704045 -0.06501489 -0.13996035 -0.050556816 0.08022594 0.031014955
0.058262024 -0.085953996 -0.18484564 0.09286763 0.07481379 0.032178957 -0.01771835 -0.02446366
-0.051437497 -0.16159807 0.12075973 0.031977225 -0.07082363 -0.075263545 -0.07266731 -0.057576988
0.00034469413 0.051230557 0.02900367 0.1487882 -0.028592369 0.08061457 -0.017652743 -0.058005817
-0.012334499 0.08699678 0.05609243 0.09871669 -0.06870341 -0.073344514 -0.011436418 -0.04110604
-0.093210995 0.00031196213 0.0036984503 -0.030943472 -0.014427426 -0.058720548 0.031797968 -0.06474
0.023224711 0.02266258 -0.0293815 0.0034070064 0.0050364984 0.11081489 0.10199659 -0.077618115
0.05380606 -0.09512638 -0.0830659 0.068831064 -0.03687311 -0.03339698 0.034948748 0.0013226608
0.08238906 -0.011960789 -0.118454635 -0.0870501 -0.009589956 0.039932013 0.0067784577 0.07852456
-0.06771609 0.09352753 -0.086020075 0.04770735 -0.043780282 -0.07797548 -0.015255454 0.027039766
-0.081455305 -0.057847574 0.08114702 0.06354207 -0.036775734 -0.051855464 -0.007321581 0.05388377
0.01122899 0.059054058 0.08067708 -0.020577375 -0.0058149355 0.053085066 -0.12746796 -0.008788008
0.020350134 0.089744546 -0.06903496 0.05038544 0.14664492 0.06390487 -0.0021902206 -0.006293205
-0.12087165 0.023618778 0.0016344808 0.07614479 -0.038656037 -0.095113896 -0.031453885 0.021862054
0.0011020261 -0.060107734 0.051293876 -0.079409584 -0.0599961 -0.10696461 0.07905951 0.03409268
0.063560195 0.019752912 -0.053572778 0.022140652 -0.009941072 0.06639825 0.14132285 -0.071188755
0.06810707 0.001695217 -0.06809571 0.08371353 -0.08793481 0.041842982 -0.03630722 -0.061967805
-0.031229904 -0.14043878 -0.082341924 0.007195082 -0.084031805 0.0146878185 -0.10540391 -0.019376481
0.05929653 -0.011735991 0.056455407 0.00058966933 -0.07674403 0.048113182 0.023771062 -0.05058908
