noisy_10.pth (torch, 101665 bytes, 1 tensors)

linear.weight f4 [32, 784]
-0.020102419 -0.008371536 -0.0013415354 -0.00047813638 0.0008863319 0.00675019 0.008686205 0.008025173
0.0034473042 0.0048134713 0.0045952317 0.0006234293 0.000976519 -0.0010416287 0.001175781 -0.0077402717
-0.0036238383 -0.006462277 -0.007117872 -0.005120926 -0.011186489 -0.008761602 -0.004424409 -0.007303865
0.0049470817 0.0072541074 0.014695645 0.025114672 -0.014477236 -0.0067116534 -0.005319461 0.0020300567
0.0024114826 0.0051819347 0.0046058493 0.006424044 0.0027094458 0.0049856645 0.0068537397 0.0015747402
0.0031038537 -0.001457221 -0.0026844458 -0.0033476544 -0.0028214788 0.0004754308 -0.0058972836 -0.008091136
-0.005611774 -0.0052661584 -0.0076672663 -0.00012927552 -0.00070303405 0.0041547706 0.012161646 0.015373231
-0.01335438 -0.0034681568 -0.0038622252 0.0008118311 3.942284e-05 0.005809451 0.0019476332 0.0030434579
0.004834339 0.006875656 0.0009786545 0.00485782 0.0005702793 0.0007625618 -0.0020374095 0.000258881
-0.0029209985 -0.007916716 -0.0061578895 -0.0039657666 -0.0077517326 -0.0035985482 -0.008152818 -0.0066282284
-0.0010063781 0.004111666 0.0060824016 0.015696038 -0.0121315885 -0.006183863 -0.002661725 -0.0032442333
0.0044573154 -0.00078327913 0.0031383855 0.0007311948 0.0034395026 0.0056574736 0.005013695 0.00015247757
0.0013313128 0.0007923144 0.0016366087 -0.006074272 -0.001078802 -0.00431504 -0.0033617038 -0.008559551
-0.0052902116 -0.0061633554 -0.009191481 -0.0039592157 -0.0027356301 0.0018498054 0.0046683177 0.0135367885
-0.010854486 -0.004674698 -0.0017569368 -0.0020709315 0.0025567934 0.0048374985 0.00398932 0.0015800166
0.006578617 0.0017737882 0.005192626 0.0009285912 0.0055237575 -0.0027341251 0.001545727 -0.0010372573
-0.002860411 -0.0042386134 -0.0038685473 -0.005614315 -0.006991817 -0.00813809 -0.0037297518 -0.011757323
-0.0047258222 -0.001917654 -0.00011597595 0.013894378 -0.01037796 -0.005752214 -0.0014075559 0.002179972
0.0040428033 0.0038399016 0.0076825833 0.0040877606 0.0033843184 0.007417151 0.0039536934 0.009577784
-0.0021449784 0.005624708 -0.0013453767 0.0023456195 -0.0051867473 0.00074294105 -0.008338596 -0.0017279404
-0.009510358 -0.0017282102 -0.0119176125 -0.0031798761 -0.007533161 -0.0006202026 -0.0018478464 0.006229154
-0.010410031 -0.00265727 -0.0012363377 0.001863162 0.0023909488 0.0062279846 0.0011227371 0.008236098
0.0029159829 0.005977835 0.0057516033 0.0016446254 0.0055269604 0.0028161851 0.0027667724 -0.0026112306
0.0014887793 -0.006376852 -0.0020956665 -0.008831712 -0.0009615852 -0.012548605 -0.0021304835 -0.011370244
-0.0084675355 -0.005371098 -0.00043751838 0.0044322857 -0.002788883 -0.0023889907 -0.0025394412 0.0052576363
0.0015197515 0.006392212 0.00855187 0.0017918441 0.00955351 0.0028711858 0.0069655767 0.005225804
0.0031911763 0.00070728175 0.0031221956 9.973113e-05 -0.0038119801 -0.0023329582 -0.004231677 -0.005001952
-0.00917573 -9.8410834e-05 -0.011676934 -0.0056770477 -0.0059897793 -0.0062494976 -0.00048041335 -0.00060804194
-0.007116291 -0.0017276985 -0.0005424506 0.00014719609 0.008317464 0.00246933 0.0024134878 0.011949102
0.00080019457 0.010799537 0.006313723 0.00907197 0.004366463 0.007108258 -0.00015044867 0.00020093979
0.0027451967 -0.0031566296 -0.0044196374 -0.0029373225 -0.0033290712 -0.009032217 -0.0046843393 -0.011978326
-0.010860345 -0.0043862765 -0.007031168 0.00451154 -0.0028777944 -0.002937724 0.00043024737 0.0054483633
00000000: d4ad a4bc c428 09bc 75d6 afba 61ae fab9
00000010: ba58 683a b330 dd3b 9650 0e3c 047c 033c
00000020: 2bec 613b 53ba 9d3b 9993 963b a26d 233a
00000030: 15fd 7f3a 4287 88ba aa1c 9a3a 1ba2 fdbb
00000040: eb7d 6dbb 82c1 d3bb 0a3d e9bb 71cd a7bb
00000050: 8947 37bc d38c 0fbc a2fa 90bb 4355 efbb
00000060: 211b a23b ddb3 ed3b 01c6 703c 49bd cd3c
00000070: ee31 6dbc 6eed dbbb e04e aebb b30a 053b
00000080: f709 1e3b 38cd a93b aaec 963b c980 d23b
00000090: f590 313b c95e a33b 5695 e03b 8367 ce3a
000000a0: 066a 4b3b 3900 bfba 87ed 2fbb 5264 5bbb
000000b0: 8fe8 38bb 3e43 f939 003e c1bb af90 04bc
000000c0: f9e2 b7bb bd8f acbb b13d fbbb 228e 07b9
000000d0: d14b 38ba be24 883b a441 473c 01e0 7b3c
000000e0: 54cc 5abc 044a 63bb 631d 7dbb 10d1 543a
000000f0: f459 2538 355d be3b ba47 ff3a c074 473b
00000100: 6069 9e3b 2f4d e13b 3246 803a 592e 9f3b
00000110: cc7e 153a a8e6 473a 0f86 05bb 6bba 8739
00000120: 396e 3fbb 1db5 01bc 1fc8 c9bb 43f3 81bb
00000130: 3f02 febb 9fd5 6bbb 6693 05bc 9c31 d9bb
00000140: 72e8 83ba 28bb 863b e24e c73b fa94 803c
00000150: 92c3 46bc 01a2 cabb 5670 2ebb 349d 54bb
00000160: ac0e 923b f954 4dba 5fad 4d3b a7ad 3f3a
00000170: 4769 613b 5462 b93b ec49 a43b 63e2 1f39
00000180: 727f ae3a 52b3 4f3a 7a83 d63a b00a c7bb
00000190: 9766 8dba 2e65 8dbb 0850 5cbb 5c3d 0cbc
000001a0: 8359 adbb f9f5 c9bb de97 16bc 4fbc 81bb
000001b0: 4248 33bb 2b75 f23a b0f8 983b 68c9 5d3c
000001c0: 04d7 31bc 362e 99bb 0449 e6ba 77b8 07bb
000001d0: e08f 273b e183 9e3b d7b8 823b 8f18 cf3a
000001e0: 7091 d73b 757e e83a e726 aa3b b36c 733a
000001f0: a300 b53b 022f 33bb fe99 ca3a 94f4 87ba
00000200: bc75 3bbb 11e4 8abb 7487 7dbb 4af8 b7bb
00000210: 9d1b e5bb a055 05bc da6e 74bb c9a1 40bc
00000220: 12db 9abb ca59 fbba 1d38 f3b8 3fa5 633c
00000230: 5208 2abc 127d bcbb bd7d b8ba dcdd 0e3b
00000240: 7e79 843b dca6 7b3b 2ebe fb3b 9ff2 853b
00000250: 71cb 5d3b 920b f33b fc8d 813b 23ec 1c3c
00000260: c492 0cbb 784f b83b 5a57 b0ba f7b8 193b
00000270: 97f5 a9bb eec1 423a 9b9e 08bc 0f7c e2ba
00000280: 55d1 1bbc 1d85 e2ba 1742 43bc 7865 50bb
00000290: bcd8 f6bb 1895 22ba 7033 f2ba ee1d cc3b
000002a0: d68e 2abc 9825 2ebb 9c0c a2ba 5835 f43a
000002b0: 77b1 1c3b 1f14 cc3b ce28 933a b3f0 063c
000002c0: 131a 3f3b b7e1 c33b f277 bc3b 7990 d73a
000002d0: 811b b53b bf8f 383b bd52 353b 2e21 2bbb
000002e0: 2523 c33a e9f4 d0bb 7357 09bb e3b2 10bc
000002f0: e412 7cba aa98 4dbc 959f 0bbb 434a 3abc
00000300: 6bbb 0abc 0900 b0bb b962 e5b9 b53c 913b
00000310: b1c5 36bb 9d90 1cbb c16c 26bb 4048 ac3b
00000320: 6632 c73a c375 d13b 241d 0c3c 50dc ea3a
00000330: 5386 1c3c 812a 3c3b 7e3f e43b 393d ab3b
00000340: 0e23 513b e068 393a c09d 4c3b be26 d138
00000350: 6ad2 79bb 8be4 18bb e1a9 8abb 6ae7 a3bb
00000360: cd55 16bc ea61 ceb8 9c50 3fbc 8706 babb
00000370: e945 c4bb 96c8 ccbb fddf fbb9 0165 1fba
00000380: c72f e9bb f173 e2ba 3e33 0eba a658 1a39
00000390: f945 083c 7cd4 213b 9b2b 1e3b 2bc6 433c
000003a0: 26c4 513a 8bf0 303c 59e3 ce3b 9aa2 143c
000003b0: 8c14 8f3b 64ec e83b c2c1 1db9 5db3 5239
000003c0: c2e8 333b 75df 4ebb 9bd2 90bb 1880 40bb
000003d0: 8c2c 5abb ddfb 13bc 167f 99bb be40 44bc
000003e0: 97ef 31bc c1ba 8fbb b665 e6bb 8ad5 933b
000003f0: 6199 3cbb d586 40bb d392 e139 2f88 b23b
