noisy_mlp_40.pth (torch, 419446 bytes, 2 tensors)

net.0.weight f4 [128, 784]
000000 3c e4 05 3d 5d 9f 86 bc ee f6 2a bb 75 16 86 bb
       0.032688364 -0.016433412 -0.0026087123 -0.0040920326
000010 7d e3 dd 3c 81 ee d8 bc 91 0f 7a 3c 07 9a 73 3c
       0.027086014 -0.026480915 0.0152625 0.014868266
000020 a8 88 1b 3c 9a cc c3 bb d1 0e 8d bc 24 68 d5 3c
       0.009493031 -0.005975318 -0.01721898 0.026050635
000030 1e cc 6f 3c 9d 33 0b 3c 92 70 5c 3c b5 35 8a bc
       0.014636068 0.008496192 0.013454573 -0.016871313
000040 fa ec 03 bd 3f b3 86 bc cf 6b d9 bc 19 c3 d2 3c
       -0.03220842 -0.016442893 -0.026540665 0.025727795
000050 e3 d7 0e 3c b7 20 90 3c 25 51 b2 bb 2c 97 f9 bc
       0.008718464 0.017593725 -0.005441802 -0.030467592
000060 ce 50 cb bb 42 9c 96 bc 32 ef 09 bd d9 cd b5 3c
       -0.006204701 -0.018385056 -0.03367538 0.022192882
000070 02 2b dd 3b 61 63 75 bc ba 99 47 ba 5c 1b f6 3c
       0.0067495117 -0.014977307 -0.00076141546 0.030042343
000080 cb 03 e9 bc c3 2d b7 3c 2a c9 17 bd a0 e5 a6 bc
       -0.028444191 0.022360688 -0.03705708 -0.020373166
000090 9e 58 10 3c 78 31 8f 3c 03 e1 5b bc a4 d1 d7 bc
       0.0088101905 0.017479643 -0.013420346 -0.026345082
0000a0 e4 b1 13 bc ca 6b 07 3d 23 4f 33 3c 51 4b 14 bd
       -0.00901458 0.03306178 0.010944161 -0.03620464
0000b0 88 24 11 bd bf 63 fb 3c 4f e4 f9 bc 3b f0 0e bc
       -0.03543523 0.030687211 -0.030504374 -0.008724268
0000c0 8c 74 08 bd 47 95 28 3c 91 25 03 3c 92 75 82 bc
       -0.033314273 0.010289497 0.008004562 -0.015925203
0000d0 b1 1c dd bc 43 b1 c8 bc 4d 8e 1a bd 32 6c 82 bb
       -0.02699122 -0.024498587 -0.037733365 -0.003980183
0000e0 b4 df 09 bb 50 ec c9 3c 0b 27 0a bd b7 60 23 bc
       -0.0021037878 0.024648815 -0.03372864 -0.009971789
0000f0 d4 e0 ff 3c 94 fd 1d bd 5f 18 fd bc 97 67 17 bd
       0.031235136 -0.03857191 -0.03089541 -0.036964025
000100 91 b0 4a bc 94 fd 17 3c 50 4c fa bc 61 42 3c bc
       -0.012371198 0.009276766 -0.030553967 -0.011490435
000110 94 80 1a bd 1f 6c 18 bd 7b c4 b5 bc 15 78 7d 3c
       -0.037720278 -0.037212487 -0.022188416 0.015470524
000120 8f 20 aa 3b 12 10 ad 3c 0e 57 80 bc fb c2 fa 3c
       0.0051918696 0.021125827 -0.01566651 0.030610552
000130 37 d7 af 3b 71 70 9b bc 20 55 b5 3b 39 93 a3 3c
       0.005366232 -0.018974515 0.0055338293 0.019967662
000140 e9 21 e3 3b 38 41 d3 3c 4b b9 ef 3c 28 5d 8c bc
       0.0069315326 0.025787935 0.02926316 -0.017134264
000150 91 d3 0b 3b 7d f6 c7 3c 52 e2 45 3c 60 b8 a7 bc
       0.002133582 0.024409527 0.012077885 -0.020473659
000160 e9 87 5c bc 02 e7 50 3c 66 70 03 bc 27 51 1f 3c
       -0.013460138 0.012750389 -0.008022403 0.009723938
000170 4b 22 0f bc 6f 38 a6 3c 87 cf 0d bd 3b 01 74 bc
       -0.008736203 0.020290582 -0.03462174 -0.0148928715
000180 32 d2 1e bc 6a c2 d3 39 4f cc 11 bc 11 90 80 3c
       -0.009693669 0.00040389906 -0.008898809 0.015693696
000190 e7 87 25 bc 75 e0 50 bb 08 5f aa 3c 29 04 06 bc
       -0.010103202 -0.0031872068 0.020797268 -0.008179703
0001a0 e0 50 ac 3c 85 c6 e8 3c f4 b5 73 bc 38 f4 4c bc
       0.021034658 0.028414974 -0.014874924 -0.012509398
0001b0 e7 a1 17 bd 22 3f 01 3d b5 40 e7 bc 85 52 be 3c
       -0.037019636 0.03155435 -0.028229097 0.023232708
0001c0 83 42 1c 3c 3e 8b f7 3c d2 92 f6 bb 0f 3d 8e bc
       0.009537342 0.030217763 -0.0075248266 -0.0173631
0001d0 04 04 f4 bb b1 ea f0 3c 2e 25 50 bc 01 79 78 3c
       -0.0074467678 0.029408785 -0.012704177 0.015165568
0001e0 7d d7 7f bc 57 a8 91 3c bf b7 b9 bb 88 2b c2 bc
       -0.015615341 0.017780466 -0.005667656 -0.023702398
0001f0 bd f8 06 ba bc e5 c0 bc 5b c7 fb ba 3d 66 6f bc
       -0.0005148759 -0.023547046 -0.0019209193 -0.014611778
000200 8c a9 54 3b a4 a0 7b bc 76 55 c2 bc 8e 70 d0 3c
       0.003244969 -0.015358124 -0.023722392 0.025444295
000210 65 19 71 3c bc 56 b1 bc ac 48 02 bd ec 32 d2 bc
       0.014715527 -0.021647803 -0.031807587 -0.025659047
000220 ee 0e cf 3c 92 a8 17 bd 3c 4a d0 ba 44 97 36 3c
       0.025275674 -0.037025996 -0.0015891264 0.011144463
000230 03 2b e5 bc 5a b1 d1 bc fa 5d 38 3c ac a4 6e 3c
       -0.027974611 -0.025597263 0.0112528745 0.014565628
000240 03 22 fd 3c 1b f9 90 bb ab 71 15 bd 18 56 94 bc
       0.030900007 -0.004424227 -0.036485355 -0.018107459
000250 94 23 df bc 2c 02 e4 bc fc 4b fc bc a7 94 fd ba
       -0.027238645 -0.027833067 -0.03079795 -0.001934667
000260 4d 13 e8 bc b7 d4 8a bc e2 74 1a bd b0 d4 6a 3c
       -0.028329516 -0.016947133 -0.037709124 0.014332935
000270 2d 84 a6 3c 1f 62 31 3c 0a eb c5 bc 8f f9 32 bc
       0.020326698 0.010826617 -0.024159927 -0.010923757
000280 ed cf 21 3c 85 10 06 bd 24 1a 31 3c 08 82 d1 bb
       0.0098762335 -0.032730598 0.010809455 -0.0063936748
000290 69 82 be 3c 94 1a 74 bc 53 37 cb 3b fb a4 36 3c
       0.023255544 -0.014898915 0.0062016635 0.011147733
0002a0 a1 25 14 bd d8 83 1a 3c 4f f2 01 bd 37 95 5d 3c
       -0.0361687 0.009430848 -0.031725224 0.013524345
0002b0 25 0e cc bc 6c 5a d5 bc ef 04 fe bc cd 09 6b bc
       -0.024909088 -0.026044093 -0.031008212 -0.014345598
0002c0 90 b6 a9 3b 0d e7 5b bc 2b cb cb 3b a4 2c d1 bc
       0.005179234 -0.013421786 0.006219288 -0.025533982
0002d0 77 8a ea bc 60 ee d9 b8 80 65 f0 bc 5a 6d fe bc
       -0.028630478 -0.00010391767 -0.029345274 -0.031058002
0002e0 85 e4 fa bc 77 ea fa bb 1c 2f 1d bd 1c 7c cc 3c
       -0.030626545 -0.007657345 -0.038375005 0.024961524
0002f0 06 35 e7 bc 72 06 b0 bb f3 15 b9 3b 9a 29 85 bb
       -0.028223526 -0.005371862 0.0056483685 -0.004063797
000300 a5 60 f8 3b c5 16 1f 3c d9 15 c8 3a 93 cd c7 bc
       0.0075798803 0.0097100185 0.00152653 -0.024390018
000310 1f b3 07 bd aa 69 db 3b a6 3d 73 3c 28 f0 3e bc
       -0.033129808 0.0066959457 0.014846241 -0.011653937
000320 ab a3 be bb 9a fa 2e bc 3c 14 ea 3b f0 f8 45 bc
       -0.0058178506 -0.010679865 0.0071435254 -0.012083277
000330 5f 8d 01 3d bc 6e c5 bc 53 73 90 3c a6 c2 b3 3c
       0.031628963 -0.024100654 0.017633116 0.021943402
000340 43 cc 3a bb 97 f8 06 bd 2b 67 bb 3c 08 3f 4c 3c
       -0.0028503097 -0.032951917 0.022876343 0.0124662
000350 36 00 14 bd d4 fd f8 3c 8b 09 ed bc 69 80 fd 3c
       -0.036133014 0.030394472 -0.028935215 0.03094502
000360 09 68 a9 bb 15 a4 1c 3c 6d bf 99 3b 63 cc eb 3c
       -0.0051698727 0.009560605 0.004692009 0.028783983
000370 cc 37 00 bd 4d 93 63 bc a2 10 01 bd 30 11 08 bc
       -0.031303212 -0.0138901 -0.031510003 -0.008304879
000380 00 49 8a bc 7a a5 88 3c 99 c5 3c bc a2 6e 30 bb
       -0.016880512 0.016680468 -0.01152172 -0.002692141
000390 b8 38 9e 3c 41 49 14 bd 56 86 9f ba 8d 85 d9 3c
       0.019314155 -0.036202673 -0.0012170773 0.02655294
0003a0 f0 35 0c bd 44 db 54 3b c3 7c 08 3b be 38 0b 3c
       -0.034231126 0.0032479325 0.0020826317 0.008497415
0003b0 48 3d 30 bc ed 1c 55 3c 1d 7a ae bc 2f 22 b9 bc
       -0.010756798 0.013007385 -0.021298463 -0.022599308
0003c0 e3 ab f6 3c c9 31 1b bd 88 3d 31 bc cb 10 02 3c
       0.030111259 -0.037889276 -0.010817893 0.007938574
0003d0 a6 e1 f4 3c 3c 4f b9 3b ec 35 12 bd bd b3 f0 bc
       0.029892754 0.0056551974 -0.035695955 -0.02938258
0003e0 c2 35 b6 bc 7a a3 b7 ba 23 c6 ee 3c ad 07 03 bc
       -0.02224243 -0.0014010512 0.029147213 -0.0079974355
0003f0 e3 aa 06 3c e5 a5 2d b9 17 74 09 bd 53 35 23 bc
       0.0082194535 -0.00016560366 -0.033557978 -0.009961444

net.2.weight f4 [32, 128]
000000 fe c3 1e 3d ab 11 39 3d d5 b6 f5 3b 14 e2 0a 3e
       0.03876113 0.045182865 0.007498602 0.13562804
000010 99 79 79 bd 39 8b a7 bc 54 22 fd bc f7 49 45 3d
       -0.06090698 -0.020452129 -0.030900158 0.04816624
000020 d4 a4 0b bd 6f 74 26 bd 16 60 3e be 93 47 de bd
       -0.03409274 -0.040638383 -0.18591341 -0.108534954
000030 7b 79 d6 3d 1a 75 85 3b e6 3e 67 3c 98 7c 55 bd
       0.10472389 0.0040727975 0.014114117 -0.052120775
000040 96 4b 87 be 76 f0 61 3d e1 35 4e 3e d2 79 1b 3d
       -0.26424855 0.055160962 0.2013774 0.037957974
000050 7b 40 28 bd 2d 44 60 bd 10 f5 2c bd 3d 2f e7 3b
       -0.04107712 -0.054752517 -0.042225897 0.007055192
000060 30 78 1b be 9a d4 9a bd 42 42 02 bb 59 c2 dc bd
       -0.15182567 -0.07560082 -0.0019875919 -0.107792564
000070 d7 37 96 bd 0f 04 43 bd 06 9b a1 3d ab a1 49 3d
       -0.07334869 -0.047611292 0.078908965 0.049226444
000080 14 ea aa b9 f5 bd d9 3c 70 1d 7e bd ce 96 f5 3c
       -0.0003259933 0.026579836 -0.062039793 0.029979136
000090 5f 54 9c 3d c3 02 30 bc 24 fa 8d 3d fe d7 19 bd
       0.0763328 -0.010742846 0.06932476 -0.0375595
0000a0 1c 59 bb 3c 43 64 98 bd 80 9d b3 bd f3 87 7c bd
       0.02286964 -0.074409984 -0.08770275 -0.06165309
0000b0 f8 46 92 be 44 7d a0 3c 46 b6 0c 3d 9e c0 18 3e
       -0.2856977 0.019590981 0.034353517 0.14917228
0000c0 af f6 90 bd ea 51 1b be 5a b7 f4 bd b3 2f 84 b9
       -0.07078301 -0.15167966 -0.11949034 -0.0002521254
0000d0 c0 35 d0 bc 02 c5 89 3d c3 f2 b1 3d 7e ae 4e bc
       -0.025416255 0.067270294 0.08688881 -0.012614844
0000e0 70 46 6d 3c fa 13 4b 3d 55 d0 0b bd ea d1 88 bd
       0.014482126 0.049579598 -0.034134228 -0.06680663
0000f0 f6 81 79 be 74 10 3f 3d 6a 9d 85 3d d5 50 7a 3d
       -0.24365982 0.04664655 0.06524165 0.061112244
000100 14 8f 04 3e cb bf 96 bd 82 91 f0 3d 3f 48 0e bb
       0.12945205 -0.073608 0.117465034 -0.0021710542
000110 a1 79 00 bd 1d 3f 8d 3d 53 54 97 bd 81 e7 28 3e
       -0.031365994 0.068968035 -0.073891304 0.16494562
000120 91 15 bb bc 6d 4f e0 bc f2 05 47 bd e2 fc da 3c
       -0.022837432 -0.027381623 -0.048589654 0.026731912
000130 73 71 00 3e 89 7d 9b 3d fd 62 3c bd 2a 7a 6b bd
       0.12543277 0.07592303 -0.04599284 -0.05748955
000140 83 df 54 3d 1e 7e d3 3d 94 ce 65 bc f0 7d 97 bd
       0.05197097 0.10326789 -0.014026303 -0.073970675
000150 f0 b9 6b bd f6 c2 0f bc 5e e0 6e 3d c4 74 d0 bb
       -0.05755037 -0.00877451 0.058319442 -0.006361576
000160 ca b4 a0 3d e9 75 24 be b9 44 a8 3c b9 a7 57 bd
       0.07846983 -0.16060604 0.020540582 -0.052650187
000170 65 3f 94 3d c7 5f 54 3b 22 26 89 3d c7 8a e3 bc
       0.07238654 0.003240572 0.066967264 -0.027776135
000180 46 1c 41 be 29 a2 3c bd a5 60 63 bd 34 ca 8a bd
       -0.18858442 -0.046053085 -0.05551209 -0.067768484
000190 ff 9d 33 3c 3e a7 38 bd 19 b8 f7 3a 40 5a 16 bd
       0.010962962 -0.04508137 0.001889947 -0.036707163
0001a0 8a 46 2b 3d ce 1d 24 be fd b6 53 bc d2 04 cb bd
       0.04181532 -0.16026995 -0.012922046 -0.09913029
0001b0 7f 11 06 be be fc d7 bc 64 26 49 3d 13 13 fe 3c
       -0.13092612 -0.026365634 0.049108878 0.031014955
0001c0 29 a4 6e 3d 90 81 64 bd 35 16 44 be 99 bb d0 3d
       0.058262024 -0.055787623 -0.19149096 0.101920314
0001d0 09 91 8f 3d c3 57 33 3d 82 6b 48 3d 03 68 c8 bc
       0.07010085 0.043784868 0.048930652 -0.02446366
0001e0 ad 16 48 bd 6a 15 39 be 87 f1 01 3e 37 1b df 3c
       -0.04884975 -0.18074575 0.12689792 0.027234657
0001f0 fb 0b 91 bd ac e3 a3 bd 78 9d 96 bd b7 48 6e bd
       -0.07082363 -0.08002409 -0.073542535 -0.058174815
000200 10 b8 b4 39 7e 0f d8 3d f4 7b 1a 3e 16 2f 35 3e
       0.00034469413 0.1054983 0.15086347 0.17693743
000210 8b 3a ea bc d8 34 a6 3d f8 02 1e bc 70 51 78 bd
       -0.028592369 0.08115548 -0.0096442625 -0.06062454
000220 a3 16 4a bc 10 ec eb 3d 39 c2 3e bd d4 71 28 3e
       -0.012334499 0.11519635 -0.046571944 0.16449672
000230 18 6a bc 3b 12 6a a2 bd d0 5f 3b bc 3b 9f 28 bd
       0.005749952 -0.079303876 -0.011436418 -0.04116748
000240 9c 7a f9 bd d9 8e a3 39 7a 92 39 bd fa a9 e7 bc
       -0.12181589 0.00031196213 -0.045305707 -0.028279293
000250 a4 e8 44 bc 5a fc 5e bd 87 cd 22 3e 61 e9 85 bd
       -0.0120183565 -0.05443988 0.15898715 -0.06538654
000260 e8 99 79 bd e0 a6 b9 3c 20 f1 d8 bc 02 e9 ac bc
       -0.060937792 0.02266258 -0.026482165 -0.0211072
000270 36 09 a5 3b 8f d3 1a 3e 4a 44 80 3e 4c 25 9a bd
       0.0050364984 0.15119766 0.250521 -0.07526645
000280 be 63 5c 3d 85 4c 0d bc 95 27 f4 bd fd 90 9d 3d
       0.05380606 -0.008624201 -0.11921612 0.0769367
000290 47 6f 17 bd a9 a5 33 bd ef e4 20 3d 85 b7 c4 3a
       -0.036971357 -0.043859158 0.039280828 0.0015008306
0002a0 a7 19 99 3d e3 c0 43 bc 1f 7f 73 be 3b e4 88 bd
       0.07475596 -0.011947843 -0.23778962 -0.066841565
0002b0 08 19 72 bd eb c1 23 3d a5 8d d6 bc 42 e6 2e 3d
       -0.059105903 0.039979856 -0.026190588 0.04270006
0002c0 cc c1 8a bd f1 4e d0 3d 26 1f fa bb a3 8d 3c 3d
       -0.06775245 0.10171307 -0.0076331077 0.046033513
0002d0 f4 52 33 bd 9c b1 9f bd 03 f2 79 bc 36 2b ef 3c
       -0.043780282 -0.07797548 -0.015255454 0.02919541
0002e0 7f da a5 bd 25 c1 6e bd 69 30 a6 3d 32 00 84 3d
       -0.080983154 -0.058289666 0.08114702 0.0644535
0002f0 61 8c 60 bc de 7d f4 bd 6b 58 1d 3c d7 e4 5c 3d
       -0.013705344 -0.1193807 0.0096036 0.053929176
000300 a4 b3 40 3d ab e2 71 3d eb 72 1c bb 0a b2 79 bd
       0.04704632 0.059054058 -0.0023872207 -0.060960807
000310 37 8b be bb ba 6f 59 3d 4a 56 8a be eb 82 76 bd
       -0.0058149355 0.053085066 -0.27018958 -0.060183447
000320 4a d4 b6 3c fd cb b7 3d cc b4 88 bd 58 e0 4f 3d
       0.022318024 0.089744546 -0.06675109 0.05075106
000330 b7 83 54 3e 8e e0 82 3d ce 89 0f bb e3 86 aa bb
       0.2075337 0.06390487 -0.0021902206 -0.005204068
000340 9c 3c 15 be ad 71 87 3b 3c ed 64 3b 63 43 9b 3d
       -0.14573902 0.0041334243 0.0034931442 0.07581212
000350 49 a0 0d bd db 16 40 be 72 90 ac bc 90 95 b3 3c
       -0.034576688 -0.18758719 -0.02106497 0.021921903
000360 58 90 a2 3a eb cc e0 bc 1d c0 5a 3d be 9e a5 bd
       0.0012402637 -0.027441463 0.05340587 -0.08086918
000370 ee 20 77 bd 9a dc 2f be c6 16 50 3d d1 a7 0b 3d
       -0.06033414 -0.17173997 0.05080297 0.03409559
000380 c3 03 05 3d 05 65 8c 3c f5 d9 60 bd ed cf 97 3c
       0.03247429 0.017138014 -0.05489536 0.018531764
000390 4c 5f dd bc 74 ae 87 3d 8e ea 38 3e 9e bb 90 bd
       -0.02702298 0.06625071 0.18058226 -0.07067035
0003a0 aa 16 84 3d ed 95 83 bc a0 ef 8a bd 21 ff 3a 3d
       0.06449635 -0.016062701 -0.06783986 0.045653466
0003b0 98 23 01 bd f7 a2 97 3d 76 5e 3e be f4 d1 7d bd
       -0.031528085 0.0740413 -0.18590721 -0.061967805
0003c0 db d5 ff bc 4b 20 b3 bd 6b 02 96 bd 44 ee 22 3d
       -0.031229904 -0.08746394 -0.0732468 0.03977801
0003d0 24 e7 4c be b1 22 57 3c 45 d8 fa 3c 6d bb 9e bc
       -0.20010048 0.01313083 0.030620703 -0.019376481
0003e0 82 fa 75 3d 98 25 b5 bd a1 06 b8 3d 93 55 2a bd
       0.060053356 -0.08845061 0.08985639 -0.041585516
0003f0 f9 2b 9d bd 0d e7 b2 3d 57 a1 c1 3c b7 b6 54 bd
       -0.07674403 0.08735476 0.023636503 -0.051932063
