noisy_mlp_final.pth (torch, 419464 bytes, 2 tensors)

net.0.weight f4 [128, 784]
000000 11 cf f1 3c c6 66 a0 bc 38 32 fe ba ae d8 ed bb
       0.029517682 -0.019580256 -0.0019393628 -0.0072584962
000010 7d e3 dd 3c 81 ee d8 bc 91 0f 7a 3c 07 9a 73 3c
       0.027086014 -0.026480915 0.0152625 0.014868266
000020 5d 17 cf 3b e8 db 15 bc c0 d7 a6 bc 24 68 d5 3c
       0.006319924 -0.009146668 -0.02036655 0.026050635
000030 1e cc 6f 3c 8d 2b b8 3b e3 6c 28 3c 99 34 a4 bc
       0.014636068 0.005620426 0.010279867 -0.020044612
000040 70 d0 10 bd ba a9 a0 bc af 6a f3 bc be c2 b8 3c
       -0.03535503 -0.019612182 -0.029713957 0.022553798
000050 be 36 b6 3b bc 71 6c 3c 74 29 0d bc 88 ca 09 bd
       0.005560725 0.014431413 -0.00861584 -0.033640414
000060 c0 a1 19 bc 7d 9c b0 bc 32 ef 09 bd d9 cd b5 3c
       -0.009376943 -0.021558994 -0.03367538 0.022192882
000070 95 49 6a 3b 1a b3 94 bc 7a b0 b2 ba 61 7f e3 3c
       0.0035749425 -0.018151809 -0.0013632916 0.0277707
000080 2b d1 ea bc 6b fc d0 3c 8f cc 0a bd a0 e5 a6 bc
       -0.028664192 0.025510987 -0.03388649 -0.020373166
000090 9e 58 10 3c 77 65 6a 3c a7 df 87 bc 83 c4 f1 bc
       0.0088101905 0.014306418 -0.016586138 -0.02951265
0000a0 26 83 47 bc 84 e2 f4 3c f4 c3 fe 3b 45 47 21 bd
       -0.012177264 0.029893167 0.0077748243 -0.03937461
0000b0 2d 21 1e bd 66 6a e1 3c 9c f2 09 bd 45 ee 42 bc
       -0.038605858 0.027516555 -0.033678636 -0.011897628
0000c0 04 74 15 bd 48 2d e9 3b cb 2e 9f 3b 72 65 9c bc
       -0.036487594 0.0071159936 0.004857873 -0.019091342
0000d0 10 0f f7 bc 43 b1 c8 bc c6 84 27 bd 82 55 ea bb
       -0.03015855 -0.024498587 -0.040898107 -0.0071513066
0000e0 3a 41 ab bb 38 ef af 3c c1 d4 09 bd d4 54 57 bc
       -0.0052262815 0.021476373 -0.033650164 -0.013142783
0000f0 8e bb f9 3c 28 1f 23 bd c8 df 01 bd 0a 68 24 bd
       0.03048494 -0.039824635 -0.031707555 -0.040138282
000100 23 c0 1c bc 57 35 c8 3b eb 1e 0a bd 56 c4 3b bc
       -0.009567293 0.006109874 -0.033720892 -0.011460384
000110 b4 80 27 bd 15 4f 25 bd 7b c4 b5 bc e7 97 49 3c
       -0.040894225 -0.04035862 -0.022188416 0.012304283
000120 e2 40 04 3b 44 0e 93 3c ea 56 9a bc 4d c1 e0 3c
       0.0020180275 0.017951138 -0.018840272 0.027435923
000130 a5 9b 0f 3b 68 71 b5 bc 86 a2 1a 3b 04 92 89 3c
       0.002191284 -0.022148803 0.0023595407 0.016793258
000140 38 33 76 3b 10 3f b9 3c 0c b8 d5 3c 96 5b a6 bc
       0.003756715 0.022613078 0.026088737 -0.020307343
000150 80 0b 80 ba 0b f5 ad 3c 6a 21 3e 3c 23 a2 a5 bc
       -0.0009769052 0.02123501 0.011604646 -0.020218914
000160 e9 a0 70 bc 01 a0 7e 3c 95 51 37 bc f5 8d 1c 3c
       -0.0146868015 0.015541078 -0.011188884 0.00955533
000170 c6 58 e4 bb ed f0 8c 3c e9 ca 1a bd 48 1c 83 bc
       -0.0069685904 0.017204726 -0.037791166 -0.016004696
000180 b4 d2 52 bc e9 98 35 bb 62 1a 16 bc af 20 4d 3c
       -0.012867618 -0.002770955 -0.009161564 0.012519999
000190 5d 7c 59 bc a4 47 d0 bb 13 60 90 3c 0e 09 3a bc
       -0.013274279 -0.0063561965 0.017623937 -0.011354698
0001a0 70 4f 92 3c 14 c6 ce 3c 70 d7 93 bc b1 79 80 bc
       0.017860144 0.025240935 -0.018047065 -0.015683027
0001b0 4a a0 24 bd 7f 8a e8 3c d0 9e 00 bd 3c 52 a4 3c
       -0.040191926 0.028386353 -0.031401455 0.020058744
0001c0 c3 9b d0 3b 30 99 dd 3c 53 36 b2 bb 86 42 80 bc
       0.0063662245 0.027050585 -0.005438605 -0.01565672
0001d0 f4 bd 2d bc 04 76 00 3d 98 87 62 bc dd a2 6b 3c
       -0.01060437 0.03136255 -0.013826273 0.014382091
0001e0 cc eb 99 bc f5 54 6f 3c 2e ca 10 bc 49 77 c3 bc
       -0.018789195 0.014607658 -0.008837266 -0.02386059
0001f0 f4 3a 71 bb 49 3c cd bc 50 87 2d bb 48 e4 7e bc
       -0.003680882 -0.02505316 -0.0026478358 -0.015557356
000200 e7 a5 9a 38 ec f8 80 bc 16 4e dc bc 9b 06 e9 3c
       7.374194e-05 -0.015743695 -0.026892703 0.028445533
000210 e1 ec 3d 3c 42 56 cb bc e7 3a 0f bd e1 af e1 bc
       0.011592121 -0.024821404 -0.034968283 -0.027549686
000220 46 1a b5 3c 90 a7 24 bd 84 09 9a bb 84 d0 02 3c
       0.022107255 -0.040198863 -0.0047008414 0.007984284
000230 c0 28 ff bc d3 9c eb bc 2e 68 32 3c d2 9c 7d 3c
       -0.03114736 -0.028761303 0.010889096 0.015479283
000240 92 23 e3 3c b0 44 a8 bb 1d 10 1d bd ac cc 99 bc
       0.027726922 -0.0051351413 -0.038345445 -0.018774353
000250 0c 1b f9 bc 67 c2 e6 bc 5b d1 0a bd db 1b fa 39
       -0.030408405 -0.02816887 -0.033891063 0.0004770447
000260 7f 57 f0 bc 30 dc 8f bc d7 a8 18 bd de 1e 80 3c
       -0.029338596 -0.017561048 -0.037270393 0.015639719
000270 7e b1 a5 3c ab 10 2d 3c 5d e4 df bc 46 ef 42 bc
       0.020226236 0.010563056 -0.027330572 -0.011897868
000280 59 ca 23 3c 59 f8 05 bd ce eb 2a 3c ca d9 98 bb
       0.009996974 -0.032707546 0.010432197 -0.0046646344
000290 f3 63 bb 3c 91 6f 80 bc f9 67 0d 3c 0d b4 02 3c
       0.022874808 -0.015678199 0.008630746 0.007977498
0002a0 5b 39 20 bd 13 4f cd 3b 72 85 fb bc 32 c8 77 3c
       -0.0391172 0.00626553 -0.03070328 0.015123414
0002b0 1e f1 e5 bc 6c 5a d5 bc ef 04 fe bc 57 61 58 bc
       -0.028069075 -0.026044093 -0.031008212 -0.013206801
0002c0 31 76 22 3b ed bb 6a bc 51 db 4a 3b 8d ef cb bc
       0.0024789686 -0.014327032 0.0030953477 -0.0248945
0002d0 3a 45 02 bd 8b e3 23 bb f8 70 fb bc e7 1c 03 bd
       -0.0318043 -0.0025007452 -0.030693516 -0.032009985
0002e0 1b f4 01 bd af 2f 12 bc 9a 67 29 bd 2e f3 da 3c
       -0.031726938 -0.0089225015 -0.041358568 0.026727285
0002f0 64 94 f6 bc 83 e4 d3 bb 11 24 c7 3b 7d 1d 33 bb
       -0.030100055 -0.0064664497 0.0060772975 -0.0027330809
000300 43 77 ea 3b b2 da f3 3b 40 87 01 3a 44 92 b9 bc
       0.0071553304 0.007441842 0.00049411133 -0.022652753
000310 1f b3 07 bd f0 d6 84 3b 55 81 75 3c c5 5b 48 bc
       -0.033129808 0.004053943 0.014984448 -0.012228911
000320 24 b0 b3 bb 02 44 37 bc aa 1f 82 3b b2 5f 54 bc
       -0.005483644 -0.011185648 0.00397106 -0.012962269
000330 84 08 0d 3d dd 70 df bc fc 58 8a 3c 3e 22 ac 3c
       0.03443195 -0.027275497 0.016888134 0.021012422
000340 e3 01 78 bb 21 ae 12 bd 0f 68 a1 3c 89 fb 3f 3c
       -0.0037842921 -0.035810594 0.01970294 0.0117176855
000350 bd 5e 15 bd 75 20 ec 3c ee 61 03 bd e5 93 04 3d
       -0.036467303 0.02882407 -0.032075815 0.032367606
000360 56 ac 08 bc ef 5c 0d 3c 86 da 8c 3b 15 ea e1 3c
       -0.008341869 0.008628114 0.004298511 0.02757744
000370 21 31 00 bd 41 ff 65 bc 69 41 03 bd fe 0b e4 bb
       -0.031296853 -0.014037908 -0.0320448 -0.0069594374
000380 c0 32 a4 bc bb 6c 5d 3c 45 08 6d bc db 0c 42 bb
       -0.02004373 0.013514693 -0.014467304 -0.0029609713
000390 aa bd 9c 3c ed 4f 16 bd 8b ca 8f bb 32 02 d5 3c
       0.019133408 -0.036697317 -0.0043881587 0.026002023
0003a0 4a cc 02 bd f9 b5 1e 3b d7 c2 e6 3a 27 ee 0b 3c
       -0.031933106 0.002421735 0.0017605674 0.008540667
0003b0 b8 b6 41 bc 32 ef 23 3c b9 7a c8 bc 30 36 ba bc
       -0.011823349 0.010005759 -0.024472581 -0.022730917
0003c0 8d 25 fe 3c 95 53 1e bd bf ad 29 bc 9f 28 18 3c
       0.031023765 -0.03865393 -0.010356366 0.009287029
0003d0 14 02 ed 3c fd f1 81 3b 5c 24 19 bd 26 37 e9 bc
       0.028931655 0.003965615 -0.03738819 -0.02846868
0003e0 dc 6d b9 bc c0 34 04 bb 07 ef e6 3c 07 9e ab bb
       -0.022635393 -0.0020173043 0.028190149 -0.005237344
0003f0 f8 6d a5 3b 6f 95 5a bb b2 51 16 bd 6e 55 4d bc
       0.0050485097 -0.003335323 -0.036699004 -0.012532575

net.2.weight f4 [32, 128]
000000 f7 4a 1b 3d 7a 5c 27 3d 2d e0 ae 3c a0 5d 0a 3e
       0.03791329 0.040859677 0.02134713 0.13512278
000010 99 79 79 bd 39 8b a7 bc c2 80 01 bd f7 49 45 3d
       -0.06090698 -0.020452129 -0.031616934 0.04816624
000020 5c 71 03 bd a3 30 2a bd b3 4d 38 be de 6c cf bd
       -0.03209053 -0.04155029 -0.1799839 -0.10128187
000030 0f 69 01 3e 65 60 85 3b af 62 33 3c 98 7c 55 bd
       0.12637733 0.004070329 0.010948821 -0.052120775
000040 b9 d0 8a be 76 f0 61 3d ac c9 42 3e d2 79 1b 3d
       -0.27112368 0.055160962 0.19022244 0.037957974
000050 52 51 2b bd 2d 44 60 bd ae f7 32 bd 3d 2f e7 3b
       -0.0418256 -0.054752517 -0.043693237 0.007055192
000060 dc bf 13 be 9a d4 9a bd 42 42 02 bb bd f9 df bd
       -0.14428657 -0.07560082 -0.0019875919 -0.10936306
000070 d7 37 96 bd 0f 01 4e bd 90 f5 67 3d ab a1 49 3d
       -0.07334869 -0.05029398 0.05663067 0.049226444
000080 14 ea aa b9 fe ca f2 3c 40 41 64 bd b8 60 0a 3d
       -0.0003259933 0.02963781 -0.05572629 0.033783644
000090 5f 54 9c 3d 69 aa f6 bb 24 fa 8d 3d fe d7 19 bd
       0.0763328 -0.0075276387 0.06932476 -0.0375595
0000a0 c6 3f f0 3c 43 64 98 bd d2 a7 b9 bd f0 40 59 bd
       0.029327285 -0.074409984 -0.09065212 -0.053040445
0000b0 a6 f3 97 be 87 b8 a0 3c 57 33 d4 3c bb c7 0c 3e
       -0.29678077 0.01961924 0.025903387 0.13748066
0000c0 af f6 90 bd bd c8 1e be e8 f0 dc bd b3 2f 84 b9
       -0.07078301 -0.15506263 -0.10788137 -0.0002521254
0000d0 c0 35 d0 bc 40 a2 83 3d 39 75 be 3d 7e ae 4e bc
       -0.025416255 0.06427431 0.09299702 -0.012614844
0000e0 70 46 6d 3c fa 13 4b 3d 55 d0 0b bd ea d1 88 bd
       0.014482126 0.049579598 -0.034134228 -0.06680663
0000f0 a1 21 74 be d2 d9 1c 3d 4d 22 4f 3d d5 50 7a 3d
       -0.23840953 0.038293667 0.05056982 0.061112244
000100 fa 1e 08 3e dd b9 9e bd 43 12 ed 3d 18 fb 07 bb
       0.13293067 -0.07750294 0.11575749 -0.0020749029
000110 a1 79 00 bd 1d 3f 8d 3d 54 0a 92 bd 19 1c 23 3e
       -0.031365994 0.068968035 -0.07130876 0.15928687
000120 91 15 bb bc 6d 4f e0 bc f2 05 47 bd a1 eb 7b 3c
       -0.022837432 -0.027381623 -0.048589654 0.0153760025
000130 7f f4 fb 3d cd 26 9a 3d f3 be 45 bd 2a 7a 6b bd
       0.12302493 0.07526932 -0.048277806 -0.05748955
000140 90 8c 87 3d bf 07 cb 3d 97 24 5d bc f0 7d 97 bd
       0.06618607 0.09913587 -0.013497493 -0.073970675
000150 f0 b9 6b bd 6c 4f ac bc c7 e9 7a 3d c4 74 d0 bb
       -0.05755037 -0.021033965 0.061258104 -0.006361576
000160 ca b4 a0 3d 3e 24 26 be 24 70 bc 3c b9 a7 57 bd
       0.07846983 -0.16224763 0.023002692 -0.052650187
000170 65 3f 94 3d a8 39 8c 3b 02 fb 94 3d c7 8a e3 bc
       0.07238654 0.004279334 0.072744384 -0.027776135
000180 32 ff 44 be 29 a2 3c bd a5 60 63 bd 0d 2b 21 3b
       -0.19237974 -0.046053085 -0.05551209 0.002459231
000190 9e 21 34 bc 3e a7 38 bd 07 27 a6 38 40 5a 16 bd
       -0.010994343 -0.04508137 7.922766e-05 -0.036707163
0001a0 79 dd 33 3d b9 8a 2c be fd b6 53 bc 89 76 e1 bd
       0.043912385 -0.16849793 -0.012922046 -0.11008937
0001b0 ff 43 f2 bd 27 2e 7b bc 99 3a 1b 3d 13 13 fe 3c
       -0.118293755 -0.015330828 0.03789768 0.031014955
0001c0 29 a4 6e 3d 90 16 54 bd 1a 5a 45 be 30 00 d1 3d
       0.058262024 -0.05177933 -0.19272652 0.10205114
0001d0 39 f2 8b 3d c3 e0 4c 3d 8c 02 60 3d 03 68 c8 bc
       0.0683331 0.050019037 0.05468993 -0.02446366
0001e0 ad 16 48 bd 83 70 43 be 64 16 04 3e b6 80 e1 3c
       -0.04884975 -0.19085889 0.12899166 0.027527194
0001f0 fb 0b 91 bd 5d fb bc bd 78 9d 96 bd 1d c0 4a bd
       -0.07082363 -0.09227631 -0.073542535 -0.04949962
000200 d9 9b a7 b9 89 bd f9 3d 7d 61 21 3e aa 5c 37 3e
       -0.00031968838 0.12194354 0.15759845 0.17906442
000210 8b 3a ea bc d8 34 a6 3d 0e 5c 26 bc 70 51 78 bd
       -0.028592369 0.08115548 -0.0101537835 -0.06062454
000220 6d e3 a7 bc 93 99 ef 3d 9a aa 5c bd bf a3 41 3e
       -0.020494187 0.11699214 -0.053873636 0.1891012
000230 c4 51 c0 3c e4 41 a2 bd fb 6e 12 bc 3b 9f 28 bd
       0.023476489 -0.07922724 -0.008937593 -0.04116748
000240 d1 8f eb bd d9 8e a3 39 5f e7 65 bd fa a9 e7 bc
       -0.1150204 0.00031196213 -0.056128856 -0.028279293
000250 50 22 4a bc 5a fc 5e bd 6c b7 2a 3e 61 e9 85 bd
       -0.012337282 -0.05443988 0.16671532 -0.06538654
000260 da 19 82 bd e0 a6 b9 3c 20 f1 d8 bc 43 15 e4 bc
       -0.06352587 0.02266258 -0.026482165 -0.02784217
000270 36 09 a5 3b d9 6e 19 3e 10 5f 7c 3e 4c 25 9a bd
       0.0050364984 0.14983691 0.24645638 -0.07526645
000280 be 63 5c 3d 40 9d 22 bc 95 f3 eb bd 97 68 a5 3d
       0.05380606 -0.009925187 -0.11521069 0.080765896
000290 47 6f 17 bd 0f 97 34 bd ef e4 20 3d 85 b7 c4 3a
       -0.036971357 -0.044089373 0.039280828 0.0015008306
0002a0 34 16 a7 3d e3 c0 43 bc c3 e2 7e be d2 ad 8f bd
       0.08158532 -0.011947843 -0.2489119 -0.070155755
0002b0 95 d2 9b bd 05 f5 23 3d c4 be 17 bd ed aa 0d 3d
       -0.07608525 0.04002859 -0.037047163 0.034586836
0002c0 cc c1 8a bd 76 f0 d0 3d 9c a2 5c 3b a3 8d 3c 3d
       -0.06775245 0.10202114 0.0033666259 0.046033513
0002d0 f4 52 33 bd f6 6a a3 bd c6 b4 16 bc 36 2b ef 3c
       -0.043780282 -0.079793856 -0.009198373 0.02919541
0002e0 7f da a5 bd 25 c1 6e bd 69 30 a6 3d 32 00 84 3d
       -0.080983154 -0.058289666 0.08114702 0.0644535
0002f0 f3 de ae bc 3f 28 0b be 47 a8 00 3d d7 e4 5c 3d
       -0.021346545 -0.13589571 0.03141048 0.053929176
000300 ee 96 3a 3d 36 5a 80 3d 44 0f 59 bc 2f 1a 73 bd
       0.045554094 0.06267206 -0.0132482685 -0.059351142
000310 37 8b be bb ba 6f 59 3d 97 ff 8b be ee d7 86 bd
       -0.0058149355 0.053085066 -0.27343437 -0.06584154
000320 4a d4 b6 3c fd cb b7 3d cc b4 88 bd f2 bc 40 3d
       0.022318024 0.089744546 -0.06675109 0.047055192
000330 7f 3c 5b 3e c3 e4 80 3d 9c 6f 0e bb e3 86 aa bb
       0.21409796 0.06293633 -0.0021734005 -0.005204068
000340 29 e1 07 be 69 fa 7e bb e1 fc 92 3b 63 43 9b 3d
       -0.13269486 -0.003890658 0.004485712 0.07581212
000350 49 a0 0d bd 01 15 47 be aa 3c 93 bc 90 95 b3 3c
       -0.034576688 -0.19441606 -0.017973263 0.021921903
000360 58 90 a2 3a d7 a6 cb bc 88 08 55 3d be 9e a5 bd
       0.0012402637 -0.024859829 0.05201009 -0.08086918
000370 ee 20 77 bd 8e cf 30 be 26 58 59 3d d1 a7 0b 3d
       -0.06033414 -0.17266676 0.05306258 0.03409559
000380 28 29 b8 3c 05 65 8c 3c f5 d9 60 bd a7 80 4f 3d
       0.022480562 0.017138014 -0.05489536 0.0506598
000390 83 19 5d bd 74 ae 87 3d c0 ef 3c 3e 9e bb 90 bd
       -0.053979408 0.06625071 0.18450832 -0.07067035
0003a0 0d 4b 83 3d 41 1f b2 bc a0 ef 8a bd fd eb 16 3d
       0.06410799 -0.021743419 -0.06783986 0.03684615
0003b0 86 a3 8e bc 24 97 9d 3d 47 f8 4e be f4 d1 7d bd
       -0.017411958 0.076948434 -0.20211898 -0.061967805
0003c0 db d5 ff bc 87 be 92 bd 41 06 41 bd cd 37 45 3d
       -0.031229904 -0.071652465 -0.047125105 0.04814892
0003d0 00 8e 5d be 58 be 6b 3c d4 9f 37 3d 6d bb 9e bc
       -0.216362 0.014388643 0.04483016 -0.019376481
0003e0 82 fa 75 3d 20 6d ad bd 87 01 c6 3d 1d 0b 3a bd
       0.060053356 -0.084680796 0.0966826 -0.045420755
0003f0 f9 2b 9d bd ae d1 9a 3d 57 a1 c1 3c d7 ac 46 bd
       -0.07674403 0.075595245 0.023636503 -0.048504677
