noisy_mlp_10.pth (torch, 419446 bytes, 2 tensors)

net.0.weight f4 [128, 784]
0	0x3d05e43c	0.032688364
1	0xbc869f5d	-0.016433412
2	0xbb2af6ee	-0.0026087123
3	0xbb694428	-0.0035593603
4	0x3cde24d0	0.027117163
5	0xbcd882ac	-0.026429497
6	0x3c8400d9	0.016113685
7	0x3c83aeb3	0.016074514
8	0x3c1f8414	0.00973608
9	0xbbad7f9f	-0.0052947546
10	0xbc8d0825	-0.017215798
11	0x3cd5ed9f	0.026114283
12	0x3c741173	0.014896738
13	0x3c0e4834	0.008684207
14	0x3c5db51f	0.013531952
15	0xbc88c196	-0.016693871
16	0xbd03a99d	-0.032144178
17	0xbc825d35	-0.015913585
18	0xbcd415a7	-0.02588923
19	0x3cdb3a96	0.026761334
20	0x3c15888e	0.009126795
21	0x3c91fb65	0.01782007
22	0xbbaf9ed9	-0.0053595123
23	0xbcf9972c	-0.030467592
24	0xbb938759	-0.0045022187
25	0xbc8b611d	-0.01701408
26	0xbd0969d3	-0.033548187
27	0x3cb9f09e	0.022697743
28	0x3bdd2b02	0.0067495117
29	0xbc756361	-0.014977307
30	0xba4799ba	-0.00076141546
31	0x3d0058d4	0.031334713
32	0xbce1f7e4	-0.027584024
33	0x3cb98dda	0.022650648
34	0xbd15a9ae	-0.036538772
35	0xbca50cf5	-0.02014778
36	0x3c211749	0.009832212
37	0x3c962df9	0.018332468
38	0xbc5a31e3	-0.013317558
39	0xbcd588bf	-0.026066182
40	0xbc11813b	-0.008880909
41	0x3d0803db	0.0332068
42	0x3c3cb53f	0.011517822
43	0xbd13ee90	-0.036116183
44	0xbd10e8cb	-0.03537826
45	0x3cfcd86a	0.030864913
46	0xbcf7fc6e	-0.030271735
47	0xbc097432	-0.0083895195
48	0xbd072bae	-0.03300064
49	0x3c31a503	0.0108425645
50	0x3c06e398	0.0082329735
51	0xbc81167d	-0.015757794
52	0xbcdb253c	-0.026751153
53	0xbcc18510	-0.02362302
54	0xbd1a8c47	-0.037731435
55	0xbb729ed4	-0.0037020938
56	0xbb09dfb4	-0.0021037878
57	0x3cc9ec50	0.024648815
58	0xbd0a270b	-0.03372864
59	0xbc21d958	-0.009878479
60	0x3d0113dd	0.031513084
61	0xbd1ada4f	-0.03780585
62	0xbcf85af1	-0.030316802
63	0xbd13d99c	-0.0360962
64	0xbc484f75	-0.012225975
65	0x3c20dd67	0.009818411
66	0xbcf420c0	-0.029800773
67	0xbc328e0a	-0.010898123
68	0xbd19d7f8	-0.03755948
69	0xbd180a15	-0.03711899
70	0xbcb3e395	-0.021959106
71	0x3c8ba4ea	0.01704641
72	0x3bd49eca	0.0064886557
73	0x3cb1e42f	0.021715252
74	0xbc7abee7	-0.015304304
75	0x3d007f5d	0.031371463
76	0x3bc40afa	0.005982754
77	0xbc92b2f6	-0.0179076
78	0x3bba16d0	0.005678989
79	0x3ca473dd	0.02007478
80	0x3bf2e6cc	0.007412767
81	0x3cdb59b5	0.026776174
82	0x3cf8586b	0.030315598
83	0xbc8c0e5a	-0.017096687
84	0x3b0bd391	0.002133582
85	0x3ccaf95e	0.02477711
86	0x3c45e252	0.012077885
87	0xbc9eea09	-0.019398706
88	0xbc4eab01	-0.012614013
89	0x3c64e4ae	0.013970537
90	0xbbf3b0b1	-0.0074368347
91	0x3c385051	0.011249618
92	0xbc011e8d	-0.007880819
93	0x3cab12a9	0.020882921
94	0xbd0c1c0d	-0.03420644
95	0xbc725572	-0.01479088
96	0xbc06caef	-0.008227094
97	0x3a523668	0.00080189714
98	0xbc09d0ca	-0.008411596
99	0x3c8a9204	0.016915329
100	0xbc1ae047	-0.009452886
101	0xbb3b17c2	-0.0028548096
102	0x3cb109e3	0.02161116
103	0xbbef5b46	-0.007304582
104	0x3cb49938	0.022045717
105	0x3cee0d88	0.029059187
106	0xbc6cbd3e	-0.014449416
107	0xbc46bc37	-0.012129835
108	0xbd15894a	-0.036507882
109	0x3d02a453	0.031894993
110	0xbcdb53fa	-0.026773442
111	0x3cc3fed5	0.023925224
112	0x3c1c4283	0.009537342
113	0x3d01d509	0.031697307
114	0xbbd6994d	-0.0065490366
115	0xbc872d64	-0.016501136
116	0xbbe09014	-0.006853113
117	0x3cf5cc67	0.030004693
118	0xbc47ee24	-0.012202773
119	0x3c81b577	0.0158336
120	0xbc73df4e	-0.014884783
121	0x3c966ad6	0.01836149
122	0xbba7019f	-0.005096629
123	0xbcb679ba	-0.02227484
124	0x39984ba4	0.00029048056
125	0xbcbb543b	-0.022867313
126	0xba919886	-0.0011108078
127	0xbc6c292e	-0.014414115
128	0x3b58d50e	0.0033085975
129	0xbc79c004	-0.015243534
130	0xbcbba9bc	-0.022908084
131	0x3cd6be6d	0.026213849
132	0x3c77bf7f	0.01512134
133	0xbcaee39b	-0.021348765
134	0xbd013e3f	-0.031553503
135	0xbccaedac	-0.024771534
136	0x3cd5f9e3	0.026120132
137	0xbd1107a1	-0.035407666
138	0xb9d06bc9	-0.00039753158
139	0x3c49765e	0.012296287
140	0xbce3ceec	-0.027808629
141	0xbcce44c4	-0.025179274
142	0x3c4d2283	0.012520435
143	0x3c7dd8af	0.015493556
144	0x3d02cd20	0.031933904
145	0xbb5255bb	-0.0032094556
146	0xbd116a55	-0.035501797
147	0xbc8e4265	-0.017365644
148	0xbcd90ff3	-0.026496863
149	0xbce1d3ae	-0.027566757
150	0xbcf83b9a	-0.030301858
151	0xbad08a20	-0.0015910305
152	0xbcdfa292	-0.0272992
153	0xbc87597a	-0.016522158
154	0xbd183141	-0.037156347
155	0x3c7841a8	0.015152372
156	0x3ca9693f	0.020680068
157	0x3c47932e	0.0121810865
158	0xbcbf0e4d	-0.023322249
159	0xbc21a1ed	-0.009865266
160	0x3c276e52	0.0102191735
161	0xbd04acbc	-0.032391295
162	0x3c43e29c	0.011955883
163	0xbbb432bd	-0.0054992125
164	0x3ccdea7a	0.025136221
165	0xbc58bbd9	-0.01322838
166	0x3bd3de5d	0.0064657168
167	0x3c3ee06e	0.011650188
168	0xbd1425a1	-0.0361687
169	0x3c28078b	0.010255705
170	0xbd00b825	-0.031425614
171	0x3c686238	0.014183573
172	0xbcc2cb27	-0.023778511
173	0xbcd0d12e	-0.02549037
174	0xbcf99e0a	-0.030470867
175	0xbc5d67cd	-0.013513518
176	0x3bc53556	0.006018321
177	0xbc5b3a50	-0.013380602
178	0x3bd01d89	0.006351177
179	0xbcccb336	-0.024987798
180	0xbce7bae5	-0.02828736
181	0xb83a77cc	-4.4457425e-05
182	0xbceeb155	-0.029137293
183	0xbcfca1a7	-0.0308388
184	0xbcfa2acf	-0.03053799
185	0xbbd8c465	-0.006615209
186	0xbd16f618	-0.036855787
187	0x3cdbc759	0.026828455
188	0xbcdf63d9	-0.02726929
189	0xbb9b7cea	-0.0047451155
190	0x3bbd2691	0.0057724197
191	0xbb60ebe6	-0.0034320294
192	0x3c002c1a	0.007823015
193	0x3c27b583	0.010236147
194	0x3ac815d9	0.00152653
195	0xbcc78eec	-0.024360143
196	0xbd054ebe	-0.032545798
197	0x3bdf781d	0.0068197385
198	0x3c7bd9de	0.015371768
199	0xbc34f816	-0.011045476
200	0xbbb06100	-0.005382657
201	0xbc1f8b5b	-0.009737815
202	0x3bf6472f	0.00751581
203	0xbc33f984	-0.010984782
204	0x3d033c09	0.032039676
205	0xbcc2b828	-0.023769453
206	0x3c955b9f	0.018232165
207	0x3cb825ae	0.022478905
208	0xbb2e8874	-0.0026631625
209	0xbd05c6db	-0.032660346
210	0x3cbf34e8	0.023340657
211	0x3c4d1641	0.012517513
212	0xbd115ef0	-0.03549093
213	0x3cfd0f09	0.030890958
214	0xbce8072a	-0.028323729
215	0x3d03e2a1	0.032198552
216	0xbb8946dd	-0.0041893558
217	0x3c1e91ca	0.0096783135
218	0x3b9fbe26	0.0048749624
219	0x3cf45bf9	0.029829012
220	0xbcfa5757	-0.030559225
221	0xbc5d1ce2	-0.013495656
222	0xbcfec0fd	-0.031097883
223	0xbbdd3b01	-0.0067514186
224	0xbc8a4900	-0.016880512
225	0x3c92e5cc	0.017931841
226	0xbc2e2398	-0.010628603
227	0xbaeb05f1	-0.0017930848
228	0x3ca8600c	0.020553611
229	0xbd141ff0	-0.03616327
230	0xba69b65b	-0.0008915418
231	0x3cdf0b64	0.027227111
232	0xbd0b6187	-0.034028556
233	0x3b80ad24	0.00392689
234	0x3b2415ca	0.0025037401
235	0x3c10b9dc	0.008833375
236	0xbc2d8756	-0.010591349
237	0x3c5f19c1	0.01361698
238	0xbca94738	-0.020663843
239	0xbcb0a995	-0.021565238
240	0x3cfdbc59	0.0309736
241	0xbd194c3a	-0.03742621
242	0xbc2c416b	-0.010513644
243	0x3c0f328b	0.008740078
244	0x3cfbf9cc	0.03075876
245	0x3bc0e7ba	0.005886999
246	0xbd10ff73	-0.035399865
247	0xbceada96	-0.028668683
248	0xbcb2f3a9	-0.021844702
249	0xba2f016f	-0.0006675934
250	0x3cf3ce42	0.029761437
251	0xbbf4f23f	-0.007475167
252	0x3c0866d2	0.0083252955
253	0x3a334f58	0.0006840131
254	0xbd063fde	-0.032775752
255	0xbc20f811	-0.009824769

net.2.weight f4 [32, 128]
0	0x3d1dcbce	0.03852444
1	0xbca6b1d3	-0.020348465
2	0xbdebe442	-0.11518146
3	0x3deecc9f	0.11660122
4	0xbd7a46c4	-0.061102644
5	0xbcb1dee1	-0.021712722
6	0xbd068e65	-0.03285064
7	0x3d677cb5	0.056515414
8	0xbd0e21e9	-0.034700308
9	0xbd26b6df	-0.040701743
10	0xbd360e5e	-0.044447295
11	0xbd4f3d1d	-0.05059539
12	0x3d9e5795	0.07731549
13	0x3bf4ac5d	0.0074668364
14	0x3c39282e	0.0113010835
15	0xbd4d9c58	-0.05019793
16	0xbe000154	-0.12500507
17	0x3d643746	0.055716775
18	0x3d979566	0.07401542
19	0x3d1d29cd	0.038369942
20	0xbd239daa	-0.039945282
21	0xbd5b4133	-0.053528976
22	0xbd2ef94c	-0.042718217
23	0x3b8b4b42	0.004250915
24	0xbd81b1a8	-0.06332713
25	0xbd9d8a5c	-0.076924056
26	0xbba559a3	-0.005046086
27	0xbdc6280b	-0.09675606
28	0xbd9028a1	-0.07038999
29	0xbcf36933	-0.029713249
30	0x3d569561	0.052388553
31	0x3d606e9b	0.05479298
32	0xba9fc94d	-0.001219073
33	0xbd5cff38	-0.053954333
34	0xbd493964	-0.049126998
35	0x3d180602	0.037115104
36	0x3d9b4cb4	0.07582989
37	0xbb66b402	-0.0035202508
38	0x3d952e70	0.07284248
39	0xbd1cf5d2	-0.03832037
40	0x3cf6d0b4	0.030128814
41	0xbd97b2c0	-0.07407141
42	0xbdaffc0d	-0.08592997
43	0xbe02ce61	-0.1277404
44	0xbe0e6d7f	-0.13908957
45	0x3ca10fa9	0.019660788
46	0x3dbde049	0.092712946
47	0x3e10f19d	0.14154668
48	0xbd90a614	-0.07062927
49	0xbc17d864	-0.0092679
50	0xbe08638a	-0.13319221
51	0x3c05b520	0.008160859
52	0xbccda737	-0.025104148
53	0x3d8b02f7	0.06787675
54	0x3db1f2c3	0.08688881
55	0xbc2ec2f0	-0.010666594
56	0x3c7a3217	0.015270731
57	0x3d42744b	0.047474187
58	0xbd09ac5a	-0.033611633
59	0xbd8915c6	-0.06693606
60	0xbe28dbd3	-0.16490106
61	0x3c67f2b7	0.014156989
62	0x3d96574e	0.07340871
63	0x3d7cc196	0.061708055
64	0x3d844891	0.064591534
65	0xbd971d4a	-0.07378633
66	0x3e260a05	0.1621476
67	0x3d4eceba	0.05049012
68	0xbcf75cc4	-0.030195601
69	0x3d8c4c1e	0.06850456
70	0xbdb1236f	-0.086493365
71	0xbcbff395	-0.023431579
72	0xbcb112b6	-0.021615367
73	0xbcc5b319	-0.024133252
74	0xbd3af409	-0.045642886
75	0x3d9b86b7	0.07594054
76	0x3da9ce79	0.08291335
77	0x3d9d05c2	0.07667114
78	0xbd423bd8	-0.047420353
79	0xbd5e452d	-0.05426519
80	0xbd92ebce	-0.071738824
81	0xbcb40e25	-0.0219794
82	0xbc823c1a	-0.0158978
83	0xbd8f0860	-0.06984019
84	0xbd6107d7	-0.054939117
85	0x3d926caf	0.07149636
86	0x3d81e84b	0.063431345
87	0xbbb50195	-0.0055238702
88	0x3d9edc34	0.07756844
89	0xbdd4f654	-0.10398546
90	0x3cba8999	0.02277069
91	0xbd4f73c1	-0.0506475
92	0x3d979c62	0.074028745
93	0x3c11c579	0.008897179
94	0x3dce7b61	0.100821264
95	0xbcd268d1	-0.025684746
96	0xbd0ba01c	-0.03408824
97	0xbd487b4d	-0.048945714
98	0xbd647446	-0.05577495
99	0xbd96167b	-0.073285066
100	0x3d30a007	0.043121364
101	0xbd2d8ace	-0.042368703
102	0xba6a9f2e	-0.0008950111
103	0xbd09bcee	-0.033627443
104	0x3d31f4ea	0.04344646
105	0xbd8437d2	-0.064559594
106	0xbc33bd60	-0.0109704435
107	0xbccfcdb8	-0.025366649
108	0xbdedbcd2	-0.1160828
109	0xbda4289b	-0.080155574
110	0x3b9583d5	0.0045628347
111	0x3d0a439d	0.033755887
112	0x3d7e5128	0.062089115
113	0xbdf03787	-0.11729341
114	0xbe20fca8	-0.1572138
115	0x3d7e6efb	0.062117558
116	0x3d917561	0.071024664
117	0x3c3e3a69	0.011610606
118	0xbcc48663	-0.023989862
119	0xbcc86803	-0.02446366
120	0xbd544431	-0.051822845
121	0xbd98b676	-0.07456677
122	0x3dea907f	0.11453342
123	0x3cf54f2b	0.029944977
124	0xbd910bfb	-0.07082363
125	0xbd71eb4e	-0.059062295
126	0xbd97887a	-0.07399078
127	0xbd6ccf97	-0.05781516
128	0x3a01087d	0.00049222243
129	0x3d71886b	0.05896799
130	0x3cd548fd	0.02603578
131	0x3dc4de97	0.09612768
132	0xbceaa04b	-0.028640887
133	0x3da4298c	0.08015737
134	0xbcbd2b7f	-0.02309203
135	0xbd6e2910	-0.05814463
136	0xbc471306	-0.012150532
137	0x3d902a3e	0.07039307
138	0x3db18053	0.08667054
139	0x3d2384d3	0.039921593
140	0xbd8e5994	-0.069506794
141	0xbd971311	-0.073766835
142	0xbc4d6ecf	-0.012538626
143	0xbd25e30d	-0.040499736
144	0xbd50654d	-0.050877858
145	0x3a0a07d5	0.0005265449
146	0x3d23b4dc	0.039967403
147	0xbd06749c	-0.03282605
148	0xbc736f10	-0.014858022
149	0xbd75f7fb	-0.060050946
150	0xbcc8f386	-0.024530184
151	0xbd8380c4	-0.064210445
152	0xbd35cc0e	-0.044384055
153	0x3cb37efa	0.021911133
154	0xbcf0b179	-0.0293815
155	0x3c9b3b9c	0.018949322
156	0x3b0fca31	0.0021940584
157	0x3d43c8e1	0.047798995
158	0xbb402149	-0.0029316714
159	0xbd9becc4	-0.07613519
160	0x3d5b4c65	0.053539652
161	0xbd34f1ae	-0.044175796
162	0xbd1e1539	-0.03859446
163	0x3da65895	0.081223644
164	0xbd177aa7	-0.036982205
165	0xbc6a4d44	-0.014300648
166	0x3d110424	0.03540434
167	0x3b2de079	0.0026531501
168	0x3d991f30	0.07476652
169	0xbc45fc00	-0.012084007
170	0xbd74d7f7	-0.059776273
171	0xbd86e875	-0.065873064
172	0xbd92b79c	-0.07163927
173	0x3d23e625	0.040014405
174	0x3c5f5df9	0.013633245
175	0x3de5f10b	0.11227616
176	0xbd8af5b4	-0.067851454
177	0x3dabe166	0.08392601
178	0xbd90b1e3	-0.07065179
179	0x3d445a22	0.04793752
180	0xbd2ec16e	-0.042664938
181	0xbda142c3	-0.07874062
182	0xbc79f203	-0.015255454
183	0x3cdc8737	0.026919944
184	0xbda9d353	-0.0829226
185	0xbd69e15a	-0.057099678
186	0x3da4ff19	0.080564685
187	0x3d815f45	0.06316999
188	0xbd294092	-0.041321345
189	0xbc176be6	-0.009242034
190	0xbc38468f	-0.011247291
191	0x3d5be776	0.053687535
192	0x3c8af25e	0.016961273
193	0x3d721744	0.05910422
194	0x3d69d1bb	0.05708478
195	0xbbcea901	-0.006306768
196	0xbb8e2822	-0.0043382803
197	0x3d53e4af	0.05173176
198	0xbc85138d	-0.016244674
199	0x3d5a8ffb	0.053359967
200	0x3c9a990b	0.018871805
201	0x3db265df	0.087108366
202	0xbd8faad2	-0.07015003
203	0x3d7fcae6	0.06244936
204	0x3dbd2295	0.092351116
205	0x3d836a40	0.0641675
206	0xb9f59a71	-0.0004684511
207	0xbbc39420	-0.0059685856
208	0xbd976bb0	-0.07393587
209	0x3d42b122	0.04753221
210	0x3ac39812	0.001492264
211	0x3d92d595	0.07169644
212	0xbd21b182	-0.039475925
213	0xbd6bf28a	-0.05760435
214	0xbd0fd349	-0.035113607
215	0x3cb44539	0.022005664
216	0x3a42502e	0.00074124604
217	0xbd9691d4	-0.07352033
218	0x3d517526	0.051137112
219	0xbda2a17e	-0.079409584
220	0xbd73846e	-0.059452467
221	0xbd9163f8	-0.07099146
222	0x3dbce1d3	0.0922276
223	0x3d0166b8	0.0315921
224	0x3d8d1841	0.06889392
225	0x3c9df42e	0.019281473
226	0xbd5b3fcf	-0.05352765
227	0x3c69949b	0.014256622
228	0xbc2c5442	-0.0105181355
229	0x3d86bc91	0.06578935
230	0x3dd9e76e	0.10639845
231	0xbd951cc8	-0.0728088
232	0x3d8b654d	0.06806431
233	0xbc617348	-0.013760395
234	0xbd889dc0	-0.066707134
235	0x3cb5aa03	0.022175794
236	0xbd9cb41d	-0.076515414
237	0x3c938f7e	0.018012758
238	0x3dae0aca	0.084981516
239	0xbd85939f	-0.06522297
240	0xbce9a315	-0.028520146
241	0xbdc48aaa	-0.095967606
242	0xbd8fa4ce	-0.07013856
243	0x3b995a4b	0.004679953
244	0xbdab9a74	-0.08379069
245	0x3d567619	0.05235872
246	0xbd89cd7e	-0.06728648
247	0xbc9ebb6d	-0.019376481
248	0x3d73fd93	0.059568
249	0x3c966967	0.018360807
250	0x3d2eeed6	0.04270824
251	0x3c58f85c	0.013242807
252	0xbd9d2bf9	-0.07674403
253	0xba247ec6	-0.0006274994
254	0x3cbe3da2	0.023222748
255	0xbd4d6ceb	-0.0501527
